checkpoints_backup/230906/checkpoint_92.64.pth (torch, 64415 bytes, 6 tensors)

weight f4 [4, 1, 3, 3]
-0.20986651 0.19643754 -0.20645534 0.26688984 -0.23162468 0.0748976 0.15687501 0.054859538
-0.26651895 -0.27457193 0.73090476 0.76175433 -0.7624134 -0.49770635 0.051544517 0.026562588
-0.7904862 -0.35206488 -0.061517954 -0.5642998 0.15400028 1.7365086 1.7498032 2.027459
2.180786 2.4084299 2.6646175 1.3905052 1.2872261 1.9009451 1.013952 1.3271586
1.6060127 -0.84182584 -0.85518503 -0.58200294
00000000: 3fe7 56be ec26 493e 0769 53be c9a5 883e
00000010: 052f 6dbe ea63 993d d8a3 203e 65b4 603d
00000020: 2c75 88be b194 8cbe 931c 3b3f 5502 433f
00000030: 862d 43bf 5ed3 febe 5820 533d c999 d93c
00000040: 4e5d 4abf d941 b4be 40fa 7bbd f475 10bf
00000050: 40b2 1d3e ea45 de3f 8df9 df3f e3c1 0140
00000060: ff91 0b40 b723 1a40 1889 2a40 13fc b13f
00000070: d3c3 a43f 2b52 f33f 2ec9 813f 55e0 a93f
00000080: d391 cd3f e681 57bf 68ed 5abf 25fe 14bf

bias f4 [4]
-0.3197379 1.0054363 -1.4999988 -1.1626663
00000000: b0b4 a3be 23b2 803f f6ff bfbf 40d2 94bf

weight f4 [8, 4, 3, 3]
0.07450876 -0.11286717 -0.10243584 -0.058791164 0.037147336 -0.07101126 -0.057977263 -0.12484084
0.06312094 1.2967815 0.49349603 -1.6358186 0.6053003 1.4047135 1.408731 -1.3633465
-0.60239273 2.0448174 -0.34455916 0.34928444 0.63027096 -0.5771706 -1.055758 -0.10761936
0.6844163 0.25844616 -0.32426968 0.20765358 0.7232495 0.29104996 -0.7787208 -0.19305031
0.9890323 0.56314194 -0.9145687 -0.41922003 -0.10885182 0.13919613 0.037254333 0.07454237
-0.10342759 0.03129593 0.111794 -0.020614099 0.049443174 -0.15034989 0.4549703 0.052237533
0.3893287 -0.04886111 -0.34565577 1.4218503 0.4304576 0.47245806 0.8862778 0.8597484
-0.20002359 -0.530993 -0.9648422 -1.0525917 -0.6710098 -0.009199291 0.5784915 0.5237449
1.2544236 0.65008235 0.55274403 0.25315318 -1.1419576 -0.32934266 -1.3018441 -0.20989238
0.052942578 -0.033930432 -0.04976559 0.029345632 -0.01782491 -0.04140747 -0.02033702 0.15425795
-0.05829336 -0.06942364 -1.2413598 -1.2202901 -0.46561846 -0.5601001 -1.1721174 -0.089937754
-0.38711458 0.013982231 0.64279336 0.7312693 0.7289937 -0.5184426 -0.12302314 0.3304978
-0.29023162 -0.12284407 0.15553275 -0.8562371 -1.1350378 -1.5624299 -0.2234155 0.5059249
1.086516 -0.017254004 0.030757777 0.072740786 0.13494158 -0.100687966 0.12402171 -0.0055767894
0.12450709 -0.10142785 -0.054115813 -0.09119507 -0.10167305 -0.06756643 -0.12302586 -0.17040478
-0.05502041 -0.10736224 0.09667172 -0.0735265 0.008845946 -0.15860483 -0.111567006 -0.103695855
-0.10357048 -0.09102621 0.007083658 0.06795769 -0.15245071 -0.15005194 -0.06655055 -0.12151899
-0.07437031 -0.08328882 -0.007984957 -0.16371623 0.0067274356 -0.07852624 -0.12798719 -0.13658088
0.15298346 -0.16354465 0.026034614 8.583069e-06 -0.07367778 -0.096592605 0.16380477 0.0579476
0.012925765 -0.008349789 -0.10169804 -0.14413166 -0.15854369 -0.1655788 -0.015745167 0.045189198
-0.02482622 -0.11284885 0.051722478 0.018260209 -0.0805809 -0.014499769 -0.1584332 -0.07003176
-0.13999492 -0.060390785 0.0851051 -0.110975936 -0.19059768 0.030620502 -0.03792306 0.08901351
-0.029316477 -0.124450654 -0.043533914 -0.1929625 -0.10484519 -0.10723196 -0.044087585 -0.117787994
0.13510405 -0.15094163 -0.024414483 0.049865007 0.060929645 0.6648827 -0.106475614 -0.47459468
0.8034796 -0.32446507 -0.8785515 1.0037701 0.29970363 0.023841396 -0.10916848 -0.29518375
0.53200495 -0.64883786 -0.027118616 0.45304367 -0.24773702 0.33913648 0.44360763 -0.53865075
-0.72890455 0.14220513 -0.6455585 -0.36619982 0.35294393 -0.4444945 0.10126116 0.75708985
0.085811436 0.14724725 0.11736307 -0.1154422 0.036348842 0.048090767 -0.12581566 0.080474384
-0.04027176 -2.0289354 -3.5558114 -3.9852345 -0.13751414 -1.1019037 -0.73301303 -2.0267797
-2.232772 -1.4782931 -0.28513873 0.20569871 0.3949813 -0.16457972 0.19855632 0.10914065
0.19392371 0.1313118 -0.13619736 -0.00083039363 0.075575866 -0.123250395 0.028614335 0.81087023
0.91938615 0.16990218 -0.13546282 -0.13681926 -0.06295491 -0.063734934 -0.03250983 -0.12680432
00000000: 0c98 983d e726 e7bd e2c9 d1bd 01cf 70bd
00000010: ce27 183d 5a6e 91bd 9179 6dbd 8eac ffbd
00000020: 8d45 813d f0fc a53f 83ab fc3e 8162 d1bf
00000030: f6f4 1a3f a7cd b33f 4c51 b43f 2382 aebf
00000040: 6936 1abf 4ade 0240 0f6a b0be 69d5 b23e
00000050: 7059 213f 74c1 13bf 1423 87bf 8a67 dcbd
00000060: e835 2f3f 0e53 843e ad06 a6be 24a3 543e
00000070: e126 393f 8004 953e 3f5a 47bf fbae 45be
00000080: 3931 7d3f 122a 103f 2d21 6abf 02a4 d6be
00000090: b4ed debd 6e89 0e3e 0098 183d aca9 983d
000000a0: d8d1 d3bd 2930 003d 41f4 e43d e6de a8bc
000000b0: ed84 4a3d 52f5 19be def1 e83e 06f7 553d
000000c0: 1756 c73e 9622 48bd cbf9 b0be 31ff b53f
000000d0: f064 dc3e 06e6 f13e 1ae3 623f 7918 5c3f
000000e0: fcd2 4cbe 28ef 07bf e6ff 76bf 53bb 86bf
000000f0: 4cc7 2bbf 9fb8 16bc 0518 143f 2514 063f
00000100: f490 a03f cc6b 263f a280 0d3f 4b9d 813e
00000110: ab2b 92bf 9a9f a8be d4a2 a6bf 07ee 56be
00000120: 51da 583d a3fa 0abd 01d7 4bbd 4066 f03c
00000130: 8c05 92bc e19a 29bd d299 a6bc ccf5 1d3e
00000140: 05c5 6ebd fb2d 8ebd e1e4 9ebf 7732 9cbf
00000150: 8b65 eebe b862 0fbf f107 96bf 4931 b8bd
00000160: e233 c6be ba15 653c 1b8e 243f 7734 3b3f
00000170: 559f 3a3f a7b8 04bf 8ef3 fbbd 0237 a93e
00000180: 3d99 94be ac95 fbbd fa43 1f3e 5b32 5bbf
00000190: eb48 91bf b4fd c7bf 08c7 64be 4b84 013f
000001a0: f512 8b3f 4558 8dbc bcf7 fb3c 1ff9 943d
000001b0: 202e 0a3e 7e35 cebd 18ff fd3d 80bd b6bb
000001c0: 93fd fe3d 68b9 cfbd 8ba8 5dbd 7bc4 babd
000001d0: f639 d0bd 4560 8abd fbf4 fbbd 977e 2ebe
000001e0: 155d 61bd bce0 dbbd d3fb c53d 1095 96bd
000001f0: 96ee 103c 4e69 22be 3e7d e4bd 7e5e d4bd
00000200: c31c d4bd f36b babd 081e e83b 672d 8b3d
00000210: 0a1c 1cbe 37a7 19be a84b 88bd f3de f8bd
00000220: 764f 98bd 5493 aabd 56d3 02bc 3aa5 27be
00000230: d271 dc3b 5ed2 a0bd 130f 03be dcdb 0bbe
00000240: b2a7 1c3e 4078 27be 8b46 d53c 0000 1037
00000250: 60e4 96bd 58d2 c5bd 70bc 273e 765a 6d3d
00000260: 96c6 533c 8ecd 08bc 1047 d0bd 4097 13be
00000270: 4759 22be 7d8d 29be 02fc 80bc 4f18 393d
00000280: 5b60 cbbc 4c1d e7bd f3da 533d 6f96 953c
00000290: 9907 a5bd 7090 6dbc 503c 22be d06c 8fbd
000002a0: d45a 0fbe 545c 77bd 954b ae3d 5a47 e3bd
000002b0: 0a2c 43be d9d7 fa3c 3655 1bbd b74c b63d
000002c0: 1c29 f0bc fcdf febd 9e50 32bd f697 45be
000002d0: 13b9 d6bd 6e9c dbbd 2f95 34bd d53a f1bd
000002e0: b758 0a3e 7190 1abe e200 c8bc 403f 4c3d
000002f0: 5d91 793d c135 2a3f e30f dabd 13fe f2be
00000300: d7b0 4d3f 4920 a6be c0e8 60bf 8a7b 803f
00000310: c172 993e 084f c33c b993 dfbd 5322 97be
00000320: 7a31 083f 3d1a 26bf dc27 debc 57f5 e73e
00000330: c6ae 7dbe 4ca3 ad3e 8a20 e33e 04e5 09bf
00000340: 7d99 3abf 399e 113e 5243 25bf 8b7e bbbe
00000350: 11b5 b43e c894 e3be 0362 cf3d a4d0 413f
00000360: e8bd af3d fcc7 163e 0d5c f03d f66c ecbd
00000370: 86e2 143d d3fa 443d d2d5 00be c1cf a43d
00000380: 00f4 24bd 14da 01c0 6a92 63c0 150e 7fc0
00000390: 82d0 0cbe 2e0b 8dbf bea6 3bbf c2b6 01c0
000003a0: bde5 0ec0 b538 bdbf b4fd 91be afa2 523e
000003b0: fd3a ca3e 9687 28be 5952 4b3e 2285 df3d
000003c0: f093 463e 9a76 063e 5277 0bbe c6ae 59ba
000003d0: 85c7 9a3d b46a fcbd 9c68 ea3c 3195 4f3f
000003e0: e45c 6b3f d6fa 2d3e c4b6 0abe 591a 0cbe
000003f0: 81ee 80bd 7687 82bd 0729 05bd fed8 01be

bias f4 [8]
-1.0412319 0.54448944 -0.81676567 -0.130284 -0.1678537 -0.17354853 -0.8190127 1.2279738
00000000: 1647 85bf a963 0b3f 8e17 51bf 2b69 05be
00000010: d7e1 2bbe b5b6 31be d1aa 51bf 3f2e 9d3f

weight f4 [29, 512]
-0.29958507 -1.3335791 -0.20710875 0.29173952 0.35127527 0.24858636 -0.13124362 -0.4965859
-0.6143595 -0.92840576 -0.6318908 -0.7191493 -0.08811665 -0.245035 -0.330188 -1.0626721
-0.14660542 -0.036212314 -0.5096456 -0.5864075 -0.76973724 -0.89389 -0.8289365 -1.2038583
-0.42139915 -0.6717848 -0.13690479 -0.22040339 -0.6206892 -0.7922996 -0.68929285 -0.9490702
-0.099082656 -0.0240476 -0.020954942 -0.13419405 -0.41844875 -0.34187806 -0.59999865 -0.46762723
0.2931542 -0.37573445 0.1255317 -0.28850573 -0.41727588 -0.4525812 -1.0990355 -0.52646166
0.43608326 -0.13316132 -0.16742563 0.04606782 -0.094258785 0.026504617 -0.52512455 -0.41650277
-0.024560958 0.33857405 0.17786784 0.20485003 0.1572815 0.25970492 -0.19138937 -0.14648885
-1.0036128 -1.1003352 -0.047762293 0.45522928 0.42287707 0.46368417 0.44772387 0.92255753
-1.75219 0.48461452 0.6692077 0.47052145 0.265565 0.15683532 0.07806339 0.04781487
0.86860704 0.69633573 0.28195086 0.4910543 0.6599576 0.6646986 0.49068552 0.09428685
0.06917019 0.18002757 0.29546642 0.18779813 0.18449813 0.16429533 0.773905 -0.07907388
0.2469923 0.23063923 0.15725294 -0.019344302 0.21661913 -0.043166924 0.25309682 -0.18847434
-0.6819434 -0.46951085 0.032637365 -0.14569613 0.058039356 0.12900868 0.18419054 0.09059138
-0.5608303 -0.17071748 0.095969364 0.07642484 -0.36277318 -0.061065342 -0.331494 -0.4666141
-0.029940037 -0.09352421 0.18794799 0.19160064 -0.028266078 -0.01620433 -0.25378236 0.09176419
0.24810487 0.79869497 0.52562326 -0.7889854 -0.36551026 -4.0058074 -3.249491 -2.084304
-0.37198192 -0.42179528 -0.08439734 0.33844587 0.07618187 -0.46357056 -0.3701745 0.17710805
0.07059344 0.25384828 -0.29949516 -0.6633852 -0.07984344 0.09012549 0.24891894 -0.780202
0.3011232 0.022998016 -0.018659974 0.33029038 -0.30614832 -0.34790853 0.16174851 0.5290725
0.5163456 0.38196945 0.4738233 0.31542706 0.35377333 0.09897236 0.12437313 -0.35554925
-0.1182562 -0.21460597 0.1904273 -0.28200537 -0.073218755 -0.3363389 0.12551232 -0.0072978693
0.010001192 -0.20114163 0.087577015 0.11775633 -0.07903988 -0.12250194 -0.12485167 0.04216147
-0.107512705 -0.09539358 0.063956805 -0.17229618 -0.23398985 -0.060421377 0.10905562 0.29941177
-0.043470316 -0.01807673 -0.011514871 0.042300794 0.0116637815 -0.0416187 -0.0055486746 0.039557997
-0.010771044 -0.027306532 0.018350853 -0.041653663 0.039915998 0.02450423 -0.0035631736 -0.03775557
-0.02305569 0.027816445 0.020668725 -0.011162577 0.0038336825 -0.01646238 -0.042987786 0.027870072
0.010082569 -0.020961335 -0.03369105 0.002706186 -0.005112876 -0.021971177 0.035999633 -0.032298353
-0.011715111 -0.03393363 -0.010411884 -0.010532565 -0.036978416 -0.026265325 0.035849772 0.004732996
-0.020141704 0.006788435 0.024463464 0.0014202539 0.038003232 -0.0035589219 -0.022907829 -0.01625388
0.0075430423 0.007819468 -0.0029088226 0.038042046 -0.030536056 -0.033015665 0.010975018 -0.042470798
0.024883877 -0.01704606 0.005200468 -0.043310378 0.0024795886 0.001212111 -0.032140434 0.042617626
00000000: 3763 99be b8b2 aabf 5114 54be e25e 953e
00000010: 5ada b33e 6c8d 7e3e ba64 06be 8240 febe
00000020: aa46 1dbf 00ac 6dbf 98c3 21bf 2b1a 38bf
00000030: 8176 b4bd 74ea 7abe 670e a9be a405 88bf
00000040: bb1f 16be 5d53 14bd 2278 02bf cd1e 16bf
00000050: 800d 45bf fad5 64bf 2f35 54bf 0718 9abf
00000060: a1c1 d7be 17fa 2bbf c530 0cbe 6db1 61be
00000070: 7de5 1ebf 26d4 4abf 7f75 30bf 44f6 72bf
00000080: d9eb cabd 79ff c4bc b3a9 abbc 2a6a 09be
00000090: ea3e d6be a40a afbe 8399 19bf d66c efbe
000000a0: 4f18 963e 4460 c0be 628b 003e 06b7 93be
000000b0: 2fa5 d5be b9b8 e7be 32ad 8cbf 31c6 06bf
000000c0: 4e46 df3e 715b 08be a071 2bbe 9cb1 3c3d
000000d0: c00a c1bd 3620 d93c 906e 06bf da3f d5be
000000e0: 1034 c9bc 9459 ad3e fd22 363e 35c4 513e
000000f0: 670e 213e 0bf8 843e 93fb 43be 2c01 16be
00000100: 6276 80bf c9d7 8cbf 65a2 43bd d013 e93e
00000110: 5883 d83e 0368 ed3e 103c e53e bb2c 6c3f
00000120: c347 e0bf 651f f83e 3251 2b3f 30e8 f03e
00000130: 23f8 873e 7099 203e b3df 9f3d 86d9 433d
00000140: 085d 5e3f 0f43 323f dd5b 903e 786b fb3e
00000150: fbf2 283f b029 2a3f 223b fb3e 7719 c13d
00000160: 1aa9 8d3d 2659 383e 6047 973e 274e 403e
00000170: 14ed 3c3e 093d 283e a31e 463f 7df1 a1bd
00000180: 8deb 7c3e b12c 6c3e ea06 213e f177 9ebc
00000190: 68d1 5d3e cdcf 30bd e895 813e 6bff 40be
000001a0: d893 2ebf ba63 f0be c2ae 053d 5e31 15be
000001b0: adba 6d3d da1a 043e 729c 3c3e f987 b93d
000001c0: 9392 0fbf 90d0 2ebe 968b c43d a084 9c3d
000001d0: 68bd b9be a71f 7abd 95b9 a9be 0be8 eebe
000001e0: cf44 f5bc 9f89 bfbd 7075 403e f532 443e
000001f0: 438e e7bc f1be 84bc c3ef 81be ddee bb3d
00000200: 340f 7e3e 4677 4c3f 3f8f 063f f2fa 49bf
00000210: 2924 bbbe 932f 80c0 a9f7 4fc0 3d65 05c0
00000220: 6a74 bebe 8df5 d7be 83d8 acbd c748 ad3e
00000230: 3e05 9c3d 1f59 edbe 8387 bdbe d05b 353e
00000240: 4b93 903d 67f8 813e 6e57 99be 9dd3 29bf
00000250: f584 a3bd b793 b83d 9be4 7e3e 51bb 47bf
00000260: d22c 9a3e 5666 bc3c cddc 98bc d21b a93e
00000270: 79bf 9cbe 1121 b2be 67a1 253e 4c71 073f
00000280: 3a2f 043f 8091 c33e f898 f23e a87f a13e
00000290: c721 b53e 05b2 ca3d 57b7 fe3d 8d0a b6be
000002a0: 4e30 f2bd abc1 5bbe 60ff 423e 0263 90be
000002b0: b7f3 95bd 9d34 acbe 4d86 003e f722 efbb
000002c0: 0adc 233c 12f8 4dbe 945b b33d 3b2a f13d
000002d0: a9df a1bd 4ce2 fabd 3bb2 ffbd 81b1 2c3d
000002e0: 9f2f dcbd b65d c3bd c9fb 823d 696e 30be
000002f0: 099b 6fbe 687c 77bd 8e58 df3d 804c 993e
00000300: ee0d 32bd a715 94bc dfa8 3cbc 9943 2d3d
00000310: 7219 3f3c 5f78 2abd a8d1 b5bb 9107 223d
00000320: 0879 30bc f3b1 dfbc 8754 963c 089d 2abd
00000330: f57e 233d 18bd c83c 2284 69bb 96a5 1abd
00000340: 49df bcbc 50df e33c 7551 a93c 3ee3 36bc
00000350: 853e 7b3b 1ddc 86bc f613 30bd c74f e43c
00000360: 5c31 253c 1bb7 abbc a0ff 09bd 445a 313b
00000370: ea89 a7bb e6fc b3bc 5a74 133d 474b 04bd
00000380: bdf0 3fbc fdfd 0abd 9b96 2abc c890 2cbc
00000390: ae76 17bd 612a d7bc 36d7 123d 4017 9b3b
000003a0: 3700 a5bc 8571 de3b 9a67 c83c d027 ba3a
000003b0: 47a9 1b3d cd3c 69bb 33a9 bbbc db26 85bc
000003c0: a02b f73b 3a1d 003c f2a1 3ebb fad1 1b3d
000003d0: c026 fabc 6f3b 07bd 90d0 333c dcf5 2dbd
000003e0: 46d9 cb3c 2ea4 8bbc b068 aa3b 3966 31bd
000003f0: 9880 223b b2df 9e3a b0a5 03bd d28f 2e3d

bias f4 [29]
0.045967113 -0.061621092 0.039557375 0.09080068 0.0587648 0.04401781 0.049043693 0.2076747
0.08663312 -0.08791564 0.07513934 -0.38437077 -0.40101317 -0.136908 -0.181845 -0.19439515
-0.01393656 0.17223014 -0.19681314 0.24752952 -0.15293011 0.03816805 0.15743507 0.16249704
-0.040092766 0.009958818 -0.02297522 0.25156358 -0.16811714
00000000: 0348 3c3d 6666 7cbd ea06 223d b5f5 b93d
00000010: 5cb3 703d 054c 343d 0ae2 483d ada8 543e
00000020: b56c b13d 1d0d b4bd a7e2 993d 3fcc c4be
00000030: 9951 cdbe 9c31 0cbe 9335 3abe 860f 47be
00000040: 2b56 64bc 195d 303e 6289 49be 6178 7d3e
00000050: b699 1cbe 1a56 1c3d a936 213e a065 263e
00000060: 5038 24bd 4f2a 233c 8736 bcbc f1cc 803e
00000070: e626 2cbe
