checkpoints_backup/230906/checkpoint_92.07.pth (torch, 64415 bytes, 6 tensors)

weight f4 [4, 1, 3, 3]
-0.20986651 0.19643754 -0.20645534 0.26688984 -0.23162468 0.0748976 0.15687501 0.054859538
-0.26651895 -0.27881423 0.71127355 0.721564 -0.73066443 -0.46826372 0.050481506 0.019105013
-0.75610155 -0.33099473 -0.05710937 -0.49718004 0.23173699 1.7462513 1.7760736 2.0862517
2.1150074 2.3498898 2.6602976 1.3735001 1.2458273 1.8495258 0.97297657 1.2693093
1.5553422 -0.82222164 -0.81433785 -0.5510318
00000000: 3fe7 56be ec26 493e 0769 53be c9a5 883e
00000010: 052f 6dbe ea63 993d d8a3 203e 65b4 603d
00000020: 2c75 88be bdc0 8ebe 0616 363f 6bb8 383f
00000030: d30c 3bbf 43c0 efbe b2c5 4e3d 1e82 9c3c
00000040: df8f 41bf 2478 a9be 84eb 69bd 628e febe
00000050: 764c 6d3e 2a85 df3f 6156 e33f 2685 0540
00000060: 485c 0740 9864 1640 5142 2a40 dace af3f
00000070: 4577 9f3f 43bd ec3f fe14 793f ba78 a23f
00000080: 7415 c73f 1e7d 52bf 7278 50bf 6c10 0dbf

bias f4 [4]
-0.3197379 0.9563378 -1.5082794 -1.1339135
00000000: b0b4 a3be 8ed2 743f 4d0f c1bf 1424 91bf

weight f4 [8, 4, 3, 3]
0.07450876 -0.11286717 -0.10243584 -0.058791164 0.037147336 -0.07101126 -0.057977263 -0.12484084
0.06312094 1.2233458 0.49755082 -1.5739204 0.5471257 1.3752407 1.3813679 -1.2932659
-0.47466207 1.9384218 -0.30920112 0.30916947 0.6188358 -0.573445 -1.0023179 -0.07632374
0.6991141 0.21090354 -0.3217287 0.23152228 0.7080139 0.31909525 -0.74648 -0.19784655
0.9705694 0.521202 -0.8900346 -0.42966667 -0.10885182 0.13919613 0.037254333 0.07454237
-0.10342759 0.03129593 0.111794 -0.020614099 0.049443174 -0.117782675 0.4429624 0.07701409
0.4102972 -0.021408351 -0.3082213 1.366412 0.47092742 0.52188617 0.85986793 0.83944786
-0.1794477 -0.50524765 -0.91217816 -1.026424 -0.6419026 -0.056719776 0.5547121 0.54552656
1.2031789 0.63063645 0.54137474 0.29071066 -1.0764486 -0.34217834 -1.2673599 -0.27590102
0.052942578 -0.033930432 -0.04976559 0.029345632 -0.01782491 -0.04140747 -0.02033702 0.15425795
-0.05829336 -0.060081847 -1.2569764 -1.1928738 -0.43638372 -0.62981457 -1.2099432 -0.07782114
-0.42128873 -0.12499633 0.59262675 0.64903545 0.6922088 -0.48210973 -0.087595746 0.3339675
-0.29072964 -0.12605669 0.13642648 -0.76073754 -1.0775442 -1.419534 -0.17318894 0.46992904
1.0214579 -0.055304285 0.007273857 0.048681207 0.13494158 -0.100687966 0.12402171 -0.0055767894
0.12450709 -0.10142785 -0.054115813 -0.09119507 -0.10167305 -0.06756643 -0.12302586 -0.17040478
-0.05502041 -0.10736224 0.09667172 -0.0735265 0.008845946 -0.15860483 -0.111567006 -0.103695855
-0.10357048 -0.09102621 0.007083658 0.06795769 -0.15245071 -0.15005194 -0.06655055 -0.12151899
-0.07437031 -0.08328882 -0.007984957 -0.16371623 0.0067274356 -0.07852624 -0.12798719 -0.13658088
0.15298346 -0.16354465 0.026034614 8.583069e-06 -0.07367778 -0.096592605 0.16380477 0.0579476
0.012925765 -0.008349789 -0.10169804 -0.14413166 -0.15854369 -0.1655788 -0.015745167 0.045189198
-0.02482622 -0.11284885 0.051722478 0.018260209 -0.0805809 -0.014499769 -0.1584332 -0.07003176
-0.13999492 -0.060390785 0.0851051 -0.110975936 -0.19059768 0.030620502 -0.03792306 0.08901351
-0.029316477 -0.124450654 -0.043533914 -0.1929625 -0.10484519 -0.10723196 -0.044087585 -0.117787994
0.13510405 -0.15094163 -0.024414483 0.049865007 0.060929645 0.5790253 -0.07163744 -0.44579294
0.7447414 -0.24457306 -0.7920982 0.948098 0.31123626 0.034809038 -0.13330466 -0.28686354
0.51952726 -0.6405218 -0.012760253 0.45340908 -0.26859498 0.33359715 0.44873706 -0.5498961
-0.71901035 0.14199595 -0.6428763 -0.34500575 0.36262226 -0.44842383 0.09383588 0.74920315
0.085811436 0.14724725 0.11736307 -0.1154422 0.036348842 0.048090767 -0.12581566 0.080474384
-0.04027176 -1.9561934 -3.406267 -3.8925657 -0.1740095 -1.0646776 -0.79246247 -1.9651196
-2.118057 -1.5431414 -0.27268872 0.17591944 0.38700682 -0.14443223 0.20658052 0.105905585
0.1817802 0.11507117 -0.15078202 0.027344435 0.050803483 -0.07948796 0.016810773 0.7688421
0.88947517 0.14122099 -0.13856353 -0.11913144 -0.06295491 -0.063734934 -0.03250983 -0.12680432
00000000: 0c98 983d e726 e7bd e2c9 d1bd 01cf 70bd
00000010: ce27 183d 5a6e 91bd 9179 6dbd 8eac ffbd
00000020: 8d45 813d 9896 9c3f fbbe fe3e 3976 c9bf
00000030: 6e10 0c3f e307 b03f aad0 b03f bd89 a5bf
00000040: e806 f3be 351e f83f 9c4f 9ebe 764b 9e3e
00000050: 066c 1e3f 4bcd 12bf f44b 80bf 9f4f 9cbd
00000060: 24f9 323f 19f7 573e a0b9 a4be 2d14 6d3e
00000070: 6640 353f 7460 a33e 5019 3fbf 4998 4abe
00000080: 3c77 783f 7f6d 053f 4fd9 63bf 45fd dbbe
00000090: b4ed debd 6e89 0e3e 0098 183d aca9 983d
000000a0: d8d1 d3bd 2930 003d 41f4 e43d e6de a8bc
000000b0: ed84 4a3d 0b38 f1bd f8cb e23e 90b9 9d3d
000000c0: 7912 d23e 9160 afbc 2fcf 9dbe 97e6 ae3f
000000d0: 661d f13e 559a 053f 4e20 5c3f 0ee6 563f
000000e0: 23c1 37be e957 01bf 8284 69bf dd61 83bf
000000f0: bb53 24bf ff52 68bd 9d01 0e3f a1a7 0b3f
00000100: c401 9a3f 6471 213f 8997 0a3f 07d8 943e
00000110: 11c9 89bf 0032 afbe d938 a2bf e642 8dbe
00000120: 51da 583d a3fa 0abd 01d7 4bbd 4066 f03c
00000130: 8c05 92bc e19a 29bd d299 a6bc ccf5 1d3e
00000140: 05c5 6ebd 6218 76bd 9ae4 a0bf 17b0 98bf
00000150: b06d dfbe 873b 21bf 6bdf 9abf b160 9fbd
00000160: 28b3 d7be 13fe ffbd 63b6 173f 3027 263f
00000170: 9934 313f 16d7 f6be 6665 b3bd cafd aa3e
00000180: 84da 94be 0115 01be 62b3 0b3e b2bf 42bf
00000190: f8ec 89bf 4ab3 b5bf 7158 31be 8a9a f03e
000001a0: 22bf 823f bf86 62bd 8959 ee3b f265 473d
000001b0: 202e 0a3e 7e35 cebd 18ff fd3d 80bd b6bb
000001c0: 93fd fe3d 68b9 cfbd 8ba8 5dbd 7bc4 babd
000001d0: f639 d0bd 4560 8abd fbf4 fbbd 977e 2ebe
000001e0: 155d 61bd bce0 dbbd d3fb c53d 1095 96bd
000001f0: 96ee 103c 4e69 22be 3e7d e4bd 7e5e d4bd
00000200: c31c d4bd f36b babd 081e e83b 672d 8b3d
00000210: 0a1c 1cbe 37a7 19be a84b 88bd f3de f8bd
00000220: 764f 98bd 5493 aabd 56d3 02bc 3aa5 27be
00000230: d271 dc3b 5ed2 a0bd 130f 03be dcdb 0bbe
00000240: b2a7 1c3e 4078 27be 8b46 d53c 0000 1037
00000250: 60e4 96bd 58d2 c5bd 70bc 273e 765a 6d3d
00000260: 96c6 533c 8ecd 08bc 1047 d0bd 4097 13be
00000270: 4759 22be 7d8d 29be 02fc 80bc 4f18 393d
00000280: 5b60 cbbc 4c1d e7bd f3da 533d 6f96 953c
00000290: 9907 a5bd 7090 6dbc 503c 22be d06c 8fbd
000002a0: d45a 0fbe 545c 77bd 954b ae3d 5a47 e3bd
000002b0: 0a2c 43be d9d7 fa3c 3655 1bbd b74c b63d
000002c0: 1c29 f0bc fcdf febd 9e50 32bd f697 45be
000002d0: 13b9 d6bd 6e9c dbbd 2f95 34bd d53a f1bd
000002e0: b758 0a3e 7190 1abe e200 c8bc 403f 4c3d
000002f0: 5d91 793d 013b 143f a6b6 92bd f93e e4be
00000300: 5fa7 3e3f 5c71 7abe f3c6 4abf 8db6 723f
00000310: 5c5a 9f3e ec93 0e3d 0481 08be c7df 92be
00000320: bdff 043f 3df9 23bf 6110 51bc 3c25 e83e
00000330: 4885 89be 3fcd aa3e ddc0 e53e fec5 0cbf
00000340: 1011 38bf 6367 113e 8b93 24bf 98a4 b0be
00000350: a0a9 b93e cf97 e5be 072d c03d c7cb 3f3f
00000360: e8bd af3d fcc7 163e 0d5c f03d f66c ecbd
00000370: 86e2 143d d3fa 443d d2d5 00be c1cf a43d
00000380: 00f4 24bd 8c64 fabf 4700 5ac0 cc1f 79c0
00000390: 8c2f 32be 5b47 88bf d2de 4abf 0a89 fbbf
000003a0: 3f8e 07c0 a885 c5bf db9d 8bbe 3a24 343e
000003b0: c225 c63e 0be6 13be d889 533e 07e5 d83d
000003c0: 9724 3a3e 6faa eb3d 9a66 1abe 7001 e03c
000003d0: 5017 503d 95ca a2bd bfb6 893c d6d2 443f
000003e0: a5b4 633f 3c9c 103e 99e3 0dbe 2ffb f3bd
000003f0: 81ee 80bd 7687 82bd 0729 05bd fed8 01be

bias f4 [8]
-0.91895485 0.49162033 -0.76781726 -0.130284 -0.1678537 -0.15493368 -0.75365466 1.1801087
00000000: a040 6bbf a9b5 fb3e ac8f 44bf 2b69 05be
00000010: d7e1 2bbe efa6 1ebe 83ef 40bf cd0d 973f

weight f4 [29, 512]
-0.37283573 -1.1757898 -0.20195739 0.24145082 0.32798877 0.22010168 -0.090309285 -0.44263077
-0.5816349 -0.89370716 -0.5734744 -0.7253091 -0.08769218 -0.17929988 -0.31011304 -0.92729634
-0.09944336 -0.033350684 -0.49675244 -0.5489093 -0.7030255 -0.7575956 -0.73972267 -1.1436406
-0.41251114 -0.56891835 -0.1070715 -0.24381514 -0.6078651 -0.7385029 -0.6601359 -0.8365415
-0.08564612 -0.011372961 -0.018292744 -0.11337277 -0.38267264 -0.31823954 -0.5668629 -0.41377124
0.20234986 -0.35475078 0.10947428 -0.24550328 -0.37805083 -0.4914778 -1.043823 -0.47829774
0.35835862 -0.120717265 -0.21601425 0.025126524 -0.10938392 -0.010293861 -0.53368604 -0.34740838
-0.025492668 0.29501444 0.16065633 0.21724553 0.17651537 0.2583032 -0.18396388 -0.11554492
-0.9978292 -0.9936013 0.010602377 0.4114551 0.41422832 0.44252157 0.4067468 0.82864124
-1.4181539 0.43792665 0.61158156 0.44500828 0.28866807 0.15923415 0.09998184 0.034260835
0.7791432 0.6877612 0.2487122 0.52593946 0.626736 0.6220601 0.4448653 0.081234254
0.014031636 0.15639737 0.28564563 0.21268822 0.19607367 0.17238414 0.71191126 -0.054796502
0.24307589 0.2287795 0.10982162 -0.031022204 0.20599277 -0.037850708 0.24931967 -0.21744032
-0.59288806 -0.50168854 0.015606562 -0.17642833 0.07340404 0.15095982 0.20065044 0.05687399
-0.5203543 -0.24661219 0.1276549 0.071853615 -0.2959984 -0.08927233 -0.3027238 -0.4342374
-0.061139498 -0.07163264 0.18383795 0.1856597 -0.0462745 0.006035921 -0.16117153 0.08233768
0.20856294 0.6704563 0.47534743 -0.7149792 -0.37513417 -3.9745955 -2.7078285 -1.9333451
-0.31212035 -0.35415748 -0.06727858 0.31504887 0.04756825 -0.44372147 -0.34124324 0.15164474
0.06579952 0.19812025 -0.29594928 -0.6274599 -0.070778705 0.057109687 0.18570541 -0.6430171
0.2677088 0.0024965892 -0.0010748773 0.27513975 -0.31346 -0.32027498 0.10931107 0.4252951
0.43810892 0.3114438 0.39858568 0.32463282 0.29744267 0.13792741 0.091673754 -0.31483796
-0.089796856 -0.14592747 0.16746613 -0.24015254 -0.062093295 -0.27735943 0.12897849 0.020027012
0.020496845 -0.15477464 0.06457422 0.038564406 -0.045218226 -0.0625976 -0.09813136 0.023399394
-0.08238617 -0.06877303 0.039903875 -0.17836218 -0.25466684 -0.059530072 0.0827872 0.26462808
-0.043470316 -0.01807673 -0.011514871 0.042300794 0.0116637815 -0.0416187 -0.0055486746 0.039557997
-0.010771044 -0.027306532 0.018350853 -0.041653663 0.039915998 0.02450423 -0.0035631736 -0.03775557
-0.02305569 0.027816445 0.020668725 -0.011162577 0.0038336825 -0.01646238 -0.042987786 0.027870072
0.010082569 -0.020961335 -0.03369105 0.002706186 -0.005112876 -0.021971177 0.035999633 -0.032298353
-0.011715111 -0.03393363 -0.010411884 -0.010532565 -0.036978416 -0.026265325 0.035849772 0.004732996
-0.020141704 0.006788435 0.024463464 0.0014202539 0.038003232 -0.0035589219 -0.022907829 -0.01625388
0.0075430423 0.007819468 -0.0029088226 0.038042046 -0.030536056 -0.033015665 0.010975018 -0.042470798
0.024883877 -0.01704606 0.005200468 -0.043310378 0.0024795886 0.001212111 -0.032140434 0.042617626
00000000: 53e4 bebe 4880 96bf ebcd 4ebe e23e 773e
00000010: 25ee a73e 5662 613e 13f4 b8bd 80a0 e2be
00000020: 06e6 14bf fec9 64bf 38cf 12bf dbad 39bf
00000030: f597 b3bd 639a 37be 23c7 9ebe 4b63 6dbf
00000040: f6a8 cbbd ba9a 08bd 5656 febe 5285 0cbf
00000050: 7bf9 33bf c9f1 41bf 775e 3dbf d162 92bf
00000060: a934 d3be a2a4 11bf 4d48 dbbd adaa 79be
00000070: 0c9d 1bbf 870e 3dbf abfe 28bf 9527 56bf
00000080: 3c67 afbd a855 3abc aada 95bc fc2f e8bd
00000090: abed c3be 4bf0 a2be ed1d 11bf d3d9 d3be
000000a0: cd34 4f3e e5a1 b5be 0d34 e03d 3665 7bbe
000000b0: e18f c1be faa2 fbbe fe9b 85bf 71e3 f4be
000000c0: c87a b73e 9d3a f7bd d732 5dbe 24d6 cd3c
000000d0: ad04 e0bd 95a7 28bc a69f 08bf 83df b1be
000000e0: 00d6 d0bc 220c 973e 1883 243e 9d75 5e3e
000000f0: 72c0 343e 5140 843e 0761 3cbe d1a2 ecbd
00000100: bc71 7fbf a85c 7ebf 98b5 2d3c 3eaa d23e
00000110: bc15 d43e 3092 e23e 1e41 d03e d521 543f
00000120: 1186 b5bf ec37 e03e 9c90 1c3f 20d8 e33e
00000130: 4dcc 933e 470e 233e 47c3 cc3d 1755 0c3d
00000140: ee75 473f 1e11 303f 69ae 7e3e f8a3 063f
00000150: c571 203f 553f 1f3f 62c5 e33e 255e a63d
00000160: f2e4 653c a226 203e 2540 923e f1ca 593e
00000170: 89c7 483e 7885 303e d13f 363f 4c72 60bd
00000180: e3e8 783e 2c45 6a3e 28ea e03d 4722 febc
00000190: c5ef 523e 5809 1bbd a84d 7f3e ada8 5ebe
000001a0: 83c7 17bf a96e 00bf aab2 7f3c a1a9 34be
000001b0: db54 963d 3695 1a3e 4f77 4d3e b3f4 683d
000001c0: f035 05bf e887 7cbe f7b7 023e fd27 933d
000001d0: 1a8d 97be 69d4 b6bd 9dfe 9abe 5d54 debe
000001e0: 696d 7abd 22b4 92bd 0440 3c3e 941d 3e3e
000001f0: 558a 3dbd fac8 c53b 260a 25be a8a0 a83d
00000200: 8691 553e 06a3 2b3f bd60 f33e e008 37bf
00000210: 9611 c0be c65f 7ec0 104d 2dc0 da77 f7bf
00000220: 3dce 9fbe 2154 b5be 5ac9 89bd 164e a13e
00000230: edd6 423d 762f e3be 6fb7 aebe c248 1b3e
00000240: e6c1 863d 09e0 4a3e aa86 97be 36a1 20bf
00000250: 6df4 90bd d9eb 693d 8f29 3e3e c59c 24bf
00000260: 2111 893e d19d 233b e6e2 8cba 1edf 8c3e
00000270: d47d a0be 15fb a3be 7bde df3d 48c0 d93e
00000280: d04f e03e 9075 9f3e 6c13 cc3e 4636 a63e
00000290: 684a 983e d83c 0d3e 73bf bb3d 7132 a1be
000002a0: 6ae7 b7bd 036e 15be 3e7c 2b3e 8cea 75be
000002b0: 8a55 7ebd 0e02 8ebe f012 043e b00f a43c
000002c0: 00e9 a73c 3e7d 1ebe 7d3f 843d b6f5 1d3d
000002d0: bf36 39bd 2c33 80bd 18f9 c8bd 16b0 bf3c
000002e0: 15ba a8bd e0d8 8cbd 3f72 233d 93a4 36be
000002f0: b163 82be ced5 73bd 568c a93d 557d 873e
00000300: ee0d 32bd a715 94bc dfa8 3cbc 9943 2d3d
00000310: 7219 3f3c 5f78 2abd a8d1 b5bb 9107 223d
00000320: 0879 30bc f3b1 dfbc 8754 963c 089d 2abd
00000330: f57e 233d 18bd c83c 2284 69bb 96a5 1abd
00000340: 49df bcbc 50df e33c 7551 a93c 3ee3 36bc
00000350: 853e 7b3b 1ddc 86bc f613 30bd c74f e43c
00000360: 5c31 253c 1bb7 abbc a0ff 09bd 445a 313b
00000370: ea89 a7bb e6fc b3bc 5a74 133d 474b 04bd
00000380: bdf0 3fbc fdfd 0abd 9b96 2abc c890 2cbc
00000390: ae76 17bd 612a d7bc 36d7 123d 4017 9b3b
000003a0: 3700 a5bc 8571 de3b 9a67 c83c d027 ba3a
000003b0: 47a9 1b3d cd3c 69bb 33a9 bbbc db26 85bc
000003c0: a02b f73b 3a1d 003c f2a1 3ebb fad1 1b3d
000003d0: c026 fabc 6f3b 07bd 90d0 333c dcf5 2dbd
000003e0: 46d9 cb3c 2ea4 8bbc b068 aa3b 3966 31bd
000003f0: 9880 223b b2df 9e3a b0a5 03bd d28f 2e3d

bias f4 [29]
0.040764365 -0.04866639 0.025907712 0.067384586 0.03639888 0.02841753 0.056380026 0.1965318
0.078149594 -0.07822026 0.062839404 -0.3516596 -0.36224744 -0.12864503 -0.15538889 -0.173548
-0.011418208 0.14411727 -0.15591641 0.21842337 -0.12974295 0.033723332 0.12253717 0.15317571
-0.029492991 0.0020691822 -0.01376264 0.23552711 -0.15642433
00000000: 89f8 263d 6956 47bd 693c d43c ee00 8a3d
00000010: fe16 153d e1cb e83c beee 663d a23f 493e
00000020: e50c a03d f231 a0bd f2b1 803d ba0c b4be
00000030: 7f78 b9be 86bb 03be 441e 1fbe 91b6 31be
00000040: 6f13 3bbc 7a93 133e 8da8 1fbe 60aa 5f3e
00000050: 56db 04be 7a21 0a3d c5f4 fa3d 18da 1c3e
00000060: 499b f1bc 1e9b 073b b27c 61bc 052e 713e
00000070: b32d 20be
