checkpoints_backup/230906/checkpoint_92.65.pth (torch, 64415 bytes, 6 tensors)

weight f4 [4, 1, 3, 3]
-0.20986651 0.19643754 -0.20645534 0.26688984 -0.23162468 0.0748976 0.15687501 0.054859538
-0.26651895 -0.27531078 0.7245544 0.74643624 -0.7507637 -0.48792297 0.049419433 0.022026604
-0.77935344 -0.34512505 -0.040031098 -0.519987 0.19471893 1.7560729 1.778085 2.0614314
2.1469028 2.386548 2.6637573 1.3867881 1.2754586 1.8852037 0.9995308 1.3091635
1.5904933 -0.8328585 -0.83614475 -0.5665823
00000000: 3fe7 56be ec26 493e 0769 53be c9a5 883e
00000010: 052f 6dbe ea63 993d d8a3 203e 65b4 603d
00000020: 2c75 88be 89f5 8cbe 667c 393f 7216 3f3f
00000030: 0d32 40bf 0ad1 f9be 086c 4a3d 2371 b43c
00000040: b583 47bf 3bb4 b0be a6f7 23bd de1d 05bf
00000050: 6664 473e ffc6 e03f 4a98 e33f 7eee 0340
00000060: db66 0940 34bd 1840 007b 2a40 4682 b13f
00000070: 3a42 a33f 5b4e f13f 40e1 7f3f ab92 a73f
00000080: 4995 cb3f 3736 55bf 950d 56bf 8a0b 11bf

bias f4 [4]
-0.3197379 0.9881437 -1.4976182 -1.1503702
00000000: b0b4 a3be fcf6 7c3f f4b1 bfbf 553f 93bf

weight f4 [8, 4, 3, 3]
0.07450876 -0.11286717 -0.10243584 -0.058791164 0.037147336 -0.07101126 -0.057977263 -0.12484084
0.06312094 1.2688442 0.49128735 -1.6166043 0.5774299 1.3916113 1.396411 -1.3469361
-0.5522595 2.0084088 -0.33206812 0.33649015 0.62748986 -0.57696617 -1.0344939 -0.095267184
0.6931967 0.24040066 -0.32410732 0.22058697 0.7194783 0.30379778 -0.7662041 -0.18882228
0.9867588 0.55144656 -0.90282893 -0.41897792 -0.10885182 0.13919613 0.037254333 0.07454237
-0.10342759 0.03129593 0.111794 -0.020614099 0.049443174 -0.13603951 0.45088893 0.07259783
0.39065376 -0.041538406 -0.33211508 1.4045289 0.44756687 0.49762195 0.8764681 0.8534466
-0.18988506 -0.5209658 -0.94390565 -1.0438955 -0.657558 -0.027073778 0.5643608 0.5341901
1.2372723 0.64593524 0.54697734 0.2652539 -1.1174052 -0.33084127 -1.2850564 -0.24012001
0.052942578 -0.033930432 -0.04976559 0.029345632 -0.01782491 -0.04140747 -0.02033702 0.15425795
-0.05829336 -0.07837187 -1.2632068 -1.2238739 -0.45690897 -0.59043473 -1.1898524 -0.08617433
-0.39945608 -0.039860934 0.62710786 0.7006448 0.71580356 -0.5077302 -0.11311485 0.32733312
-0.29290512 -0.1285219 0.14356418 -0.81377584 -1.110711 -1.5101342 -0.20543978 0.49045056
1.060999 -0.031165551 0.02234221 0.06303334 0.13494158 -0.100687966 0.12402171 -0.0055767894
0.12450709 -0.10142785 -0.054115813 -0.09119507 -0.10167305 -0.06756643 -0.12302586 -0.17040478
-0.05502041 -0.10736224 0.09667172 -0.0735265 0.008845946 -0.15860483 -0.111567006 -0.103695855
-0.10357048 -0.09102621 0.007083658 0.06795769 -0.15245071 -0.15005194 -0.06655055 -0.12151899
-0.07437031 -0.08328882 -0.007984957 -0.16371623 0.0067274356 -0.07852624 -0.12798719 -0.13658088
0.15298346 -0.16354465 0.026034614 8.583069e-06 -0.07367778 -0.096592605 0.16380477 0.0579476
0.012925765 -0.008349789 -0.10169804 -0.14413166 -0.15854369 -0.1655788 -0.015745167 0.045189198
-0.02482622 -0.11284885 0.051722478 0.018260209 -0.0805809 -0.014499769 -0.1584332 -0.07003176
-0.13999492 -0.060390785 0.0851051 -0.110975936 -0.19059768 0.030620502 -0.03792306 0.08901351
-0.029316477 -0.124450654 -0.043533914 -0.1929625 -0.10484519 -0.10723196 -0.044087585 -0.117787994
0.13510405 -0.15094163 -0.024414483 0.049865007 0.060929645 0.63137454 -0.088197015 -0.45723552
0.7771021 -0.29427674 -0.8470292 0.98247916 0.31382042 0.03438091 -0.11655356 -0.29398763
0.5260724 -0.6492971 -0.02216289 0.4537897 -0.25901452 0.3388823 0.44715074 -0.54809356
-0.73037434 0.13648361 -0.64694554 -0.36441082 0.35242578 -0.4474624 0.1012499 0.75707024
0.085811436 0.14724725 0.11736307 -0.1154422 0.036348842 0.048090767 -0.12581566 0.080474384
-0.04027176 -2.001195 -3.4958644 -3.9563396 -0.1499058 -1.0878171 -0.7468698 -2.0102086
-2.2033482 -1.5070659 -0.27743226 0.19723827 0.39317584 -0.15436564 0.20279199 0.11097569
0.18882933 0.12518917 -0.13876356 0.0095689 0.07028935 -0.101064146 0.028735658 0.7974445
0.9113039 0.15950681 -0.13535097 -0.12979686 -0.06295491 -0.063734934 -0.03250983 -0.12680432
00000000: 0c98 983d e726 e7bd e2c9 d1bd 01cf 70bd
00000010: ce27 183d 5a6e 91bd 9179 6dbd 8eac ffbd
00000020: 8d45 813d 7d69 a23f 048a fb3e e4ec cebf
00000030: 72d2 133f 5220 b23f 98bd b23f 6768 acbf
00000040: e160 0dbf c589 0040 d504 aabe 7048 ac3e
00000050: 2da3 203f 0eb4 13bf 4c6a 84bf 711b c3bd
00000060: 5775 313f 972b 763e 65f1 a5be 8de1 613e
00000070: bb2f 383f 628b 9b3e f425 44bf a15a 41be
00000080: 3a9c 7c3f 9a2b 0d3f cc1f 67bf 4684 d6be
00000090: b4ed debd 6e89 0e3e 0098 183d aca9 983d
000000a0: d8d1 d3bd 2930 003d 41f4 e43d e6de a8bc
000000b0: ed84 4a3d f14d 0bbe eada e63e 2cae 943d
000000c0: c503 c83e 2d24 2abd fd0a aabe 9ac7 b33f
000000d0: 7c27 e53e 4ec8 fe3e 3760 603f 7a7b 5a3f
000000e0: 3b71 42be 045e 05bf cda3 71bf 5e9e 85bf
000000f0: b955 28bf d4c9 ddbc f379 103f afc0 083f
00000100: f05e 9e3f 035c 253f b506 0c3f 5ccf 873e
00000110: 2207 8fbf 0764 a9be ba7c a4bf 05e2 75be
00000120: 51da 583d a3fa 0abd 01d7 4bbd 4066 f03c
00000130: 8c05 92bc e19a 29bd d299 a6bc ccf5 1d3e
00000140: 05c5 6ebd 6e81 a0bd c3b0 a1bf e6a7 9cbf
00000150: f9ef e9be bb26 17bf 154d 98bf 2b7c b0bd
00000160: 8285 ccbe 3845 23bd 248a 203f 755d 333f
00000170: e73e 373f 9bfa 01bf c2a8 e7bd 3598 a73e
00000180: a9f7 95be 3f9b 03be 7d02 133e 9d53 50bf
00000190: c72b 8ebf 144c c1bf ce5e 52be 561c fb3e
000001a0: d1ce 873f e64e ffbc 0307 b73c a017 813d
000001b0: 202e 0a3e 7e35 cebd 18ff fd3d 80bd b6bb
000001c0: 93fd fe3d 68b9 cfbd 8ba8 5dbd 7bc4 babd
000001d0: f639 d0bd 4560 8abd fbf4 fbbd 977e 2ebe
000001e0: 155d 61bd bce0 dbbd d3fb c53d 1095 96bd
000001f0: 96ee 103c 4e69 22be 3e7d e4bd 7e5e d4bd
00000200: c31c d4bd f36b babd 081e e83b 672d 8b3d
00000210: 0a1c 1cbe 37a7 19be a84b 88bd f3de f8bd
00000220: 764f 98bd 5493 aabd 56d3 02bc 3aa5 27be
00000230: d271 dc3b 5ed2 a0bd 130f 03be dcdb 0bbe
00000240: b2a7 1c3e 4078 27be 8b46 d53c 0000 1037
00000250: 60e4 96bd 58d2 c5bd 70bc 273e 765a 6d3d
00000260: 96c6 533c 8ecd 08bc 1047 d0bd 4097 13be
00000270: 4759 22be 7d8d 29be 02fc 80bc 4f18 393d
00000280: 5b60 cbbc 4c1d e7bd f3da 533d 6f96 953c
00000290: 9907 a5bd 7090 6dbc 503c 22be d06c 8fbd
000002a0: d45a 0fbe 545c 77bd 954b ae3d 5a47 e3bd
000002b0: 0a2c 43be d9d7 fa3c 3655 1bbd b74c b63d
000002c0: 1c29 f0bc fcdf febd 9e50 32bd f697 45be
000002d0: 13b9 d6bd 6e9c dbbd 2f95 34bd d53a f1bd
000002e0: b758 0a3e 7190 1abe e200 c8bc 403f 4c3d
000002f0: 5d91 793d c3a1 213f a3a0 b4bd c61a eabe
00000300: 2af0 463f 71ab 96be e8d6 58bf c183 7b3f
00000310: 12ad a03e ffd2 0c3d a2b3 eebd 8c85 96be
00000320: aeac 063f 5638 26bf f38e b5bc 2057 e83e
00000330: 8d9d 84be fb81 ad3e f1f0 e43e dc4f 0cbf
00000340: d0f9 3abf 5cc2 0b3e 399e 25bf 0e94 babe
00000350: 2771 b43e cb19 e5be 1c5c cf3d 5bcf 413f
00000360: e8bd af3d fcc7 163e 0d5c f03d f66c ecbd
00000370: 86e2 143d d3fa 443d d2d5 00be c1cf a43d
00000380: 00f4 24bd 9413 00c0 3ebc 5fc0 ab34 7dc0
00000390: e880 19be 973d 8bbf dc32 3fbf 42a7 00c0
000003a0: a803 0dc0 89e7 c0bf 9a0b 8ebe d4f8 493e
000003b0: 584e c93e 0712 1ebe b4a8 4f3e 3947 e33d
000003c0: 7a5c 413e 9731 003e 0918 0ebe e0c6 1c3c
000003d0: ddf3 8f3d b8fa cebd 0b67 eb3c 5325 4c3f
000003e0: 364b 693f c155 233e 7299 0abe 78e9 04be
000003f0: 81ee 80bd 7687 82bd 0729 05bd fed8 01be

bias f4 [8]
-0.99715155 0.5216816 -0.8053955 -0.130284 -0.1678537 -0.16498522 -0.79614717 1.2123748
00000000: 5345 7fbf ed8c 053f 662e 4ebf 2b69 05be
00000010: d7e1 2bbe e3f1 28be 4dd0 4bbf 192f 9b3f

weight f4 [29, 512]
-0.32868052 -1.2752573 -0.1953314 0.28536317 0.34755683 0.2369398 -0.123218596 -0.4850381
-0.60891664 -0.9318119 -0.6001496 -0.71074325 -0.08381339 -0.2172623 -0.31063625 -1.0305198
-0.14482738 -0.0629254 -0.4976259 -0.5878441 -0.7325126 -0.84012955 -0.80209965 -1.2250428
-0.44193766 -0.61434937 -0.125538 -0.23081875 -0.6276293 -0.7674147 -0.6797416 -0.89060646
-0.09724157 -0.023426682 -0.03092943 -0.12127478 -0.41347945 -0.33646312 -0.58061427 -0.4502275
0.25742057 -0.38518676 0.10525845 -0.28176653 -0.3990085 -0.46605575 -1.0639718 -0.48301253
0.39883685 -0.15796004 -0.18948247 0.0154190855 -0.11322513 -0.00041993495 -0.528906 -0.37457716
-0.020566188 0.3192828 0.16522044 0.19520216 0.16859736 0.25971842 -0.2020015 -0.13273385
-1.0050569 -1.0654594 -0.019592213 0.44854802 0.42918554 0.46421632 0.43179166 0.88779944
-1.6281292 0.44699278 0.6205934 0.45886657 0.30676565 0.1696583 0.05822869 0.010682928
0.787201 0.6687364 0.25862604 0.5091016 0.6426137 0.6474349 0.4655902 0.056059167
0.029381562 0.17681089 0.3049932 0.19682379 0.18140392 0.16756515 0.7629004 -0.055575572
0.23906368 0.22716877 0.12843737 -0.045637388 0.20957723 -0.037105393 0.2538735 -0.19995315
-0.64529306 -0.4874947 0.0007482367 -0.1775953 0.09095019 0.17169523 0.19981211 0.07815716
-0.5487715 -0.24791725 0.07614694 0.09206804 -0.31376603 -0.09487142 -0.32672802 -0.44540223
-0.04203356 -0.06675613 0.20218411 0.19285622 -0.056528136 -0.034754943 -0.21610437 0.088031344
0.2336811 0.7513499 0.5102474 -0.7561169 -0.35519505 -3.9765096 -3.0254014 -2.0168648
-0.34849912 -0.39674357 -0.075387724 0.33488575 0.052704323 -0.46436283 -0.3621509 0.16537367
0.07129467 0.23939054 -0.2818435 -0.65314406 -0.07071031 0.08373698 0.24049726 -0.72434
0.29269502 0.01578731 -0.0029419833 0.32217646 -0.3172737 -0.35309824 0.1277052 0.48982987
0.49164283 0.34350932 0.45617655 0.31788868 0.33408517 0.10254396 0.11207081 -0.34437838
-0.10195567 -0.19847594 0.1675064 -0.28890255 -0.08086721 -0.31669608 0.12268578 -0.0006596308
0.022211188 -0.18313707 0.05685888 0.07298692 -0.073596686 -0.103015825 -0.12684359 0.030177478
-0.091684684 -0.0837841 0.049973466 -0.1880235 -0.25270244 -0.057051048 0.099582314 0.28516883
-0.043470316 -0.01807673 -0.011514871 0.042300794 0.0116637815 -0.0416187 -0.0055486746 0.039557997
-0.010771044 -0.027306532 0.018350853 -0.041653663 0.039915998 0.02450423 -0.0035631736 -0.03775557
-0.02305569 0.027816445 0.020668725 -0.011162577 0.0038336825 -0.01646238 -0.042987786 0.027870072
0.010082569 -0.020961335 -0.03369105 0.002706186 -0.005112876 -0.021971177 0.035999633 -0.032298353
-0.011715111 -0.03393363 -0.010411884 -0.010532565 -0.036978416 -0.026265325 0.035849772 0.004732996
-0.020141704 0.006788435 0.024463464 0.0014202539 0.038003232 -0.0035589219 -0.022907829 -0.01625388
0.0075430423 0.007819468 -0.0029088226 0.038042046 -0.030536056 -0.033015665 0.010975018 -0.042470798
0.024883877 -0.01704606 0.005200468 -0.043310378 0.0024795886 0.001212111 -0.032140434 0.042617626
00000000: d048 a8be a23b a3bf f404 48be 1f1b 923e
00000010: f8f2 b13e 59a0 723e 085a fcbd ea56 f8be
00000020: f6e1 1bbf 3a8b 6ebf 67a3 19bf 45f3 35bf
00000030: 5ba6 abbd 027a 5ebe b70b 9fbe 13e8 83bf
00000040: a14d 14be 08df 80bd d2c8 febe f37c 16bf
00000050: f285 3bbf bb12 57bf 6756 4dbf 34ce 9cbf
00000060: a745 e2be 0046 1dbf 098d 00be c05b 6cbe
00000070: 50ac 20bf 4a75 44bf 8c03 2ebf c9fe 63bf
00000080: 9726 c7bd 50e9 bfbc b75f fdbc e95e f8bd
00000090: 94b3 d3be e544 acbe 23a3 14bf 3884 e6be
000000a0: a1cc 833e 3337 c5be be91 d73d b443 90be
000000b0: d84a ccbe dc9e eebe 3a30 88bf 6b4d f7be
000000c0: 5834 cc3e 47c0 21be b107 42be 55a0 7c3c
000000d0: 94e2 e7bd b72a dcb9 6266 07bf 94c8 bfbe
000000e0: 6c7a a8bc 0979 a33e 8c2f 293e 13e3 473e
000000f0: c9a4 2c3e d0f9 843e 7bd9 4ebe 62eb 07be
00000100: b4a5 80bf f960 88bf d97f a0bc 16a8 e53e
00000110: 35be db3e c3ad ed3e cc13 dd3e d346 633f
00000120: 8a66 d0bf 3ddc e43e 36df 1e3f 8ff0 ea3e
00000130: 6310 9d3e e8ba 2d3e 3581 6e3d 7307 2f3c
00000140: 0186 493f 4f32 2b3f a26a 843e 7c54 023f
00000150: 5582 243f 4bbe 253f d761 ee3e 4c9e 653d
00000160: 9ab1 f03c ea0d 353e 1228 9c3e 2d8c 493e
00000170: f3c1 393e 3396 2b3e 714d 433f 36a3 63bd
00000180: 1ccd 743e ee9e 683e 1685 033e 45ee 3abd
00000190: 6a9b 563e d3fb 17bd b5fb 813e 85c0 4cbe
000001a0: ed31 25bf e898 f9be 5125 443a 8bdb 35be
000001b0: 1844 ba3d e0d0 2f3e 8c9b 4c3e dc10 a03d
000001c0: 4a7c 0cbf 05de 7dbe edf2 9b3d 2b8e bc3d
000001d0: f1a5 a0be f24b c2bd e548 a7be c30b e4be
000001e0: 622b 2cbd 70b7 88bd 5a09 4f3e 1a7c 453e
000001f0: 0c8a 67bd 335b 0ebd 774a 5dbe c749 b43d
00000200: 194a 6f3e 7858 403f 939f 023f e190 41bf
00000210: 20dc b5be 227f 7ec0 2da0 41c0 5014 01c0
00000220: 7a6e b2be f921 cbbe e164 9abd 2576 ab3e
00000230: 7de0 573d f7c0 edbe d86b b9be b757 293e
00000240: f102 923d cb22 753e cb4d 90be 7334 27bf
00000250: 91d0 90bd 4b7e ab3d ea44 763e 596e 39bf
00000260: 1fdc 953e 6454 813c 4ace 40bb 50f4 a43e
00000270: b371 a2be 4bc9 b4be 27c5 023e fbca fa3e
00000280: 9cb8 fb3e 74e0 af3e f98f e93e 4ec2 a23e
00000290: 360d ab3e 9102 d23d 6185 e53d 5d52 b0be
000002a0: 22ce d0bd 473d 4bbe cc86 2b3e 09eb 93be
000002b0: b59d a5bd fd25 a2be af42 fb3d 13eb 2cba
000002c0: 3df4 b53c 4988 3bbe dbe4 683d 2b7a 953d
000002d0: dcb9 96bd f6f9 d2bd 49e3 01be c236 f73c
000002e0: 2ec5 bbbd 0097 abbd fab0 4c3d 3b89 40be
000002f0: 3762 81be 5cae 69bd d0f1 cb3d a601 923e
00000300: ee0d 32bd a715 94bc dfa8 3cbc 9943 2d3d
00000310: 7219 3f3c 5f78 2abd a8d1 b5bb 9107 223d
00000320: 0879 30bc f3b1 dfbc 8754 963c 089d 2abd
00000330: f57e 233d 18bd c83c 2284 69bb 96a5 1abd
00000340: 49df bcbc 50df e33c 7551 a93c 3ee3 36bc
00000350: 853e 7b3b 1ddc 86bc f613 30bd c74f e43c
00000360: 5c31 253c 1bb7 abbc a0ff 09bd 445a 313b
00000370: ea89 a7bb e6fc b3bc 5a74 133d 474b 04bd
00000380: bdf0 3fbc fdfd 0abd 9b96 2abc c890 2cbc
00000390: ae76 17bd 612a d7bc 36d7 123d 4017 9b3b
000003a0: 3700 a5bc 8571 de3b 9a67 c83c d027 ba3a
000003b0: 47a9 1b3d cd3c 69bb 33a9 bbbc db26 85bc
000003c0: a02b f73b 3a1d 003c f2a1 3ebb fad1 1b3d
000003d0: c026 fabc 6f3b 07bd 90d0 333c dcf5 2dbd
000003e0: 46d9 cb3c 2ea4 8bbc b068 aa3b 3966 31bd
000003f0: 9880 223b b2df 9e3a b0a5 03bd d28f 2e3d

bias f4 [29]
0.046200354 -0.05282884 0.035981786 0.07986448 0.04857845 0.040217943 0.05475143 0.1961052
0.07667312 -0.08144461 0.07474404 -0.37150988 -0.38646808 -0.14245877 -0.168064 -0.18607466
-0.019878434 0.16063999 -0.18089242 0.23701642 -0.1451951 0.039153997 0.14635734 0.157519
-0.034090195 0.006411712 -0.022622908 0.2600808 -0.16846356
00000000: 953c 3d3d 0e63 58bd a361 133d fd8f a33d
00000010: 32fa 463d 92bb 243d 0943 603d cdcf 483e
00000020: cc06 9d3d 6fcc a6bd 6713 993d 8b36 bebe
00000030: 25df c5be b6e0 11be f818 2cbe 5b8a 3ebe
00000040: 19d8 a2bc cf7e 243e dd3b 39be 6fb4 723e
00000050: 06ae 14be f15f 203d b3de 153e a94c 213e
00000060: 29a2 0bbd 5719 d23b ad53 b9bc 5029 853e
00000070: b681 2cbe
