checkpoints_backup/230906/checkpoint_95.10.pth (torch, 64415 bytes, 6 tensors)

weight f4 [4, 1, 3, 3]
00000000: 3fe7 56be ec26 493e 0769 53be c9a5 883e
00000010: 052f 6dbe ea63 993d d8a3 203e 65b4 603d
00000020: 2c75 88be 56cf 8cbe aa2d 443f 4fef 5c3f
00000030: a1e6 59bf eb1b 18bf f837 4d3d 1890 7c3d
00000040: c716 67bf f3fd d8be 1ad5 89bd 40ec 34bf
00000050: 6129 26bc a8eb df3f 1bf1 dd3f 8fdf ea3f
00000060: 23b1 0a40 2778 1f40 919e 2840 20f6 b33f
00000070: c3ba b53f b6c7 0540 522c 893f a134 bd3f
00000080: c6ca da3f d294 66bf fb1a 75bf 9e33 2abf
-0.20986651 0.19643754 -0.20645534 0.26688984 -0.23162468 0.0748976 0.15687501 0.054859538
-0.26651895 -0.27501935 0.7663218 0.86302656 -0.85117537 -0.594176 0.050102204 0.061660856
-0.9026913 -0.42381248 -0.06730099 -0.7067299 -0.010141701 1.7493792 1.7339205 1.8349475
2.1670616 2.4917085 2.6346781 1.4059486 1.419762 2.0903144 1.071665 1.4781686
1.7093132 -0.9007083 -0.95744294 -0.6648501

bias f4 [4]
00000000: b0b4 a3be b015 923f 134a babf c674 9dbf
-0.3197379 1.1412868 -1.4553856 -1.2301261

weight f4 [8, 4, 3, 3]
00000000: 0c98 983d e726 e7bd e2c9 d1bd 01cf 70bd
00000010: ce27 183d 5a6e 91bd 9179 6dbd 8eac ffbd
00000020: 8d45 813d 1f1a a83f 00c2 f73e c666 efbf
00000030: 33b7 5c3f 2826 bb3f a47d af3f dfdf c2bf
00000040: 8a44 7fbf 4ae8 1240 5b31 d7be df69 f33e
00000050: 86c7 2f3f a1b9 1bbf 3fab 99bf 6d11 21be
00000060: 4a9f 243f 9d38 cd3e f844 acbe f51d 493e
00000070: 188a 473f b4ad 5d3e 52ca 54bf 01df 40be
00000080: 38e6 833f 05b2 2e3f acbf 7ebf 63ce bfbe
00000090: b4ed debd 6e89 0e3e 0098 183d aca9 983d
000000a0: d8d1 d3bd 2930 003d 41f4 e43d e6de a8bc
000000b0: ed84 4a3d f93f 51be 8eb3 f13e 34ce 083d
000000c0: 0a80 c73e 5eab 3fbd 0649 9fbe f965 b93f
000000d0: 87c6 723e ec69 843e bdfd 723f 18c5 6b3f
000000e0: c32a 83be 5516 16bf 4838 8abf e0d7 8abf
000000f0: 8328 45bf 5fb4 773d 8479 213f ed84 f23e
00000100: d2f5 b73f 1e4b 323f 3328 103f 4deb 1f3e
00000110: ae6e 9fbf cc8e a8be 592a b9bf f997 25be
00000120: 51da 583d a3fa 0abd 01d7 4bbd 4066 f03c
00000130: 8c05 92bc e19a 29bd d299 a6bc ccf5 1d3e
00000140: 05c5 6ebd e407 80bd 1dc4 aebf 570a 97bf
00000150: e056 05bf 64f0 d5be cdff 6abf d710 95be
00000160: 0dee f1be f1f9 863e 7445 573f cdd6 7b3f
00000170: 8329 563f 36ed 26bf 87e1 6bbe 8d8c ae3e
00000180: 8325 cdbe 66e4 f9bd 11e0 303e 85b0 7ebf
00000190: 15f0 aebf df17 00c0 6778 b2be 1c10 123f
000001a0: eb0d a23f 88fd 943d ab0e 973d 6036 fc3d
000001b0: 202e 0a3e 7e35 cebd 18ff fd3d 80bd b6bb
000001c0: 93fd fe3d 68b9 cfbd 8ba8 5dbd 7bc4 babd
000001d0: f639 d0bd 4560 8abd fbf4 fbbd 977e 2ebe
000001e0: 155d 61bd bce0 dbbd d3fb c53d 1095 96bd
000001f0: 96ee 103c 4e69 22be 3e7d e4bd 7e5e d4bd
00000200: c31c d4bd f36b babd 081e e83b 672d 8b3d
00000210: 0a1c 1cbe 37a7 19be a84b 88bd f3de f8bd
00000220: 764f 98bd 5493 aabd 56d3 02bc 3aa5 27be
00000230: d271 dc3b 5ed2 a0bd 130f 03be dcdb 0bbe
00000240: b2a7 1c3e 4078 27be 8b46 d53c 0000 1037
00000250: 60e4 96bd 58d2 c5bd 70bc 273e 765a 6d3d
00000260: 96c6 533c 8ecd 08bc 1047 d0bd 4097 13be
00000270: 4759 22be 7d8d 29be 02fc 80bc 4f18 393d
00000280: 5b60 cbbc 4c1d e7bd f3da 533d 6f96 953c
00000290: 9907 a5bd 7090 6dbc 503c 22be d06c 8fbd
000002a0: d45a 0fbe 545c 77bd 954b ae3d 5a47 e3bd
000002b0: 0a2c 43be d9d7 fa3c 3655 1bbd b74c b63d
000002c0: 1c29 f0bc fcdf febd 9e50 32bd f697 45be
000002d0: 13b9 d6bd 6e9c dbbd 2f95 34bd d53a f1bd
000002e0: b758 0a3e 7190 1abe e200 c8bc 403f 4c3d
000002f0: 5d91 793d 8cf2 6e3f de37 3cbe 27e4 19bf
00000300: 80d5 803f b9b4 11bf f5c2 92bf baa9 993f
00000310: d2a0 693e f4a7 bebc f8a4 56bd fbec b2be
00000320: 02a8 0e3f c641 2ebf 324a aebd 047b ef3e
00000330: 2ac9 67be 2fd7 a43e eb63 ef3e 6ef5 f3be
00000340: 2d82 3cbf 3921 463e c103 2bbf 19c4 e3be
00000350: 60ec 9a3e d6ec dbbe 099f ec3d a71c 503f
00000360: e8bd af3d fcc7 163e 0d5c f03d f66c ecbd
00000370: 86e2 143d d3fa 443d d2d5 00be c1cf a43d
00000380: 00f4 24bd 3f44 0ac0 e587 7ac0 c3b2 83c0
00000390: 1887 0dbb c912 8cbf 64ef 22bf 6b44 0bc0
000003a0: c1ae 1cc0 d5ab aebf b6ea b0be c3fa 863e
000003b0: 60ce e93e 8ced 7abe 8262 3b3e d7f6 d73d
000003c0: 25db 643e b7c2 333e 0f80 0abe 432b d0bd
000003d0: 7314 363e 69cc 7cbe 3900 8e3b 9821 6a3f
000003e0: 5911 803f 25a0 9a3e 1bc5 a3bd 35f0 0dbe
000003f0: 81ee 80bd 7687 82bd 0729 05bd fed8 01be
0.07450876 -0.11286717 -0.10243584 -0.058791164 0.037147336 -0.07101126 -0.057977263 -0.12484084
0.06312094 1.3132972 0.48390198 -1.8703239 0.8621704 1.4621019 1.3710217 -1.522457
-0.9971396 2.2954278 -0.42029843 0.4754171 0.68663824 -0.6083012 -1.2005385 -0.15729304
0.64305556 0.40082255 -0.3364637 0.19640334 0.7794509 0.21648294 -0.83121216 -0.18835069
1.0304632 0.68240386 -0.9951122 -0.37462148 -0.10885182 0.13919613 0.037254333 0.07454237
-0.10342759 0.03129593 0.111794 -0.020614099 0.049443174 -0.2043456 0.47207302 0.033399776
0.38964874 -0.046794288 -0.311104 1.4484245 0.23708545 0.25862062 0.94918424 0.92097616
-0.25618562 -0.58627826 -1.0798426 -1.084713 -0.7701494 0.06047475 0.63076043 0.4736704
1.4371893 0.6964587 0.5631134 0.15617104 -1.2455652 -0.32921445 -1.4466048 -0.16171254
0.052942578 -0.033930432 -0.04976559 0.029345632 -0.01782491 -0.04140747 -0.02033702 0.15425795
-0.05829336 -0.06251505 -1.3653599 -1.180003 -0.52085686 -0.41784966 -0.9179657 -0.2911441
-0.4725193 0.26362565 0.8409035 0.98374635 0.8365709 -0.65205705 -0.2303525 0.34091607
-0.40067682 -0.12201767 0.17272975 -0.994881 -1.3667017 -2.001457 -0.34857485 0.5705583
1.2660497 0.0727492 0.073758446 0.12315059 0.13494158 -0.100687966 0.12402171 -0.0055767894
0.12450709 -0.10142785 -0.054115813 -0.09119507 -0.10167305 -0.06756643 -0.12302586 -0.17040478
-0.05502041 -0.10736224 0.09667172 -0.0735265 0.008845946 -0.15860483 -0.111567006 -0.103695855
-0.10357048 -0.09102621 0.007083658 0.06795769 -0.15245071 -0.15005194 -0.06655055 -0.12151899
-0.07437031 -0.08328882 -0.007984957 -0.16371623 0.0067274356 -0.07852624 -0.12798719 -0.13658088
0.15298346 -0.16354465 0.026034614 8.583069e-06 -0.07367778 -0.096592605 0.16380477 0.0579476
0.012925765 -0.008349789 -0.10169804 -0.14413166 -0.15854369 -0.1655788 -0.015745167 0.045189198
-0.02482622 -0.11284885 0.051722478 0.018260209 -0.0805809 -0.014499769 -0.1584332 -0.07003176
-0.13999492 -0.060390785 0.0851051 -0.110975936 -0.19059768 0.030620502 -0.03792306 0.08901351
-0.029316477 -0.124450654 -0.043533914 -0.1929625 -0.10484519 -0.10723196 -0.044087585 -0.117787994
0.13510405 -0.15094163 -0.024414483 0.049865007 0.060929645 0.9333885 -0.18380687 -0.6011376
1.0065155 -0.56916386 -1.1465746 1.2004921 0.22815254 -0.023273446 -0.05240342 -0.34946427
0.5572511 -0.6806911 -0.085102454 0.4677354 -0.22635332 0.32195422 0.4675592 -0.47648185
-0.7363613 0.19348611 -0.66802603 -0.44485548 0.30258465 -0.4295413 0.11553771 0.8129372
0.085811436 0.14724725 0.11736307 -0.1154422 0.036348842 0.048090767 -0.12581566 0.080474384
-0.04027176 -2.1604154 -3.9145443 -4.1155715 -0.0021595415 -1.0943233 -0.6364653 -2.176051
-2.4481661 -1.3646189 -0.3455407 0.2636319 0.45665264 -0.2450468 0.18299296 0.10545128
0.22349222 0.17554747 -0.13525413 -0.101645015 0.17781238 -0.24687351 0.0043335226 0.9145751
1.0005294 0.30200306 -0.07996579 -0.13861163 -0.06295491 -0.063734934 -0.03250983 -0.12680432

bias f4 [8]
00000000: 54e9 bebf 61ed 343f 8541 80bf 2b69 05be
00000010: d7e1 2bbe ffc0 74be e4fa 83bf 85bb af3f
-1.4914956 0.7067471 -1.0019995 -0.130284 -0.1678537 -0.23901747 -1.0310941 1.3729101

weight f4 [29, 512]
00000000: 0892 c6bc e255 f7bf c214 80be 04ae d13e
00000010: 6675 ce3e 6f25 af3e 1c80 87be b461 20bf
00000020: 1769 4ebf 5877 8bbf af95 1dbf 1782 48bf
00000030: 6335 b5bd 7d9b c3be 1107 e8be 602e aabf
00000040: 0273 c4be 4661 d8bd f510 17bf 9c25 28bf
00000050: 7844 63bf 544f 8cbf aff1 87bf 33b3 a2bf
00000060: 9c78 eebe a977 5cbf 3d56 71be bb3a 6abe
00000070: 0509 3cbf 5f69 52bf e501 43bf a1c3 a4bf
00000080: 86f4 51be a899 08be b30a 3bbd 3786 57be
00000090: 7729 05bf 04dd bebe fd45 26bf 0278 11bf
000000a0: 6a81 1b3f 4e3f 2bbf 06ba 343e 9496 cbbe
000000b0: c879 02bf 5d0b d7be 1608 8cbf 6965 12bf
000000c0: 0c5e 453f 2077 44bd a81e 01be 1681 6d3d
000000d0: e0c2 25bd cee4 843c 9770 04bf 4ad6 44bf
000000e0: d2e1 a9bc 53bb ca3e 9540 193e e1be 0a3e
000000f0: 12f9 1f3e 7ecf 803e 8272 31be 02a4 56be
00000100: 175f 82bf 79be bbbf b928 72be 0d94 193f
00000110: 8c17 eb3e 5713 ed3e abb1 103f 6164 9b3f
00000120: 4482 43c0 a74b 0e3f af5f 493f 5785 173f
00000130: 4521 963e 9c31 213e 4f45 ce3d e4e4 023e
00000140: 6ca1 7d3f dafb 333f 3bba b33e b28b 063f
00000150: 99ce 4f3f 83d5 503f 115d 153f eede 193e
00000160: c39a 043e d741 933e 53c6 943e 82ac 803e
00000170: ddd8 2b3e cf85 8c3e b579 763f 5a0d bbbd
00000180: 282e 723e 1529 6d3e 8c88 373e 2a38 8fbc
00000190: 1839 833e 5529 08bc f08a 9c3e 8377 01be
000001a0: 687d 70bf 0fd5 09bf c350 dcbb 7448 3dbe
000001b0: 32a0 f13d 220a 233e ef85 823e 18c4 fc3d
000001c0: 9b0e 37bf 880c 0cbd 9b21 803a 209f 453d
000001d0: ba30 f6be a9d1 6fbc 6057 dbbe 73af 12bf
000001e0: 6a04 0abd 2619 34bd 393d 403e e1e8 903e
000001f0: cf91 543c 8531 1dbd 1a65 09bf ff23 de3d
00000200: 354c b83e 2e3e 9e3f 6a81 163f cc48 6abf
00000210: cc09 b6be a8c5 7fc0 9056 9ec0 c094 23c0
00000220: cb90 04bf 988c 22bf 6573 79bd 63f0 f53e
00000230: e3aa 673e 298c 01bf 85e6 e1be c1c2 993e
00000240: 80d0 793d 240b ec3e 7b20 8fbe 14e2 25bf
00000250: c197 afbd 9e1b 603e 6440 ee3e 53f9 adbf
00000260: 7fae d83e 198f e73d 0d17 23be 10e7 e33e
00000270: e5d1 43be fb87 17bf f332 983e d371 563f
00000280: 5cd5 513f fdb6 3e3f ebed 5e3f e6fb 843e
00000290: 48e1 db3e 13bd 76bd e08c 363e 73dd 08bf
000002a0: 8440 17be 24a1 fbbe 8828 823e 33ee c4be
000002b0: 1d2a bcbd e4e3 07bf 1e22 37bd 33bd 56be
000002c0: 6742 d7bb 99c2 dfbe 42cd 383e b009 833e
000002d0: 7ce4 4bbe 567a a4be 5a1a 2abe c8ae 443e
000002e0: 3fde 3abe 04df 38be 8853 8ebc 31e6 25be
000002f0: 8e0d 21be 4a0c 123c e209 523e 71bc d83e
00000300: ee0d 32bd a715 94bc dfa8 3cbc 9943 2d3d
00000310: 7219 3f3c 5f78 2abd a8d1 b5bb 9107 223d
00000320: 0879 30bc f3b1 dfbc 8754 963c 089d 2abd
00000330: f57e 233d 18bd c83c 2284 69bb 96a5 1abd
00000340: 49df bcbc 50df e33c 7551 a93c 3ee3 36bc
00000350: 853e 7b3b 1ddc 86bc f613 30bd c74f e43c
00000360: 5c31 253c 1bb7 abbc a0ff 09bd 445a 313b
00000370: ea89 a7bb e6fc b3bc 5a74 133d 474b 04bd
00000380: bdf0 3fbc fdfd 0abd 9b96 2abc c890 2cbc
00000390: ae76 17bd 612a d7bc 36d7 123d 4017 9b3b
000003a0: 3700 a5bc 8571 de3b 9a67 c83c d027 ba3a
000003b0: 47a9 1b3d cd3c 69bb 33a9 bbbc db26 85bc
000003c0: a02b f73b 3a1d 003c f2a1 3ebb fad1 1b3d
000003d0: c026 fabc 6f3b 07bd 90d0 333c dcf5 2dbd
000003e0: 46d9 cb3c 2ea4 8bbc b068 aa3b 3966 31bd
000003f0: 9880 223b b2df 9e3a b0a5 03bd d28f 2e3d
-0.024239555 -1.9323084 -0.25015837 0.40953076 0.40323943 0.34208247 -0.26464927 -0.62649083
-0.80629104 -1.0895796 -0.61556524 -0.783235 -0.08848073 -0.38204566 -0.4531789 -1.3295403
-0.38368994 -0.105654284 -0.5901025 -0.6568239 -0.8877635 -1.0961709 -1.0620631 -1.2710937
-0.46576393 -0.86120087 -0.23568054 -0.22873966 -0.7345126 -0.82192034 -0.76174766 -1.2872201
-0.20503435 -0.13339865 -0.0456645 -0.21047293 -0.52016395 -0.37277997 -0.64950544 -0.5682374
0.60744345 -0.6689347 0.17649087 -0.3976332 -0.50967073 -0.42000857 -1.0939968 -0.5718599
0.7709663 -0.04796517 -0.1260935 0.057984434 -0.04046905 0.016222384 -0.517343 -0.7688948
-0.020737562 0.39596042 0.14966042 0.13549377 0.15622357 0.25158304 -0.17328838 -0.20961002
-1.0185269 -1.4667503 -0.23648347 0.5999153 0.45916402 0.46303818 0.565211 1.2140008
-3.0548258 0.55584186 0.78661627 0.59187835 0.29322258 0.1574158 0.10071813 0.12782627
0.99074435 0.7030617 0.3510302 0.5255691 0.8117462 0.81575793 0.58345133 0.15026447
0.12949662 0.2876117 0.2905756 0.25131613 0.16781946 0.27445838 0.9627946 -0.09133406
0.2365042 0.23160203 0.17923182 -0.017482836 0.25629497 -0.008310636 0.3057475 -0.12643246
-0.93941355 -0.53840727 -0.0067234947 -0.1848467 0.11798133 0.15921834 0.25492808 0.123420894
-0.7150666 -0.03419164 0.000977564 0.048247457 -0.4808405 -0.014637389 -0.428401 -0.57298964
-0.033695616 -0.043969296 0.18773355 0.28302673 0.012974217 -0.038377304 -0.53669894 0.108467095
0.3599564 1.2362726 0.5879122 -0.9151733 -0.3555435 -3.996439 -4.9480667 -2.555954
-0.51783437 -0.6349578 -0.060901064 0.48034963 0.22623782 -0.5060449 -0.44121185 0.30031398
0.060989857 0.4610225 -0.27954468 -0.6479809 -0.08573867 0.21885535 0.465335 -1.3591713
0.4232063 0.113065906 -0.15926762 0.44512224 -0.19123037 -0.59191865 0.2972637 0.8376743
0.81966186 0.7449797 0.87081784 0.25973433 0.42945313 -0.06023891 0.17827177 -0.53462905
-0.14770705 -0.49146378 0.25421548 -0.38462982 -0.0918772 -0.5308211 -0.04471027 -0.20970611
-0.006569195 -0.43703154 0.1804705 0.25593328 -0.19911379 -0.32124585 -0.16611615 0.19207299
-0.18248843 -0.18053824 -0.017373815 -0.16201092 -0.15727827 0.008914063 0.20511582 0.4233127
-0.043470316 -0.01807673 -0.011514871 0.042300794 0.0116637815 -0.0416187 -0.0055486746 0.039557997
-0.010771044 -0.027306532 0.018350853 -0.041653663 0.039915998 0.02450423 -0.0035631736 -0.03775557
-0.02305569 0.027816445 0.020668725 -0.011162577 0.0038336825 -0.01646238 -0.042987786 0.027870072
0.010082569 -0.020961335 -0.03369105 0.002706186 -0.005112876 -0.021971177 0.035999633 -0.032298353
-0.011715111 -0.03393363 -0.010411884 -0.010532565 -0.036978416 -0.026265325 0.035849772 0.004732996
-0.020141704 0.006788435 0.024463464 0.0014202539 0.038003232 -0.0035589219 -0.022907829 -0.01625388
0.0075430423 0.007819468 -0.0029088226 0.038042046 -0.030536056 -0.033015665 0.010975018 -0.042470798
0.024883877 -0.01704606 0.005200468 -0.043310378 0.0024795886 0.001212111 -0.032140434 0.042617626

bias f4 [29]
00000000: e13b 633d 1bc3 dfbd 002b 473d 5314 213e
00000010: affe 173e b0ba 043e 055f 943c f9ba 6f3e
00000020: 5a87 bb3d 22e6 edbd df50 d93d fdc0 00bf
00000030: 8694 09bf a0a3 4dbe 8baa 93be 4fff 7dbe
00000040: 065e e4bc 8336 8e3e 9948 a3be 24e0 b13e
00000050: 1794 77be 7cfb 9e3d e605 883e 1d8f 523e
00000060: 757d 4ebd 11aa f63c 0f67 1dbd a238 a83e
00000070: 85cd 6bbe
0.055477027 -0.10925885 0.048624992 0.1573041 0.14843248 0.1296184 0.018111715 0.23411168
0.09156676 -0.1161616 0.10611128 -0.50294477 -0.53742254 -0.20081949 -0.2884105 -0.24804424
-0.027876865 0.27775964 -0.31891325 0.34741318 -0.24177586 0.077628106 0.26567 0.20562406
-0.050412614 0.03011039 -0.038428362 0.32855707 -0.23027618
