checkpoints_backup/230906/checkpoint_97.74.pth (torch, 64415 bytes, 6 tensors)

weight f4 [4, 1, 3, 3]
0	0xbe56e73f	-0.20986651
1	0x3e4926ec	0.19643754
2	0xbe536907	-0.20645534
3	0x3e88a5c9	0.26688984
4	0xbe6d2f05	-0.23162468
5	0x3d9963ea	0.0748976
6	0x3e20a3d8	0.15687501
7	0x3d60b465	0.054859538
8	0xbe88752c	-0.26651895
9	0xbe87d161	-0.2652693
10	0x3f47a748	0.77989626
11	0x3f660ee6	0.89866483
12	0xbf636504	-0.8882601
13	0xbf23ac42	-0.6393472
14	0x3d531f0b	0.051543277
15	0x3dab9c2f	0.08379399
16	0xbf71c1f6	-0.94436586
17	0xbee4cc7f	-0.44687268
18	0xbdaf4488	-0.08557993
19	0xbf45828a	-0.7715231
20	0xbd3ec5a3	-0.0465752
21	0x3fe715b5	1.80535
22	0x3fe57bc5	1.7928396
23	0x3fe69fb7	1.8017491
24	0x400621db	2.0958164
25	0x401f2cc8	2.4871082
26	0x4027780d	2.6167023
27	0x3fb3240f	1.3995379
28	0x3fbb1287	1.4615029
29	0x400938a3	2.1440818
30	0x3f8b9b3e	1.0906751
31	0x3fc54de9	1.5414401
32	0x3fe02efa	1.7514336
33	0xbf69e321	-0.91362196
34	0xbf80063c	-1.0001903
35	0xbf32af65	-0.6979888

bias f4 [4]
0	0xbea3b4b0	-0.3197379
1	0x3f9b6374	1.2139726
2	0xbfb4dbb2	-1.4129546
3	0xbfa095ec	-1.2545753

weight f4 [8, 4, 3, 3]
0	0x3d98980c	0.07450876
1	0xbde726e7	-0.11286717
2	0xbdd1c9e2	-0.10243584
3	0xbd70cf01	-0.058791164
4	0x3d1827ce	0.037147336
5	0xbd916e5a	-0.07101126
6	0xbd6d7991	-0.057977263
7	0xbdffac8e	-0.12484084
8	0x3d81458d	0.06312094
9	0x3fa8f475	1.3199602
10	0x3effc67b	0.49956116
11	0xbff7da84	-1.9363561
12	0x3f78a10e	0.9712075
13	0x3fc08690	1.5041065
14	0x3fad6f19	1.3549529
15	0xbfc78de4	-1.5590177
16	0xbf8d9480	-1.1060944
17	0x401c0766	2.4379516
18	0xbee95e30	-0.45579672
19	0x3f0ab73b	0.5418584
20	0x3f3655e2	0.71224797
21	0xbf21a416	-0.63141
22	0xbfa187ac	-1.2619529
23	0xbe3d3b70	-0.18479705
24	0x3f1e7825	0.61902076
25	0x3eeab04a	0.45837623
26	0xbeac55d3	-0.3365923
27	0x3e573d1f	0.2101941
28	0x3f4aefe2	0.7927228
29	0x3e296bcc	0.16545027
30	0xbf5c03d5	-0.8594335
31	0xbe3d37d5	-0.1847833
32	0x3f867609	1.0504771
33	0x3f36e328	0.7144036
34	0xbf81e4e5	-1.0147978
35	0xbeb72522	-0.35770518
36	0xbddeedb4	-0.10885182
37	0x3e0e896e	0.13919613
38	0x3d189800	0.037254333
39	0x3d98a9ac	0.07454237
40	0xbdd3d1d8	-0.10342759
41	0x3d003029	0.03129593
42	0x3de4f441	0.111794
43	0xbca8dee6	-0.020614099
44	0x3d4a84ed	0.049443174
45	0xbe6e7489	-0.23286642
46	0x3eeac9d2	0.45857102
47	0x3d55ce23	0.05219854
48	0x3ebddb85	0.37081543
49	0xbce65c9b	-0.02812033
50	0xbe9caf98	-0.30602717
51	0x3fbbc5f6	1.4669788
52	0x3e6009e8	0.21878779
53	0x3e55b750	0.2087071
54	0x3f768621	0.96298414
55	0x3f774f9b	0.96605843
56	0xbe8846b4	-0.26616442
57	0xbf1a14d7	-0.6018805
58	0xbf8e6ab2	-1.1126311
59	0xbf917da7	-1.1366471
60	0xbf4c5651	-0.7981921
61	0x3d5ac58a	0.053411044
62	0x3f25f482	0.64826214
63	0x3eeee6dd	0.4666051
64	0x3fbea1c6	1.4893119
65	0x3f337caf	0.7011213
66	0x3f126439	0.5718418
67	0x3e131359	0.1436285
68	0xbfa1c56e	-1.2638376
69	0xbea28e31	-0.31749108
70	0xbfba9120	-1.4575539
71	0xbe13edef	-0.14446233
72	0x3d58da51	0.052942578
73	0xbd0afaa3	-0.033930432
74	0xbd4bd701	-0.04976559
75	0x3cf06640	0.029345632
76	0xbc92058c	-0.01782491
77	0xbd299ae1	-0.04140747
78	0xbca699d2	-0.02033702
79	0x3e1df5cc	0.15425795
80	0xbd6ec505	-0.05829336
81	0xbd35b189	-0.044358764
82	0xbfb9db88	-1.4520121
83	0xbf8e487b	-1.1115869
84	0xbf0c1798	-0.547235
85	0xbec3c2d3	-0.38234577
86	0xbf5bec29	-0.85907227
87	0xbec12af6	-0.3772809
88	0xbf038d7f	-0.5138778
89	0x3ea24efd	0.31700888
90	0x3f674039	0.9033237
91	0x3f8c131c	1.0943332
92	0x3f648a57	0.8927359
93	0xbf3292f5	-0.6975549
94	0xbe8056a2	-0.25066096
95	0x3eb9735d	0.36220828
96	0xbeeb05db	-0.45902905
97	0xbe08f61f	-0.13375138
98	0x3e3aa4cc	0.18226928
99	0xbf84b8fe	-1.0368955
100	0xbfbd656a	-1.4796574
101	0xc00a023f	-2.156387
102	0xbec942a5	-0.39308658
103	0x3f1bb953	0.6082966
104	0x3fab8c3b	1.340217
105	0x3dd16119	0.10223598
106	0x3dde1543	0.10843899
107	0x3e1e5589	0.15462317
108	0x3e0a2e20	0.13494158
109	0xbdce357e	-0.100687966
110	0x3dfdff18	0.12402171
111	0xbbb6bd80	-0.0055767894
112	0x3dfefd93	0.12450709
113	0xbdcfb968	-0.10142785
114	0xbd5da88b	-0.054115813
115	0xbdbac47b	-0.09119507
116	0xbdd039f6	-0.10167305
117	0xbd8a6045	-0.06756643
118	0xbdfbf4fb	-0.12302586
119	0xbe2e7e97	-0.17040478
120	0xbd615d15	-0.05502041
121	0xbddbe0bc	-0.10736224
122	0x3dc5fbd3	0.09667172
123	0xbd969510	-0.0735265
124	0x3c10ee96	0.008845946
125	0xbe22694e	-0.15860483
126	0xbde47d3e	-0.111567006
127	0xbdd45e7e	-0.103695855
128	0xbdd41cc3	-0.10357048
129	0xbdba6bf3	-0.09102621
130	0x3be81e08	0.007083658
131	0x3d8b2d67	0.06795769
132	0xbe1c1c0a	-0.15245071
133	0xbe19a737	-0.15005194
134	0xbd884ba8	-0.06655055
135	0xbdf8def3	-0.12151899
136	0xbd984f76	-0.07437031
137	0xbdaa9354	-0.08328882
138	0xbc02d356	-0.007984957
139	0xbe27a53a	-0.16371623
140	0x3bdc71d2	0.0067274356
141	0xbda0d25e	-0.07852624
142	0xbe030f13	-0.12798719
143	0xbe0bdbdc	-0.13658088
144	0x3e1ca7b2	0.15298346
145	0xbe277840	-0.16354465
146	0x3cd5468b	0.026034614
147	0x37100000	8.583069e-06
148	0xbd96e460	-0.07367778
149	0xbdc5d258	-0.096592605
150	0x3e27bc70	0.16380477
151	0x3d6d5a76	0.0579476
152	0x3c53c696	0.012925765
153	0xbc08cd8e	-0.008349789
154	0xbdd04710	-0.10169804
155	0xbe139740	-0.14413166
156	0xbe225947	-0.15854369
157	0xbe298d7d	-0.1655788
158	0xbc80fc02	-0.015745167
159	0x3d39184f	0.045189198
160	0xbccb605b	-0.02482622
161	0xbde71d4c	-0.11284885
162	0x3d53daf3	0.051722478
163	0x3c95966f	0.018260209
164	0xbda50799	-0.0805809
165	0xbc6d9070	-0.014499769
166	0xbe223c50	-0.1584332
167	0xbd8f6cd0	-0.07003176
168	0xbe0f5ad4	-0.13999492
169	0xbd775c54	-0.060390785
170	0x3dae4b95	0.0851051
171	0xbde3475a	-0.110975936
172	0xbe432c0a	-0.19059768
173	0x3cfad7d9	0.030620502
174	0xbd1b5536	-0.03792306
175	0x3db64cb7	0.08901351
176	0xbcf0291c	-0.029316477
177	0xbdfedffc	-0.124450654
178	0xbd32509e	-0.043533914
179	0xbe4597f6	-0.1929625
180	0xbdd6b913	-0.10484519
181	0xbddb9c6e	-0.10723196
182	0xbd34952f	-0.044087585
183	0xbdf13ad5	-0.117787994
184	0x3e0a58b7	0.13510405
185	0xbe1a9071	-0.15094163
186	0xbcc800e2	-0.024414483
187	0x3d4c3f40	0.049865007
188	0x3d79915d	0.060929645
189	0x3f7fa772	0.99864876
190	0xbe38903a	-0.18023768
191	0xbf26e5bd	-0.651943
192	0x3f8b3f75	1.087874
193	0xbf1e9b98	-0.6195617
194	0xbf9d9b62	-1.2313044
195	0x3fa216fe	1.2663267
196	0x3e658df0	0.22417426
197	0xbcec98c3	-0.028881436
198	0xbd532eb0	-0.051558197
199	0xbebcf2ee	-0.3690409
200	0x3f14cd7d	0.5812605
201	0xbf33116b	-0.6994845
202	0xbdc80da6	-0.09768228
203	0x3ef6258c	0.4807552
204	0xbe76d606	-0.24105081
205	0x3ea34ed2	0.31896073
206	0x3ef6e3c3	0.48220643
207	0xbeec75b5	-0.46183553
208	0xbf3bd3ab	-0.73369855
209	0x3e6017d7	0.21884094
210	0xbf302dd2	-0.68819916
211	0xbef238de	-0.4730901
212	0x3e90e078	0.28296256
213	0xbede195f	-0.43378732
214	0x3e05e426	0.13075313
215	0x3f57e860	0.8433895
216	0x3dafbde8	0.085811436
217	0x3e16c7fc	0.14724725
218	0x3df05c0d	0.11736307
219	0xbdec6cf6	-0.1154422
220	0x3d14e286	0.036348842
221	0x3d44fad3	0.048090767
222	0xbe00d5d2	-0.12581566
223	0x3da4cfc1	0.080474384
224	0xbd24f400	-0.04027176
225	0xc00dc7e0	-2.2153244
226	0xc08185fc	-4.0476055
227	0xc083a7b7	-4.114223
228	0x3d32c9e8	0.043649584
229	0xbf8991f3	-1.0747665
230	0xbf1a515f	-0.6028041
231	0xc012a1a5	-2.291116
232	0xc0222bd9	-2.5339262
233	0xbfac288f	-1.3449878
234	0xbeb13d8d	-0.34617272
235	0x3e902f31	0.28161004
236	0x3efa8ae4	0.4893409
237	0xbe88fbe6	-0.26754683
238	0x3e323bda	0.17405644
239	0x3dd77166	0.10519676
240	0x3e6e2d5b	0.23259489
241	0x3e3a3d4b	0.18187444
242	0xbe1b1956	-0.15146384
243	0xbdf59f1b	-0.119932376
244	0x3e6a407d	0.22876163
245	0xbe916295	-0.28395525
246	0x3bd0cc85	0.006372037
247	0x3f75f433	0.96075743
248	0x3f856f56	1.0424602
249	0x3ebee3df	0.37283227
250	0xbd32ffaf	-0.04370087
251	0xbde4bc22	-0.11168696
252	0xbd80ee81	-0.06295491
253	0xbd828776	-0.063734934
254	0xbd052907	-0.03250983
255	0xbe01d8fe	-0.12680432

bias f4 [8]
0	0xbfd84ccf	-1.689844
1	0x3f416945	0.75551254
2	0xbf88f8a6	-1.0700881
3	0xbe05692b	-0.130284
4	0xbe2be1d7	-0.1678537
5	0xbe7a62e6	-0.2445179
6	0xbf9115e6	-1.1334808
7	0x3fb93ec4	1.447228

weight f4 [29, 512]
0	0x3e00db61	0.12583686
1	0xc00c6c66	-2.194116
2	0xbe8812ef	-0.26576945
3	0x3ef17886	0.47162265
4	0x3ed74c2c	0.42050302
5	0x3eacf285	0.33778778
6	0xbeb7063e	-0.3574695
7	0xbf2f9a02	-0.6859437
8	0xbf51981d	-0.8187273
9	0xbf95c063	-1.1699337
10	0xbf2c000d	-0.6718758
11	0xbf4f32b1	-0.80936724
12	0xbdf1533b	-0.11783453
13	0xbeed5b1d	-0.46358576
14	0xbefd15e9	-0.4943078
15	0xbfaed33f	-1.3658217
16	0xbed89c4a	-0.4230674
17	0xbe02e009	-0.12780775
18	0xbf29d755	-0.66344196
19	0xbf2c8c6d	-0.6740177
20	0xbf79c909	-0.9757238
21	0xbf9970ea	-1.1987584
22	0xbf9b0ee7	-1.2113923
23	0xbfa3b852	-1.2790625
24	0xbecf8997	-0.4053466
25	0xbf7e5ed4	-0.99363446
26	0xbe8222aa	-0.25417072
27	0xbe574c93	-0.21025304
28	0xbf4bed55	-0.79659015
29	0xbf5b79b4	-0.8573258
30	0xbf447d56	-0.7675375
31	0xbfa17d57	-1.2616376
32	0xbe7a310e	-0.24432775
33	0xbe4ea75e	-0.20181033
34	0xbd648813	-0.055793833
35	0xbe78c153	-0.24292497
36	0xbf121b19	-0.570726
37	0xbec5e679	-0.386524
38	0xbf306d11	-0.6891642
39	0xbf0a659b	-0.5406129
40	0x3f38565e	0.72006786
41	0xbf4e5674	-0.80600667
42	0x3e516d34	0.20451814
43	0xbeec8e1e	-0.46202177
44	0xbf0712c0	-0.52762985
45	0xbee8347a	-0.45352536
46	0xbf8783a6	-1.0587051
47	0xbf39913b	-0.7248723
48	0x3f73944c	0.9514816
49	0x3c86032c	0.016358934
50	0xbe0642c1	-0.13111402
51	0x3cbc0b7a	0.022954691
52	0x3badc1f8	0.005302664
53	0x3c6a0273	0.0142828105
54	0xbef7a898	-0.48370814
55	0xbf672ed7	-0.90305847
56	0xbca55e48	-0.020186558
57	0x3ec82549	0.39090946
58	0x3e22e2de	0.15906855
59	0x3da541f6	0.08069222
60	0x3e085738	0.13314521
61	0x3e6ab5a9	0.2292086
62	0xbe1d1308	-0.15339291
63	0xbe7481e1	-0.2387767
64	0xbf8493b5	-1.0357577
65	0xbfcf8456	-1.6212261
66	0xbec3e845	-0.38263145
67	0x3f2a2eea	0.66477835
68	0x3efdbfad	0.495603
69	0x3ef29bd3	0.4738451
70	0x3f14a7ee	0.5806874
71	0x3fa3a820	1.2785683
72	0xc0703861	-3.753441
73	0x3f1b6f35	0.60716563
74	0x3f534b7b	0.8253705
75	0x3f245666	0.64194334
76	0x3e6ffa3d	0.23435302
77	0x3e25eb82	0.1620312
78	0x3da0ab52	0.07845177
79	0x3e3a0723	0.18166785
80	0x3f8015c0	1.0006638
81	0x3f33b08f	0.7019128
82	0x3ec81bf2	0.3908382
83	0x3f0941b6	0.5361589
84	0x3f5b70ac	0.857188
85	0x3f59347e	0.8484572
86	0x3f256b92	0.64617264
87	0x3e5c6a0b	0.21524827
88	0x3e15464f	0.14577602
89	0x3e95cea0	0.29259205
90	0x3ea3ceab	0.31993613
91	0x3e92ced5	0.28673425
92	0x3e39f8ef	0.18161367
93	0x3e975f56	0.29564923
94	0x3f852347	1.0401391
95	0xbd921d6d	-0.07134519
96	0x3e7ea559	0.24867763
97	0x3e785916	0.24252734
98	0x3e6c7f39	0.23095407
99	0xbcd327d8	-0.025775835
100	0x3e851877	0.25995228
101	0xbce2673b	-0.027637115
102	0x3e9f3cf9	0.31101206
103	0xbdc0a506	-0.09406476
104	0xbf86b91b	-1.052524
105	0xbf169f4d	-0.58836824
106	0xbd390e20	-0.045179486
107	0xbe398a83	-0.18119244
108	0x3dd8ecfd	0.10592077
109	0x3e2d9862	0.1695266
110	0x3e8f2024	0.2795421
111	0x3e68c4d0	0.22731328
112	0xbf46ddc0	-0.77682114
113	0x3d41be43	0.04730059
114	0x3c1f1fca	0.009712169
115	0xbd03f7b8	-0.032218665
116	0xbf1778d9	-0.59168774
117	0xbc366573	-0.011132586
118	0xbf012f75	-0.5046304
119	0xbf264ac3	-0.6495783
120	0xbcabcc1a	-0.020971347
121	0xbdc5c33e	-0.0965638
122	0x3e3c7297	0.18403088
123	0x3e97c573	0.2964283
124	0x3d3d6a72	0.046244092
125	0xbd3e8fa1	-0.046523694
126	0xbf31e932	-0.6949645
127	0x3deaf801	0.11473084
128	0x3ecdf91b	0.40229115
129	0x3fb3632d	1.4014641
130	0x3f05034d	0.5195816
131	0xbf82a930	-1.0207882
132	0xbead59a9	-0.33857468
133	0xc07ea6bd	-3.978927
134	0xc0b1bde8	-5.554432
135	0xc031c5d4	-2.7776995
136	0xbf08222e	-0.53177154
137	0xbf3ae7a8	-0.7300973
138	0xbd83e572	-0.064402476
139	0x3f01485b	0.5050103
140	0x3e968a3b	0.29402336
141	0xbf0351c7	-0.5129666
142	0xbefbc115	-0.49170747
143	0x3eac4685	0.33647552
144	0x3d284822	0.041084416
145	0x3f0ce2fc	0.5503385
146	0xbe825505	-0.2545549
147	0xbf221b85	-0.6332324
148	0xbde420d6	-0.111390755
149	0x3e91507c	0.28381717
150	0x3f022417	0.5083632
151	0xbfd5355b	-1.6656908
152	0x3ef25036	0.4732682
153	0x3e2f2818	0.17105138
154	0xbe67577b	-0.22591965
155	0x3f023da4	0.50875306
156	0xbe225ab8	-0.15854919
157	0xbf29a59a	-0.6626831
158	0x3ec97ba4	0.39352143
159	0x3f7b522c	0.9817226
160	0x3f7920db	0.9731576
161	0x3f71dce0	0.94477654
162	0x3f83f27e	1.0308378
163	0x3e61adaa	0.22038904
164	0x3ef983ac	0.4873327
165	0xbdadfcff	-0.08495521
166	0x3e30a260	0.17249441
167	0xbf1cfddf	-0.61324877
168	0xbe297615	-0.16548951
169	0xbf445882	-0.7669755
170	0x3e95f54c	0.2928871
171	0xbecbdf79	-0.39818934
172	0xbe14e468	-0.14540255
173	0xbf1b2d11	-0.6061564
174	0xbe02f06c	-0.12787026
175	0xbe8f4f4c	-0.27990186
176	0xbb9b9e3d	-0.004749088
177	0xbf07aad7	-0.52995056
178	0x3e5d5da3	0.21617751
179	0x3e8cc0ad	0.2749075
180	0xbe618ebe	-0.22027108
181	0xbeccd708	-0.40007806
182	0xbdc59b37	-0.096487455
183	0x3e9486b5	0.29009023
184	0xbe5a7e2b	-0.21337192
185	0xbe64a617	-0.22328983
186	0xbdb46135	-0.08807603
187	0xbe3f6705	-0.18691643
188	0xbe0dd874	-0.13852102
189	0x3d1a6522	0.037694104
190	0x3e8202fd	0.25392905
191	0x3efed745	0.49773613
192	0xbd320dee	-0.043470316
193	0xbc9415a7	-0.01807673
194	0xbc3ca8df	-0.011514871
195	0x3d2d4399	0.042300794
196	0x3c3f1972	0.0116637815
197	0xbd2a785f	-0.0416187
198	0xbbb5d1a8	-0.0055486746
199	0x3d220791	0.039557997
200	0xbc307908	-0.010771044
201	0xbcdfb1f3	-0.027306532
202	0x3c965487	0.018350853
203	0xbd2a9d08	-0.041653663
204	0x3d237ef5	0.039915998
205	0x3cc8bd18	0.02450423
206	0xbb698422	-0.0035631736
207	0xbd1aa596	-0.03775557
208	0xbcbcdf49	-0.02305569
209	0x3ce3df50	0.027816445
210	0x3ca95175	0.020668725
211	0xbc36e33e	-0.011162577
212	0x3b7b3e85	0.0038336825
213	0xbc86dc1d	-0.01646238
214	0xbd3013f6	-0.042987786
215	0x3ce44fc7	0.027870072
216	0x3c25315c	0.010082569
217	0xbcabb71b	-0.020961335
218	0xbd09ffa0	-0.03369105
219	0x3b315a44	0.002706186
220	0xbba789ea	-0.005112876
221	0xbcb3fce6	-0.021971177
222	0x3d13745a	0.035999633
223	0xbd044b47	-0.032298353
224	0xbc3ff0bd	-0.011715111
225	0xbd0afdfd	-0.03393363
226	0xbc2a969b	-0.010411884
227	0xbc2c90c8	-0.010532565
228	0xbd1776ae	-0.036978416
229	0xbcd72a61	-0.026265325
230	0x3d12d736	0.035849772
231	0x3b9b1740	0.004732996
232	0xbca50037	-0.020141704
233	0x3bde7185	0.006788435
234	0x3cc8679a	0.024463464
235	0x3aba27d0	0.0014202539
236	0x3d1ba947	0.038003232
237	0xbb693ccd	-0.0035589219
238	0xbcbba933	-0.022907829
239	0xbc8526db	-0.01625388
240	0x3bf72ba0	0.0075430423
241	0x3c001d3a	0.007819468
242	0xbb3ea1f2	-0.0029088226
243	0x3d1bd1fa	0.038042046
244	0xbcfa26c0	-0.030536056
245	0xbd073b6f	-0.033015665
246	0x3c33d090	0.010975018
247	0xbd2df5dc	-0.042470798
248	0x3ccbd946	0.024883877
249	0xbc8ba42e	-0.01704606
250	0x3baa68b0	0.005200468
251	0xbd316639	-0.043310378
252	0x3b228098	0.0024795886
253	0x3a9edfb2	0.001212111
254	0xbd03a5b0	-0.032140434
255	0x3d2e8fd2	0.042617626

bias f4 [29]
0	0x3d478fd0	0.048721135
1	0xbe0bfded	-0.13671084
2	0x3d887064	0.06662062
3	0x3e4f6d68	0.20256579
4	0x3e3e4bc3	0.18583588
5	0x3e2abb79	0.16673078
6	0x39545d5e	0.00020252677
7	0x3e6ccba7	0.23124562
8	0x3dc67f8f	0.096922986
9	0xbe00f1fe	-0.12592313
10	0x3e055496	0.13020548
11	0xbf09d450	-0.5383959
12	0xbf1a134f	-0.6018571
13	0xbe616b87	-0.22013675
14	0xbeae0e1b	-0.33995137
15	0xbe8b9160	-0.2725935
16	0xbcd687f5	-0.026187876
17	0x3ea800e8	0.3281319
18	0xbebf5829	-0.37371948
19	0x3ec9d2fd	0.39418784
20	0xbe942294	-0.2893263
21	0x3dd091bc	0.101840466
22	0x3ea313cb	0.31851038
23	0x3e66baf5	0.22532256
24	0xbd7d7df5	-0.0618877
25	0x3cf32a2f	0.0296832
26	0xbd8b04f1	-0.06788052
27	0x3eb6a4fa	0.35672742
28	0xbe822427	-0.25418207
