checkpoints_backup/230906/checkpoint_92.88.pth (torch, 64415 bytes, 6 tensors)

weight f4 [4, 1, 3, 3]
00000000: 3fe7 56be ec26 493e 0769 53be c9a5 883e
00000010: 052f 6dbe ea63 993d d8a3 203e 65b4 603d
00000020: 2c75 88be 020e 8fbe 70ca 373f ab13 3c3f
00000030: d4f1 3ebf 67e7 f6be 48d5 413d 908e 9b3c
00000040: 6b82 45bf 9055 aebe 1661 2fbd 606c 01bf
00000050: 6306 563e a457 e03f b97d e33f f586 0440
00000060: eb72 0840 09ac 1740 141e 2a40 30da b03f
00000070: 6e49 a23f d5ea ef3f 8a7f 7d3f 9d0c a63f
00000080: b02d ca3f 1627 54bf 3a5c 53bf 331c 0fbf
-0.20986651 0.19643754 -0.20645534 0.26688984 -0.23162468 0.0748976 0.15687501 0.054859538
-0.26651895 -0.27940375 0.7179327 0.7346751 -0.7458775 -0.4822342 0.04732254 0.018988878
-0.7715213 -0.34049654 -0.042817198 -0.5055599 0.20900874 1.7526746 1.7772743 2.0707371
2.132014 2.3698752 2.6580858 1.3816586 1.2678659 1.874354 0.99022734 1.2972599
1.5795193 -0.8287214 -0.825626 -0.55902404

bias f4 [4]
00000000: b0b4 a3be 6ee4 793f bd94 c0bf 132a 92bf
-0.3197379 0.9761418 -1.5045391 -1.141909

weight f4 [8, 4, 3, 3]
00000000: 0c98 983d e726 e7bd e2c9 d1bd 01cf 70bd
00000010: ce27 183d 5a6e 91bd 9179 6dbd 8eac ffbd
00000020: 8d45 813d ef1f a13f 7db5 ff3e d208 ccbf
00000030: 6074 103f 3e8c b13f 504c b23f bf47 a9bf
00000040: 7689 04bf b5dd fd3f 2f69 a8be 3eb1 a43e
00000050: 70c6 1e3f 1e25 14bf fd1a 83bf d60c b8bd
00000060: 3ea3 313f 8908 6c3e 5a66 a3be 0107 613e
00000070: b27a 363f 56f4 9d3e 6433 44bf 2619 4abe
00000080: 3815 7a3f d5c2 093f 2f1b 66bf f483 d8be
00000090: b4ed debd 6e89 0e3e 0098 183d aca9 983d
000000a0: d8d1 d3bd 2930 003d 41f4 e43d e6de a8bc
000000b0: ed84 4a3d 6f61 02be 6192 e43e 8f68 9d3d
000000c0: 2412 cc3e e26b 15bd 75a9 a6be 7290 b23f
000000d0: faf8 e93e 58c2 013f d503 5f3f 4b04 593f
000000e0: 7c19 3bbe d8ef 03bf b9c2 6ebf 3c54 84bf
000000f0: e371 27bf 15a0 18bd 86c6 103f ac28 0a3f
00000100: f1c5 9c3f 174c 253f b832 0c3f aaa6 8c3e
00000110: 2bf0 8cbf e28d abbe 1238 a3bf 36cc 7dbe
00000120: 51da 583d a3fa 0abd 01d7 4bbd 4066 f03c
00000130: 8c05 92bc e19a 29bd d299 a6bc ccf5 1d3e
00000140: 05c5 6ebd e670 86bd 660f a0bf 3ed0 99bf
00000150: 802c e5be 0f70 19bf dca4 98bf 3b57 a7bd
00000160: 9e2c cfbe 6249 8dbd e7a6 1c3f 4a34 2e3f
00000170: 850f 343f c75c ffbe c022 d6bd 3442 a63e
00000180: 6c74 96be 2fc6 02be 4fda 0b3e 079e 4abf
00000190: da60 8cbf cf57 bdbf e718 45be 703b f73e
000001a0: de82 853f e815 27bd 4295 943c 2b46 563d
000001b0: 202e 0a3e 7e35 cebd 18ff fd3d 80bd b6bb
000001c0: 93fd fe3d 68b9 cfbd 8ba8 5dbd 7bc4 babd
000001d0: f639 d0bd 4560 8abd fbf4 fbbd 977e 2ebe
000001e0: 155d 61bd bce0 dbbd d3fb c53d 1095 96bd
000001f0: 96ee 103c 4e69 22be 3e7d e4bd 7e5e d4bd
00000200: c31c d4bd f36b babd 081e e83b 672d 8b3d
00000210: 0a1c 1cbe 37a7 19be a84b 88bd f3de f8bd
00000220: 764f 98bd 5493 aabd 56d3 02bc 3aa5 27be
00000230: d271 dc3b 5ed2 a0bd 130f 03be dcdb 0bbe
00000240: b2a7 1c3e 4078 27be 8b46 d53c 0000 1037
00000250: 60e4 96bd 58d2 c5bd 70bc 273e 765a 6d3d
00000260: 96c6 533c 8ecd 08bc 1047 d0bd 4097 13be
00000270: 4759 22be 7d8d 29be 02fc 80bc 4f18 393d
00000280: 5b60 cbbc 4c1d e7bd f3da 533d 6f96 953c
00000290: 9907 a5bd 7090 6dbc 503c 22be d06c 8fbd
000002a0: d45a 0fbe 545c 77bd 954b ae3d 5a47 e3bd
000002b0: 0a2c 43be d9d7 fa3c 3655 1bbd b74c b63d
000002c0: 1c29 f0bc fcdf febd 9e50 32bd f697 45be
000002d0: 13b9 d6bd 6e9c dbbd 2f95 34bd d53a f1bd
000002e0: b758 0a3e 7190 1abe e200 c8bc 403f 4c3d
000002f0: 5d91 793d 44a3 1b3f b5ae a9bd c9d6 e7be
00000300: 1ec7 433f aeac 8abe 5019 53bf 5405 793f
00000310: 1f97 a43e 512b 213d f209 fabd afc1 93be
00000320: e704 063f 1a18 26bf 7c99 9dbc bdc8 e73e
00000330: 1b67 88be 1b6f ab3e 9911 e43e f873 0cbf
00000340: ce74 39bf 08fa 103e 3b1b 25bf 4fa0 b5be
00000350: a805 b63e 4e97 e6be 2004 c83d 0fbd 403f
00000360: e8bd af3d fcc7 163e 0d5c f03d f66c ecbd
00000370: 86e2 143d d3fa 443d d2d5 00be c1cf a43d
00000380: 00f4 24bd efc4 febf b37b 5dc0 f9a0 7bc0
00000390: 0224 23be 9ffa 89bf 3384 42bf 09cc ffbf
000003a0: 0fd4 0ac0 43e7 c2bf 7e90 8dbe 5988 3f3e
000003b0: b390 c53e 1ddd 17be 9f58 533e 51fd db3d
000003c0: 7588 3d3e 6b61 f63d 6b26 17be 9311 653c
000003d0: fc67 733d 3c0b c7bd 5aa0 df3c f1df 493f
000003e0: b6eb 663f 3453 183e 089c 0cbe 5b7b 05be
000003f0: 81ee 80bd 7687 82bd 0729 05bd fed8 01be
0.07450876 -0.11286717 -0.10243584 -0.058791164 0.037147336 -0.07101126 -0.057977263 -0.12484084
0.06312094 1.258787 0.49943152 -1.5940192 0.56427574 1.3870924 1.3929539 -1.322502
-0.5177225 1.9833285 -0.3289275 0.32166475 0.6202154 -0.57869136 -1.0242611 -0.08986823
0.6938971 0.23050131 -0.31914026 0.21975328 0.7128097 0.30850476 -0.76640916 -0.19736156
0.9768863 0.53812915 -0.8988523 -0.42288172 -0.10885182 0.13919613 0.037254333 0.07454237
-0.10342759 0.03129593 0.111794 -0.020614099 0.049443174 -0.1273248 0.44642928 0.076859586
0.3985759 -0.03647984 -0.3255116 1.3950331 0.45697767 0.5068717 0.8711522 0.84772176
-0.1827144 -0.5153785 -0.93265873 -1.0338206 -0.6540815 -0.03726204 0.5655292 0.5396831
1.2247907 0.6456923 0.5476489 0.27470905 -1.1010793 -0.33506685 -1.2751486 -0.24784932
0.052942578 -0.033930432 -0.04976559 0.029345632 -0.01782491 -0.04140747 -0.02033702 0.15425795
-0.05829336 -0.065645024 -1.2504699 -1.2016675 -0.44760513 -0.5993661 -1.1925311 -0.08170935
-0.40463728 -0.06898762 0.6119217 0.68048537 0.7033618 -0.4987547 -0.10455847 0.32472384
-0.29385698 -0.12770914 0.13657497 -0.7914738 -1.0967057 -1.4792422 -0.1924778 0.48287535
1.0430562 -0.040792376 0.018137578 0.05231301 0.13494158 -0.100687966 0.12402171 -0.0055767894
0.12450709 -0.10142785 -0.054115813 -0.09119507 -0.10167305 -0.06756643 -0.12302586 -0.17040478
-0.05502041 -0.10736224 0.09667172 -0.0735265 0.008845946 -0.15860483 -0.111567006 -0.103695855
-0.10357048 -0.09102621 0.007083658 0.06795769 -0.15245071 -0.15005194 -0.06655055 -0.12151899
-0.07437031 -0.08328882 -0.007984957 -0.16371623 0.0067274356 -0.07852624 -0.12798719 -0.13658088
0.15298346 -0.16354465 0.026034614 8.583069e-06 -0.07367778 -0.096592605 0.16380477 0.0579476
0.012925765 -0.008349789 -0.10169804 -0.14413166 -0.15854369 -0.1655788 -0.015745167 0.045189198
-0.02482622 -0.11284885 0.051722478 0.018260209 -0.0805809 -0.014499769 -0.1584332 -0.07003176
-0.13999492 -0.060390785 0.0851051 -0.110975936 -0.19059768 0.030620502 -0.03792306 0.08901351
-0.029316477 -0.124450654 -0.043533914 -0.1929625 -0.10484519 -0.10723196 -0.044087585 -0.117787994
0.13510405 -0.15094163 -0.024414483 0.049865007 0.060929645 0.60796 -0.08285276 -0.45281056
0.76475704 -0.2708487 -0.824605 0.97273755 0.32146546 0.03934795 -0.12208928 -0.28858706
0.5235123 -0.64880526 -0.019238226 0.4527034 -0.26641163 0.33483204 0.44544676 -0.54864454
-0.72443855 0.1415788 -0.64494675 -0.35473868 0.3555119 -0.4503731 0.09766412 0.7528848
0.085811436 0.14724725 0.11736307 -0.1154422 0.036348842 0.048090767 -0.12581566 0.080474384
-0.04027176 -1.9903849 -3.460675 -3.9317 -0.15931705 -1.0779608 -0.7598297 -1.9984142
-2.169193 -1.5226825 -0.276493 0.18704356 0.3858696 -0.14830442 0.20639275 0.10741676
0.18509085 0.120303 -0.14760749 0.013981241 0.05942534 -0.0971894 0.027298141 0.7885733
0.90203416 0.1487549 -0.13731396 -0.13035338 -0.06295491 -0.063734934 -0.03250983 -0.12680432

bias f4 [8]
00000000: 4fd4 76bf f34d 023f 39bd 49bf 2b69 05be
00000010: d7e1 2bbe 687a 23be 894e 47bf 5147 993f
-0.9641771 0.5090019 -0.78804356 -0.130284 -0.1678537 -0.15964663 -0.7785421 1.1974889

weight f4 [29, 512]
00000000: 3d08 b4be a32d 9fbf 215d 50be 83dc 863e
00000010: fbf3 aa3e c449 6a3e 267f d9bd ecc1 ebbe
00000020: d32c 15bf fcda 69bf 8a69 14bf 27cf 39bf
00000030: a6ec b0bd 99e4 4bbe e95c 9cbe 3c96 7bbf
00000040: 31aa f7bd f1c9 2dbd 4b6e 01bf 4f2f 15bf
00000050: e9ff 39bf 5007 4cbf d8a0 48bf d633 99bf
00000060: 8080 e4be 122e 15bf 7e94 e7bd 4b40 6dbe
00000070: 4aea 1ebf 0427 43bf e33e 2abf 50b9 60bf
00000080: b80c c2bd 5faa 3bba fb86 eebb c78e e2bd
00000090: 7f10 cebe 2c74 9cbe 30d3 14bf 62ad e5be
000000a0: 1877 743e c34d bfbe 535f f83d 07b6 79be
000000b0: 50be c0be e583 f7be bc8a 87bf 1883 fdbe
000000c0: 86e6 c33e 3b04 18be 732b 4cbe 8879 f93c
000000d0: 0284 aebd 5332 093c 270a 08bf da91 c4be
000000e0: e6d6 d4bc 3505 a33e 3dcc 323e af81 443e
000000f0: 5df5 2e3e 7a2d 893e d74e 4bbe b20e 10be
00000100: 5c07 81bf 7f80 85bf b9f5 3cbc 58dd da3e
00000110: 7d30 d73e 1b7b e63e 9b43 d63e f0a9 5f3f
00000120: 4e56 c5bf 0886 e93e 7059 213f 2eb2 e83e
00000130: 5dc7 903e 1ab9 203e 0b43 d53d bdb4 173d
00000140: 9bd1 4b3f 9a55 2f3f 88cf 843e 8f70 013f
00000150: 2586 203f 6469 253f 0a11 e93e 03d5 ae3d
00000160: a56b c03c 0ada 1b3e 2a42 923e 363c 593e
00000170: 092f 4a3e 480a 293e 8889 3d3f 863b 13bd
00000180: 37f1 753e 559f 723e 1528 183e fd59 aebc
00000190: e777 5e3e 1867 00bd dd76 833e fcf4 57be
000001a0: f460 1ebf de5b f1be efa0 d33c 575a 2cbe
000001b0: ff90 b63d fe65 1d3e ec02 3a3e 8245 9c3d
000001c0: c7d7 06bf 7594 7ebe af93 bd3d 885f 9a3d
000001d0: e31c 9cbe 23a2 a7bd 7811 97be 7c7c dfbe
000001e0: 333b 13bd a46c 8fbd 9336 3a3e 4fc9 4b3e
000001f0: 6b48 5bbd 8036 81bc e921 4abe 7d5c aa3d
00000200: 460d 6d3e e70e 3a3f 7829 023f c118 3dbf
00000210: 8cd4 bebe 5b46 7fc0 6606 37c0 5337 fbbf
00000220: 9831 a8be 9ab7 bfbe 5df7 86bd 421e aa3e
00000230: e3e7 6e3d 22b8 e9be 4d52 b5be a89f 253e
00000240: cbda 943d b84b 643e 01c3 97be b0f0 23bf
00000250: e966 8ebd 55ae 903d 58e5 653e 24b7 32bf
00000260: a474 933e 7ec3 b73c d917 83bb a676 a43e
00000270: 51e0 96be d741 a6be f40b 053e ac5a eb3e
00000280: 7265 f33e 6c82 ac3e 1f42 da3e 4897 a43e
00000290: 5f07 a33e 16ee f83d e380 eb3d b7f9 a6be
000002a0: a6a4 c1bd 21d5 33be 4187 263e b18a 86be
000002b0: 5dfb 91bd 98e0 98be e35b 0b3e 36a1 3c3c
000002c0: f95e aa3c d053 30be 3bfe 8d3d ce9b 5a3d
000002d0: ac01 5abd e952 a3bd 266d f0bd 4b54 ec3c
000002e0: 823b b6bd 43dc a9bd 317f 683d aa1b 42be
000002f0: 8aae 84be d4e2 73bd 8e12 bc3d 4203 8d3e
00000300: ee0d 32bd a715 94bc dfa8 3cbc 9943 2d3d
00000310: 7219 3f3c 5f78 2abd a8d1 b5bb 9107 223d
00000320: 0879 30bc f3b1 dfbc 8754 963c 089d 2abd
00000330: f57e 233d 18bd c83c 2284 69bb 96a5 1abd
00000340: 49df bcbc 50df e33c 7551 a93c 3ee3 36bc
00000350: 853e 7b3b 1ddc 86bc f613 30bd c74f e43c
00000360: 5c31 253c 1bb7 abbc a0ff 09bd 445a 313b
00000370: ea89 a7bb e6fc b3bc 5a74 133d 474b 04bd
00000380: bdf0 3fbc fdfd 0abd 9b96 2abc c890 2cbc
00000390: ae76 17bd 612a d7bc 36d7 123d 4017 9b3b
000003a0: 3700 a5bc 8571 de3b 9a67 c83c d027 ba3a
000003b0: 47a9 1b3d cd3c 69bb 33a9 bbbc db26 85bc
000003c0: a02b f73b 3a1d 003c f2a1 3ebb fad1 1b3d
000003d0: c026 fabc 6f3b 07bd 90d0 333c dcf5 2dbd
000003e0: 46d9 cb3c 2ea4 8bbc b068 aa3b 3966 31bd
000003f0: 9880 223b b2df 9e3a b0a5 03bd d28f 2e3d
-0.35162535 -1.2435802 -0.20348026 0.26340112 0.33389267 0.22879702 -0.10619955 -0.46046388
-0.5827152 -0.9134977 -0.5797354 -0.72581714 -0.08638887 -0.19911422 -0.30539635 -0.98276114
-0.12093008 -0.042428914 -0.5055892 -0.5827531 -0.7265611 -0.7969866 -0.7837043 -1.1968944
-0.44629288 -0.5827342 -0.113076195 -0.23169057 -0.62076247 -0.7623141 -0.6650221 -0.87782764
-0.09475082 -0.0007158871 -0.0072792745 -0.11062389 -0.4024696 -0.30557382 -0.58134747 -0.44858843
0.23873556 -0.37364015 0.12127557 -0.24385844 -0.37645197 -0.48342815 -1.0589213 -0.4951408
0.38261813 -0.14845364 -0.1993845 0.030453458 -0.08521272 0.008373815 -0.5314049 -0.38392526
-0.025981378 0.3183991 0.17460723 0.19190095 0.17085786 0.26792508 -0.19854294 -0.14068106
-1.0080371 -1.0429839 -0.011533194 0.42746997 0.4202918 0.45015797 0.41848454 0.8736868
-1.5416963 0.4561007 0.63027096 0.4544844 0.28277102 0.1569561 0.10413178 0.0370376
0.7961671 0.6848999 0.25939584 0.50562376 0.6270469 0.6461394 0.45520812 0.085367225
0.023488829 0.15219894 0.28566104 0.21214375 0.19744505 0.16507828 0.7403798 -0.035945438
0.24017797 0.23693593 0.1485904 -0.021283144 0.21725427 -0.031348318 0.25676623 -0.21089548
-0.6186669 -0.47140402 0.025833575 -0.16831337 0.089143746 0.15370938 0.18165177 0.07630445
-0.52673 -0.2486132 0.09256684 0.075377524 -0.3049079 -0.08185222 -0.29505515 -0.43649662
-0.03594513 -0.070031434 0.18184881 0.19901012 -0.05353586 -0.015773058 -0.19739498 0.08318422
0.23149595 0.7267899 0.50844526 -0.73865896 -0.37271535 -3.9886692 -2.8597655 -1.9626259
-0.32850337 -0.37444764 -0.065901496 0.3322621 0.058326613 -0.45648295 -0.35414353 0.16174185
0.07268294 0.2229451 -0.29640964 -0.64039135 -0.06953222 0.07064501 0.22450769 -0.698107
0.28799927 0.022432085 -0.0040006456 0.32121772 -0.29468015 -0.32472107 0.12992841 0.45967615
0.47538334 0.33693254 0.4262857 0.32146668 0.3184156 0.12154786 0.114991926 -0.32612392
-0.09455232 -0.17561771 0.16262533 -0.26277688 -0.07128022 -0.2985885 0.13609271 0.011513045
0.02079724 -0.17219472 0.06933256 0.053371243 -0.05322425 -0.07974798 -0.117395684 0.028848788
-0.08898069 -0.08293965 0.056761924 -0.18955866 -0.25914413 -0.059542492 0.091832265 0.27541548
-0.043470316 -0.01807673 -0.011514871 0.042300794 0.0116637815 -0.0416187 -0.0055486746 0.039557997
-0.010771044 -0.027306532 0.018350853 -0.041653663 0.039915998 0.02450423 -0.0035631736 -0.03775557
-0.02305569 0.027816445 0.020668725 -0.011162577 0.0038336825 -0.01646238 -0.042987786 0.027870072
0.010082569 -0.020961335 -0.03369105 0.002706186 -0.005112876 -0.021971177 0.035999633 -0.032298353
-0.011715111 -0.03393363 -0.010411884 -0.010532565 -0.036978416 -0.026265325 0.035849772 0.004732996
-0.020141704 0.006788435 0.024463464 0.0014202539 0.038003232 -0.0035589219 -0.022907829 -0.01625388
0.0075430423 0.007819468 -0.0029088226 0.038042046 -0.030536056 -0.033015665 0.010975018 -0.042470798
0.024883877 -0.01704606 0.005200468 -0.043310378 0.0024795886 0.001212111 -0.032140434 0.042617626

bias f4 [29]
00000000: 324b 2c3d a2da 62bd 9d99 0a3d cc58 a73d
00000010: 713c 3c3d 5301 123d dd3d 6e3d 2f42 463e
00000020: ca2b a83d e6b5 a0bd dcf6 893d 0ef1 babe
00000030: 443e c2be 4fd4 07be cabc 28be ee16 3bbe
00000040: 45c5 80bc 579f 1a3e 7b34 31be daa5 6c3e
00000050: faf8 0cbe 276c 163d 8e8f 073e d357 223e
00000060: 5256 05bd ed8e b43b 4c29 7dbc fd1a 7e3e
00000070: 99b8 27be
0.0420639 -0.055384286 0.033837903 0.081712335 0.04595608 0.035645794 0.058164466 0.19361185
0.08211477 -0.078471944 0.06736538 -0.36512035 -0.3793813 -0.13264583 -0.16478267 -0.18270466
-0.015719065 0.15099846 -0.17305176 0.23110142 -0.13766852 0.036724236 0.13238356 0.15853815
-0.032553025 0.005510202 -0.0154517405 0.24814983 -0.16379012
