checkpoints_backup/230906/checkpoint_90.31.pth (torch, 64415 bytes, 6 tensors)

weight f4 [4, 1, 3, 3]
000000 3f e7 56 be ec 26 49 3e 07 69 53 be c9 a5 88 3e
       -0.20986651 0.19643754 -0.20645534 0.26688984
000010 05 2f 6d be ea 63 99 3d d8 a3 20 3e 65 b4 60 3d
       -0.23162468 0.0748976 0.15687501 0.054859538
000020 2c 75 88 be 43 7e 8e be 15 6d 2b 3f 7f de 26 3f
       -0.26651895 -0.27830705 0.6696332 0.6518325
000030 07 8d 2a bf 58 b2 d2 be 1f 26 7a 3d b3 fd 4a 3c
       -0.6662144 -0.4115169 0.06107151 0.012389588
000040 ef 8a 31 bf 2d a6 91 be 75 bc 9f bd f9 38 dd be
       -0.6935262 -0.28447095 -0.07799617 -0.4320753
000050 28 e2 9c 3e b5 35 e6 3f c6 0d eb 3f 93 50 0a 40
       0.30641294 1.798514 1.8363578 2.1611679
000060 06 2e f8 3f 90 9f 0c 40 c1 2e 25 40 17 b4 a9 3f
       1.9389045 2.197239 2.5809786 1.3258084
000070 0b e6 94 3f 26 fc dd 3f 57 fb 62 3f be e3 94 3f
       1.1632704 1.7342575 0.88664764 1.1632001
000080 77 99 b9 3f cb 90 46 bf 64 75 39 bf b6 33 ee be
       1.4499959 -0.77564687 -0.7244475 -0.46523827

bias f4 [4]
000000 b0 b4 a3 be f3 1f 5b 3f d7 91 b9 bf 81 1b 89 bf
       -0.3197379 0.85595626 -1.4497632 -1.0711519

weight f4 [8, 4, 3, 3]
000000 0c 98 98 3d e7 26 e7 bd e2 c9 d1 bd 01 cf 70 bd
       0.07450876 -0.11286717 -0.10243584 -0.058791164
000010 ce 27 18 3d 5a 6e 91 bd 91 79 6d bd 8e ac ff bd
       0.037147336 -0.07101126 -0.057977263 -0.12484084
000020 8d 45 81 3d 9d 6e 86 3f cf b2 07 3f a2 c2 b6 bf
       0.06312094 1.0502506 0.53007215 -1.4278147
000030 83 f4 0b 3f bf 4f a7 3f 1c 1e a4 3f 14 72 84 bf
       0.5466997 1.3071212 1.2821689 -1.0347314
000040 d1 a8 6f be 48 f0 df 3f 0d de 86 be 9a b7 7d 3e
       -0.23404242 1.7495203 -0.26341286 0.2477707
000050 fa e9 17 3f 8c 5b 16 bf 9b 54 6c bf 96 f2 df bc
       0.59341395 -0.5873344 -0.923166 -0.027337354
000060 3f 06 39 3f 86 08 f8 3d 55 8a 9f be 6f aa 7c 3e
       0.72275156 0.12111001 -0.31160226 0.2467439
000070 15 db 2b 3f d9 ba b8 3e eb b5 34 bf 52 58 45 be
       0.6713117 0.36080053 -0.70590085 -0.19271973
000080 84 ca 6e 3f 84 ec ef 3e cd 0b 54 bf af db d8 be
       0.93277764 0.46860135 -0.82830507 -0.42355105
000090 b4 ed de bd 6e 89 0e 3e 00 98 18 3d ac a9 98 3d
       -0.10885182 0.13919613 0.037254333 0.07454237
0000a0 d8 d1 d3 bd 29 30 00 3d 41 f4 e4 3d e6 de a8 bc
       -0.10342759 0.03129593 0.111794 -0.020614099
0000b0 ed 84 4a 3d 85 cb 8e bd a0 df cc 3e 56 90 cf 3d
       0.049443174 -0.06972412 0.40014362 0.10134952
0000c0 05 40 07 3f 77 0e ea 3d 5c 84 00 be c2 48 9b 3f
       0.5283206 0.1142854 -0.12550491 1.2131579
0000d0 48 73 f5 3e 8d 4b fe 3e 62 30 51 3f aa c7 51 3f
       0.47939515 0.49667016 0.8171445 0.8194529
0000e0 0b 68 06 be df 86 e6 be 25 de 44 bf 36 1f 6f bf
       -0.13125627 -0.45024773 -0.76901466 -0.93407
0000f0 1f 61 20 bf e0 3d 1b be f2 8b 01 3f 8e e5 13 3f
       -0.62648195 -0.15160322 0.50604165 0.5777215
000100 2e 87 8b 3f c7 28 0f 3f 2c 4e 07 3f 47 1a c7 3e
       1.0900629 0.55921596 0.52853656 0.38887236
000110 ee 42 66 bf a1 f4 d3 be 1e 8a 9c bf 87 83 f6 be
       -0.89945877 -0.41397575 -1.222965 -0.48147222
000120 51 da 58 3d a3 fa 0a bd 01 d7 4b bd 40 66 f0 3c
       0.052942578 -0.033930432 -0.04976559 0.029345632
000130 8c 05 92 bc e1 9a 29 bd d2 99 a6 bc cc f5 1d 3e
       -0.01782491 -0.04140747 -0.02033702 0.15425795
000140 05 c5 6e bd 50 ed 49 bd 11 bd 9d bf c2 a6 9d bf
       -0.05829336 -0.049298584 -1.2323323 -1.2316515
000150 10 a8 ca be b9 73 32 bf fd f4 9c bf d8 ee 97 3c
       -0.39581347 -0.6970783 -1.2262264 0.018546507
000160 2e c8 e2 be 4d 1d b1 be b4 59 fa 3e 6d aa 03 3f
       -0.4429335 -0.34592667 0.48896563 0.51431924
000170 07 37 1d 3f a0 6b d8 be ab 78 f5 bc 66 98 ab 3e
       0.6141209 -0.4226961 -0.029964766 0.33514708
000180 4c d7 7e be 80 81 05 be 9f 0e 0e 3e 66 4e 1c bf
       -0.24886817 -0.13037682 0.13872765 -0.61057127
000190 9d 1f 74 bf 7e f8 94 bf 20 42 d2 bd 18 ff db 3e
       -0.9536074 -1.1638334 -0.102665186 0.4296806
0001a0 83 83 67 3f 4c 29 b2 bd 34 c6 eb bc 36 83 ae 3c
       0.90435046 -0.08699283 -0.028781034 0.0213028
0001b0 20 2e 0a 3e 7e 35 ce bd 18 ff fd 3d 80 bd b6 bb
       0.13494158 -0.100687966 0.12402171 -0.0055767894
0001c0 93 fd fe 3d 68 b9 cf bd 8b a8 5d bd 7b c4 ba bd
       0.12450709 -0.10142785 -0.054115813 -0.09119507
0001d0 f6 39 d0 bd 45 60 8a bd fb f4 fb bd 97 7e 2e be
       -0.10167305 -0.06756643 -0.12302586 -0.17040478
0001e0 15 5d 61 bd bc e0 db bd d3 fb c5 3d 10 95 96 bd
       -0.05502041 -0.10736224 0.09667172 -0.0735265
0001f0 96 ee 10 3c 4e 69 22 be 3e 7d e4 bd 7e 5e d4 bd
       0.008845946 -0.15860483 -0.111567006 -0.103695855
000200 c3 1c d4 bd f3 6b ba bd 08 1e e8 3b 67 2d 8b 3d
       -0.10357048 -0.09102621 0.007083658 0.06795769
000210 0a 1c 1c be 37 a7 19 be a8 4b 88 bd f3 de f8 bd
       -0.15245071 -0.15005194 -0.06655055 -0.12151899
000220 76 4f 98 bd 54 93 aa bd 56 d3 02 bc 3a a5 27 be
       -0.07437031 -0.08328882 -0.007984957 -0.16371623
000230 d2 71 dc 3b 5e d2 a0 bd 13 0f 03 be dc db 0b be
       0.0067274356 -0.07852624 -0.12798719 -0.13658088
000240 b2 a7 1c 3e 40 78 27 be 8b 46 d5 3c 00 00 10 37
       0.15298346 -0.16354465 0.026034614 8.583069e-06
000250 60 e4 96 bd 58 d2 c5 bd 70 bc 27 3e 76 5a 6d 3d
       -0.07367778 -0.096592605 0.16380477 0.0579476
000260 96 c6 53 3c 8e cd 08 bc 10 47 d0 bd 40 97 13 be
       0.012925765 -0.008349789 -0.10169804 -0.14413166
000270 47 59 22 be 7d 8d 29 be 02 fc 80 bc 4f 18 39 3d
       -0.15854369 -0.1655788 -0.015745167 0.045189198
000280 5b 60 cb bc 4c 1d e7 bd f3 da 53 3d 6f 96 95 3c
       -0.02482622 -0.11284885 0.051722478 0.018260209
000290 99 07 a5 bd 70 90 6d bc 50 3c 22 be d0 6c 8f bd
       -0.0805809 -0.014499769 -0.1584332 -0.07003176
0002a0 d4 5a 0f be 54 5c 77 bd 95 4b ae 3d 5a 47 e3 bd
       -0.13999492 -0.060390785 0.0851051 -0.110975936
0002b0 0a 2c 43 be d9 d7 fa 3c 36 55 1b bd b7 4c b6 3d
       -0.19059768 0.030620502 -0.03792306 0.08901351
0002c0 1c 29 f0 bc fc df fe bd 9e 50 32 bd f6 97 45 be
       -0.029316477 -0.124450654 -0.043533914 -0.1929625
0002d0 13 b9 d6 bd 6e 9c db bd 2f 95 34 bd d5 3a f1 bd
       -0.10484519 -0.10723196 -0.044087585 -0.117787994
0002e0 b7 58 0a 3e 71 90 1a be e2 00 c8 bc 40 3f 4c 3d
       0.13510405 -0.15094163 -0.024414483 0.049865007
0002f0 5d 91 79 3d da 37 eb 3e 71 b4 30 3c c9 6d c1 be
       0.060929645 0.4594105 0.010785208 -0.37779072
000300 20 36 2a 3f 9c da a3 bd fb b2 1a bf a6 4a 60 3f
       0.6648884 -0.08000681 -0.6042935 0.87613904
000310 56 ae ad 3e 8c 18 b9 3d 02 da 46 be cd 18 8e be
       0.3392207 0.09037885 -0.19419101 -0.27753296
000320 1c fa f9 3e ae d0 1b bf b6 41 89 3c e2 ef e7 3e
       0.4882363 -0.60865295 0.016754966 0.45300204
000330 b9 70 9b be ee fe a3 3e 22 5d ed 3e 66 0e 0a bf
       -0.30359438 0.32030433 0.46360117 -0.5392822
000340 4e f6 2f bf 99 0a 0f 3e 40 a0 1e bf 29 a3 8e be
       -0.68735206 0.13968886 -0.6196327 -0.27858856
000350 a3 e8 c7 3e 62 cf e2 be be 4c 9c 3d e2 ed 39 3f
       0.39044675 -0.44298846 0.07631825 0.72628605
000360 e8 bd af 3d fc c7 16 3e 0d 5c f0 3d f6 6c ec bd
       0.085811436 0.14724725 0.11736307 -0.1154422
000370 86 e2 14 3d d3 fa 44 3d d2 d5 00 be c1 cf a4 3d
       0.036348842 0.048090767 -0.12581566 0.080474384
000380 00 f4 24 bd 60 f7 e7 bf e2 24 42 c0 dd 41 63 c0
       -0.04027176 -1.8122368 -3.0335011 -3.550895
000390 2f 39 8c be 68 e2 78 bf 07 68 5a bf 3c 8f ee bf
       -0.27387378 -0.9722047 -0.85314983 -1.8637462
0003a0 46 d1 fd bf f5 64 d1 bf 1c 8c 7b be 3d f0 fe 3d
       -1.982949 -1.6358935 -0.24565166 0.124481656
0003b0 9a aa b4 3e 46 ba d3 bd 6f dc 5f 3e a1 42 c2 3d
       0.3528641 -0.10338263 0.21861432 0.09485365
0003c0 e9 67 24 3e 4d 7f b7 3d 04 af 2f be 4e da 92 3d
       0.16055264 0.089598276 -0.17156607 0.071705446
0003d0 f2 87 dd 3c 36 44 59 bb ab 1d f4 3b 0c f7 31 3f
       0.027042363 -0.003315223 0.0074498258 0.6951759
0003e0 44 bc 52 3f d6 72 f4 3d 50 a7 03 be 25 dd 96 bd
       0.8231852 0.11935966 -0.12856793 -0.07366399
0003f0 81 ee 80 bd 76 87 82 bd 07 29 05 bd fe d8 01 be
       -0.06295491 -0.063734934 -0.03250983 -0.12680432

bias f4 [8]
000000 85 b4 3c bf 77 70 e4 3e 0e 01 2a bf 2b 69 05 be
       -0.7371295 0.44617054 -0.6640786 -0.130284
000010 d7 e1 2b be 09 38 e4 bd 22 4a 26 bf c6 06 8c 3f
       -0.1678537 -0.111435 -0.6495687 1.0939567

weight f4 [29, 512]
000000 b5 3d f0 be e6 75 81 bf 76 e8 56 be 2f 6b 22 3e
       -0.4692208 -1.0114105 -0.20987114 0.158612
000010 bb 9f 8c 3e f7 69 41 3e a3 f2 c8 bc b9 10 a4 be
       0.27465615 0.18888079 -0.02452976 -0.32044008
000020 28 14 f9 be 91 a5 38 bf 0f d0 10 bf 0a 0a 45 bf
       -0.4864819 -0.72127634 -0.5656747 -0.76968443
000030 e0 92 94 bd 28 cb db bd 65 73 47 be 8c dd 11 bf
       -0.07254577 -0.10732108 -0.19477613 -0.5697868
000040 15 0c 5b bd ac b9 18 bd 52 7c da be 41 f6 08 bf
       -0.05347832 -0.037286445 -0.42672974 -0.53500754
000050 a4 b1 22 bf 80 7b 2d bf 69 52 26 bf bf cb 93 bf
       -0.6355231 -0.6776657 -0.649695 -1.1546553
000060 54 d0 a1 be da 30 e1 be 32 74 b6 bd 9a fe 65 be
       -0.31604254 -0.43982583 -0.08908881 -0.22460404
000070 e3 4c 14 bf 97 eb 27 bf 53 cf 1f bf 16 fb 14 bf
       -0.5792982 -0.65593857 -0.62425727 -0.58195627
000080 3d 42 7a bd ad be 7f 3d 96 e9 88 bd 55 e0 9f bd
       -0.061098326 0.062437702 -0.06685178 -0.0780646
000090 3a bb ac be b6 ac a4 be 2c b0 0d bf 8b b8 9c be
       -0.33736593 -0.32163018 -0.5534694 -0.30609545
0000a0 e1 07 86 3d 54 b2 86 be 39 3a d7 3d d8 88 23 be
       0.065444715 -0.2630793 0.10509152 -0.1597017
0000b0 a6 28 a7 be 1d 71 e5 be d6 63 7c bf 59 95 d3 be
       -0.326482 -0.4481286 -0.9858984 -0.4132488
0000c0 63 53 73 3e 29 f4 ce bd 90 82 94 be 5e 6d a4 3c
       0.23762278 -0.101051636 -0.2900586 0.020071682
0000d0 06 c4 e5 bd 11 69 6c bb 97 3f dc be b9 da 97 be
       -0.11219029 -0.0036073367 -0.43017265 -0.2965906
0000e0 fc d1 c6 bc 45 2a 8d 3e 28 2c 03 3e 75 af 68 3e
       -0.02427005 0.27571312 0.12809813 0.22723182
0000f0 78 c2 32 3e 59 a7 87 3e 06 59 24 be d5 56 44 bd
       0.17456996 0.26494864 -0.16049585 -0.047934372
000100 b7 16 74 bf 94 40 4c bf b4 2e ee 3d c9 ee a6 3e
       -0.9534716 -0.7978604 0.11630002 0.32604054
000110 af 9c bb 3e 9f d8 cf 3e 51 f8 bc 3e 47 76 2a 3f
       0.36642978 0.40594956 0.369082 0.66586727
000120 55 71 54 bf f3 f0 cc 3e 90 a9 0b 3f d1 62 bc 3e
       -0.8298543 0.4002758 0.54555607 0.3679414
000130 8d a6 9e 3e 70 46 2e 3e 1f 38 2e 3e 58 27 96 bc
       0.30986443 0.17019057 0.17013596 -0.018329307
000140 85 5a 23 3f 8a 5b 26 3f d6 53 78 3e 73 71 f2 3e
       0.63809997 0.6498343 0.24250731 0.4735218
000150 ad 45 0c 3f ae fd 03 3f 99 e8 c9 3e f1 78 1f 3c
       0.54793817 0.5155896 0.3943527 0.0097334245
000160 85 8a ae bc 0a bf f6 3d 21 72 64 3e 1a d9 6d 3e
       -0.021306286 0.120481566 0.22309162 0.23227349
000170 42 91 4c 3e 3f ad 19 3e 44 f6 1f 3f 8a aa ff bd
       0.19977286 0.15007494 0.62485147 -0.124836996
000180 70 85 64 3e bd 67 6a 3e c8 d1 bf 3d b9 40 92 bc
       0.22316527 0.22891136 0.093661845 -0.017853128
000190 08 6a 5b 3e 38 05 b9 bc ae 5c 7b 3e 6b 68 62 be
       0.21427166 -0.022585496 0.24547073 -0.22110145
0001a0 10 7e f3 be bc d6 fb be 30 d7 57 3d 65 61 20 be
       -0.47557116 -0.49187267 0.052695453 -0.15662153
0001b0 9c 6e 4a 3d c9 d8 d8 3d 52 0c 0c 3e 7b 41 72 3d
       0.04942189 0.105882235 0.13676575 0.05914448
0001c0 30 be c1 be 59 81 b4 be a2 53 1b 3e 58 12 fe 3d
       -0.37840414 -0.35254934 0.15168622 0.124058425
0001d0 a5 99 4d be 02 eb d8 bd 9a b2 a7 be d5 ee c8 be
       -0.20078142 -0.10591699 -0.3275345 -0.39244714
0001e0 a1 71 53 bd 83 70 9b bd c0 69 2b 3e dd 83 0d 3e
       -0.051622037 -0.07589819 0.16739559 0.13819833
0001f0 6b c0 a0 bd 03 90 de 3c 29 66 ec bd c2 16 90 3d
       -0.07849201 0.02716828 -0.11542923 0.07035591
000200 86 65 10 3e ef 2a 00 3f 60 75 bc 3e 56 8a 26 bf
       0.14101228 0.5006551 0.368083 -0.65054834
000210 df 62 ce be 4b 88 7b c0 c1 5e d5 bf 11 c4 cc bf
       -0.40309808 -3.9301937 -1.6669542 -1.5997335
000220 15 32 5c be a5 97 84 be 73 6d 36 bd f8 90 78 3e
       -0.2150348 -0.25896946 -0.044537973 0.24274051
000230 13 aa 11 3d 61 8f d9 be b6 e4 95 be 6c 8d b2 3d
       0.035562586 -0.42492202 -0.29276055 0.0871838
000240 bf 5f 79 3d 7e aa c0 3d 54 ab 8c be 6f d4 02 bf
       0.060882326 0.09407519 -0.27474463 -0.511054
000250 4e d4 99 bd 97 b1 93 bc 0b 37 b3 3d 80 8c dd be
       -0.07511197 -0.018029017 0.08750733 -0.43271255
000260 9e 41 3d 3e a2 2c e3 bc 2d 7e 10 3d 73 5d 21 3e
       0.18482062 -0.027731244 0.03527658 0.15758304
000270 c6 f3 a6 be 7f 73 95 be 60 06 aa 3d 49 69 94 3e
       -0.3260786 -0.2918968 0.08301997 0.28986576
000280 3a d3 9b 3e b7 9a 44 3e da 5b 87 3e 38 61 9b 3e
       0.3043459 0.19199644 0.26437265 0.3034761
000290 5b e3 5a 3e 8a e4 39 3e a6 77 5f 3d be ca 62 be
       0.21375792 0.18153587 0.054557465 -0.22147653
0002a0 d6 2e 8e bd e7 af cf bd 75 3b 15 3e cf df f3 bd
       -0.06942527 -0.101409726 0.14573462 -0.119079225
0002b0 d4 73 1a bd 16 13 3b be 94 98 98 3d a3 85 66 3c
       -0.03770812 -0.18269 0.07450977 0.014069947
0002c0 ec e0 9c 3c 07 cd 67 bd ec 91 7f 3d c6 2a 1a 3d
       0.01915022 -0.056592014 0.06239502 0.03763845
0002d0 9a ed 9b 3c 7d 09 8a 3c 13 28 25 bd 35 d3 26 3b
       0.019034196 0.016850227 -0.04032142 0.002545548
0002e0 bc 09 79 bd 49 a2 4d bd 52 18 82 3c b0 fc 16 be
       -0.0608003 -0.050203595 0.015880737 -0.1474483
0002f0 0b 03 75 be 83 6c 1e bd ce b8 4a 3d e8 35 53 3e
       -0.23926942 -0.038677704 0.04949265 0.20626032
000300 ee 0d 32 bd a7 15 94 bc df a8 3c bc 99 43 2d 3d
       -0.043470316 -0.01807673 -0.011514871 0.042300794
000310 72 19 3f 3c 5f 78 2a bd a8 d1 b5 bb 91 07 22 3d
       0.0116637815 -0.0416187 -0.0055486746 0.039557997
000320 08 79 30 bc f3 b1 df bc 87 54 96 3c 08 9d 2a bd
       -0.010771044 -0.027306532 0.018350853 -0.041653663
000330 f5 7e 23 3d 18 bd c8 3c 22 84 69 bb 96 a5 1a bd
       0.039915998 0.02450423 -0.0035631736 -0.03775557
000340 49 df bc bc 50 df e3 3c 75 51 a9 3c 3e e3 36 bc
       -0.02305569 0.027816445 0.020668725 -0.011162577
000350 85 3e 7b 3b 1d dc 86 bc f6 13 30 bd c7 4f e4 3c
       0.0038336825 -0.01646238 -0.042987786 0.027870072
000360 5c 31 25 3c 1b b7 ab bc a0 ff 09 bd 44 5a 31 3b
       0.010082569 -0.020961335 -0.03369105 0.002706186
000370 ea 89 a7 bb e6 fc b3 bc 5a 74 13 3d 47 4b 04 bd
       -0.005112876 -0.021971177 0.035999633 -0.032298353
000380 bd f0 3f bc fd fd 0a bd 9b 96 2a bc c8 90 2c bc
       -0.011715111 -0.03393363 -0.010411884 -0.010532565
000390 ae 76 17 bd 61 2a d7 bc 36 d7 12 3d 40 17 9b 3b
       -0.036978416 -0.026265325 0.035849772 0.004732996
0003a0 37 00 a5 bc 85 71 de 3b 9a 67 c8 3c d0 27 ba 3a
       -0.020141704 0.006788435 0.024463464 0.0014202539
0003b0 47 a9 1b 3d cd 3c 69 bb 33 a9 bb bc db 26 85 bc
       0.038003232 -0.0035589219 -0.022907829 -0.01625388
0003c0 a0 2b f7 3b 3a 1d 00 3c f2 a1 3e bb fa d1 1b 3d
       0.0075430423 0.007819468 -0.0029088226 0.038042046
0003d0 c0 26 fa bc 6f 3b 07 bd 90 d0 33 3c dc f5 2d bd
       -0.030536056 -0.033015665 0.010975018 -0.042470798
0003e0 46 d9 cb 3c 2e a4 8b bc b0 68 aa 3b 39 66 31 bd
       0.024883877 -0.01704606 0.005200468 -0.043310378
0003f0 98 80 22 3b b2 df 9e 3a b0 a5 03 bd d2 8f 2e 3d
       0.0024795886 0.001212111 -0.032140434 0.042617626

bias f4 [29]
000000 5b 3d 11 3d 8c cb 25 bd 9d fe 87 3c 0a ff 1b 3d
       0.035458904 -0.04047732 0.016600901 0.03808502
000010 13 62 e2 bb 17 e0 0d bb 23 94 8d 3d c3 35 37 3e
       -0.006908664 -0.002164846 0.069130205 0.17891602
000020 21 89 89 3d 16 9c 9f bd 89 8e 46 3d 5b ad 95 be
       0.067156084 -0.07793443 0.048475776 -0.29233822
000030 af c0 96 be 58 ba dc bd a8 da e0 bd 18 7a 1d be
       -0.2944388 -0.1077773 -0.10979205 -0.15378606
000040 af 6a 14 3a 0d fa a4 3d 42 2a bc bd cc e7 2d 3e
       0.0005661649 0.08055506 -0.091877475 0.16982955
000050 ed 63 af bd 0e 40 a8 3c 97 c4 96 3d d9 f6 06 3e
       -0.08563981 0.020538356 0.07361715 0.13180102
000060 d0 c7 90 bc 2f 60 8a bb 65 07 1f 3c a5 0d 57 3e
       -0.017673403 -0.0042228918 0.009706353 0.21001299
000070 fe cd 07 be
       -0.13262174
