checkpoints_backup/230906/checkpoint_94.64.pth (torch, 64415 bytes, 6 tensors)

weight f4 [4, 1, 3, 3]
000000 3f e7 56 be ec 26 49 3e 07 69 53 be c9 a5 88 3e
       -0.20986651 0.19643754 -0.20645534 0.26688984
000010 05 2f 6d be ea 63 99 3d d8 a3 20 3e 65 b4 60 3d
       -0.23162468 0.0748976 0.15687501 0.054859538
000020 2c 75 88 be b4 61 8c be 3e 01 40 3f 28 c4 50 3f
       -0.26651895 -0.27418292 0.75001895 0.8154931
000030 93 ca 4f bf e8 6b 0d bf bd 14 3c 3d df 19 41 3d
       -0.8116848 -0.55242777 0.045918215 0.047143813
000040 e4 18 5a bf ee 61 cb be 33 c2 1d bd 89 e1 21 bf
       -0.8519423 -0.39723152 -0.03851528 -0.63234764
000050 20 f3 77 3d 01 6c dc 3f bb 98 da 3f 85 6e f4 3f
       0.060534596 1.722046 1.707786 1.9096228
000060 92 79 0e 40 08 28 1e 40 3d e1 28 40 e4 db b3 3f
       2.22617 2.4711933 2.6387475 1.405148
000070 af 96 ad 3f db 8f 00 40 47 b8 87 3f 3c cf b4 3f
       1.356161 2.0087802 1.0603112 1.4125743
000080 e4 52 d6 3f 2e 4c 62 bf 66 cf 6c bf 16 b4 21 bf
       1.6744046 -0.8839749 -0.92503965 -0.63165414

bias f4 [4]
000000 b0 b4 a3 be 2c 41 8a 3f 99 04 bd bf ef e9 98 bf
       -0.3197379 1.0801139 -1.4767028 -1.1946391

weight f4 [8, 4, 3, 3]
000000 0c 98 98 3d e7 26 e7 bd e2 c9 d1 bd 01 cf 70 bd
       0.07450876 -0.11286717 -0.10243584 -0.058791164
000010 ce 27 18 3d 5a 6e 91 bd 91 79 6d bd 8e ac ff bd
       0.037147336 -0.07101126 -0.057977263 -0.12484084
000020 8d 45 81 3d 58 65 ab 3f 3a 73 fe 3e af 1f e0 bf
       0.06312094 1.3390303 0.49697286 -1.7509669
000030 31 d7 3c 3f 63 cd b7 3f 14 84 b3 3f 42 78 ba bf
       0.73765856 1.4359554 1.4024682 -1.456795
000040 06 db 54 bf 5d 39 0b 40 5d 63 c6 be 38 5c d3 3e
       -0.83146703 2.1753762 -0.38747683 0.41281295
000050 b8 26 27 3f 1b 9c 17 bf 6c 21 91 bf 40 a5 10 be
       0.65293455 -0.59222573 -1.1338325 -0.14125538
000060 41 4f 28 3f e4 55 ac 3e 40 c0 ac be 3d 8f 50 3e
       0.6574593 0.3365928 -0.33740425 0.20367141
000070 23 56 43 3f b2 bd 83 3e f4 8b 4e bf 52 75 41 be
       0.7630331 0.25730664 -0.806823 -0.1889241
000080 37 ea 80 3f a2 3b 23 3f 3f d5 75 bf a2 5f ca be
       1.0071477 0.6376287 -0.9602851 -0.39526087
000090 b4 ed de bd 6e 89 0e 3e 00 98 18 3d ac a9 98 3d
       -0.10885182 0.13919613 0.037254333 0.07454237
0000a0 d8 d1 d3 bd 29 30 00 3d 41 f4 e4 3d e6 de a8 bc
       -0.10342759 0.03129593 0.111794 -0.020614099
0000b0 ed 84 4a 3d 11 d7 3f be e9 3d f1 3e 1e 01 1d 3d
       0.049443174 -0.18734385 0.47117546 0.038331144
0000c0 4c a5 c9 3e ef 6c 6f bd 65 c5 a5 be af 18 b6 3f
       0.39383924 -0.058453497 -0.32377163 1.4226283
0000d0 c0 d4 9b 3e 6a 37 ac 3e 91 67 6c 3f 35 a9 63 3f
       0.30435753 0.33636028 0.9234553 0.88930064
0000e0 29 0b 71 be cb 0b 0d bf aa 2a 83 bf 0b 57 88 bf
       -0.23539414 -0.5509612 -1.0247395 -1.0651563
0000f0 85 6f 3b bf 30 6d 5f 3d 45 58 1a 3f 0e 38 f8 3e
       -0.7321704 0.05454749 0.6029094 0.48480266
000100 61 11 af 3f 31 35 30 3f 7b 23 10 3f 88 1e 46 3e
       1.3677179 0.68831164 0.5630414 0.19347584
000110 00 cd 9b bf f4 e7 a5 be 19 62 b1 bf 8e f0 2d be
       -1.2171936 -0.3240353 -1.3858062 -0.16986296
000120 51 da 58 3d a3 fa 0a bd 01 d7 4b bd 40 66 f0 3c
       0.052942578 -0.033930432 -0.04976559 0.029345632
000130 8c 05 92 bc e1 9a 29 bd d2 99 a6 bc cc f5 1d 3e
       -0.01782491 -0.04140747 -0.02033702 0.15425795
000140 05 c5 6e bd 2a 1b 87 bd 4f e5 a2 bf ca 7b a3 bf
       -0.05829336 -0.06596978 -1.272623 -1.2772152
000150 49 dc f2 be d0 0b ea be 0e b9 83 bf e6 5d 28 be
       -0.4743369 -0.45712137 -1.0290849 -0.1644207
000160 37 07 e1 be a8 e6 28 3e 7f 52 3d 3f c6 7f 5f 3f
       -0.43950817 0.16494238 0.73954004 0.8730434
000170 e4 6b 4a 3f 95 a2 16 bf fa 09 3c be ec 57 a8 3e
       0.7907088 -0.5884183 -0.18363181 0.3287958
000180 31 4a b3 be 2e 7e 03 be ed fd 2d 3e 79 8d 7d bf
       -0.3501754 -0.12841102 0.16991396 -0.99043995
000190 12 d3 9d bf 4f 37 e5 bf 4d 9e 9a be b6 56 0b 3f
       -1.2330039 -1.7907504 -0.301989 0.54429185
0001a0 1f db 97 3f de 09 05 3d 5d 61 55 3d 5b 98 c0 3d
       1.1863745 0.032480113 0.052094806 0.094040595
0001b0 20 2e 0a 3e 7e 35 ce bd 18 ff fd 3d 80 bd b6 bb
       0.13494158 -0.100687966 0.12402171 -0.0055767894
0001c0 93 fd fe 3d 68 b9 cf bd 8b a8 5d bd 7b c4 ba bd
       0.12450709 -0.10142785 -0.054115813 -0.09119507
0001d0 f6 39 d0 bd 45 60 8a bd fb f4 fb bd 97 7e 2e be
       -0.10167305 -0.06756643 -0.12302586 -0.17040478
0001e0 15 5d 61 bd bc e0 db bd d3 fb c5 3d 10 95 96 bd
       -0.05502041 -0.10736224 0.09667172 -0.0735265
0001f0 96 ee 10 3c 4e 69 22 be 3e 7d e4 bd 7e 5e d4 bd
       0.008845946 -0.15860483 -0.111567006 -0.103695855
000200 c3 1c d4 bd f3 6b ba bd 08 1e e8 3b 67 2d 8b 3d
       -0.10357048 -0.09102621 0.007083658 0.06795769
000210 0a 1c 1c be 37 a7 19 be a8 4b 88 bd f3 de f8 bd
       -0.15245071 -0.15005194 -0.06655055 -0.12151899
000220 76 4f 98 bd 54 93 aa bd 56 d3 02 bc 3a a5 27 be
       -0.07437031 -0.08328882 -0.007984957 -0.16371623
000230 d2 71 dc 3b 5e d2 a0 bd 13 0f 03 be dc db 0b be
       0.0067274356 -0.07852624 -0.12798719 -0.13658088
000240 b2 a7 1c 3e 40 78 27 be 8b 46 d5 3c 00 00 10 37
       0.15298346 -0.16354465 0.026034614 8.583069e-06
000250 60 e4 96 bd 58 d2 c5 bd 70 bc 27 3e 76 5a 6d 3d
       -0.07367778 -0.096592605 0.16380477 0.0579476
000260 96 c6 53 3c 8e cd 08 bc 10 47 d0 bd 40 97 13 be
       0.012925765 -0.008349789 -0.10169804 -0.14413166
000270 47 59 22 be 7d 8d 29 be 02 fc 80 bc 4f 18 39 3d
       -0.15854369 -0.1655788 -0.015745167 0.045189198
000280 5b 60 cb bc 4c 1d e7 bd f3 da 53 3d 6f 96 95 3c
       -0.02482622 -0.11284885 0.051722478 0.018260209
000290 99 07 a5 bd 70 90 6d bc 50 3c 22 be d0 6c 8f bd
       -0.0805809 -0.014499769 -0.1584332 -0.07003176
0002a0 d4 5a 0f be 54 5c 77 bd 95 4b ae 3d 5a 47 e3 bd
       -0.13999492 -0.060390785 0.0851051 -0.110975936
0002b0 0a 2c 43 be d9 d7 fa 3c 36 55 1b bd b7 4c b6 3d
       -0.19059768 0.030620502 -0.03792306 0.08901351
0002c0 1c 29 f0 bc fc df fe bd 9e 50 32 bd f6 97 45 be
       -0.029316477 -0.124450654 -0.043533914 -0.1929625
0002d0 13 b9 d6 bd 6e 9c db bd 2f 95 34 bd d5 3a f1 bd
       -0.10484519 -0.10723196 -0.044087585 -0.117787994
0002e0 b7 58 0a 3e 71 90 1a be e2 00 c8 bc 40 3f 4c 3d
       0.13510405 -0.15094163 -0.024414483 0.049865007
0002f0 5d 91 79 3d 41 88 4e 3f f2 70 19 be cf f1 08 bf
       0.060929645 0.80676657 -0.14984491 -0.5349397
000300 b9 28 67 3f 79 85 ed be c2 cd 83 bf c7 cf 8c 3f
       0.9029651 -0.46390894 -1.0297167 1.1000909
000310 1f fb 8a 3e 6f 38 74 3a dc d6 a5 bd 8a f3 a2 be
       0.27144715 0.00093162706 -0.08097622 -0.3182643
000320 c6 f8 0b 3f 6d de 29 bf a5 fd 5e bd 66 a8 ec 3e
       0.54676473 -0.6635502 -0.054441113 0.46222228
000330 7f 7a 71 be 79 4c a9 3e 53 81 e7 3e b7 03 02 bf
       -0.23581885 0.33066157 0.45215854 -0.5078692
000340 92 75 3c bf 69 64 2d 3e d9 0a 27 bf 4a a0 cd be
       -0.736169 0.16932835 -0.6525093 -0.40161353
000350 60 40 a8 3e 8d bb df be e8 5f e2 3d e8 a4 49 3f
       0.32861614 -0.43697777 0.11053449 0.7876725
000360 e8 bd af 3d fc c7 16 3e 0d 5c f0 3d f6 6c ec bd
       0.085811436 0.14724725 0.11736307 -0.1154422
000370 86 e2 14 3d d3 fa 44 3d d2 d5 00 be c1 cf a4 3d
       0.036348842 0.048090767 -0.12581566 0.080474384
000380 00 f4 24 bd fd ca 07 c0 7d 3a 73 c0 a9 1b 84 c0
       -0.04027176 -2.1217644 -3.8004448 -4.1283765
000390 57 e8 8a bd 72 cd 8f bf 86 ca 32 bf 1e 98 05 c0
       -0.067825966 -1.1234572 -0.69840276 -2.0874095
0003a0 e3 92 15 c0 63 67 b0 bf dd af a3 be fa 1a 77 3e
       -2.3370903 -1.3781551 -0.3197011 0.24131384
0003b0 50 4b da 3e 6c cb 55 be 15 b9 3f 3e f8 01 dd 3d
       0.42635584 -0.2087838 0.18722947 0.10791391
0003c0 db 8d 57 3e c4 d0 1b 3e 10 9a 0c be c2 0d 3f bd
       0.21050207 0.15216357 -0.13730645 -0.04664398
0003d0 c0 79 07 3e e3 12 3b be e6 14 b3 3c 38 d2 5e 3f
       0.13230038 -0.18268923 0.021860551 0.8703952
0003e0 17 d7 76 3f 06 80 6d 3e f8 87 e8 bd c0 68 17 be
       0.9642195 0.23193368 -0.11354059 -0.14786053
0003f0 81 ee 80 bd 76 87 82 bd 07 29 05 bd fe d8 01 be
       -0.06295491 -0.063734934 -0.03250983 -0.12680432

bias f4 [8]
000000 63 71 a3 bf 70 2f 25 3f b2 b7 67 bf 2b 69 05 be
       -1.2768978 0.6452551 -0.9051467 -0.130284
000010 d7 e1 2b be 9e ed 56 be ab 76 71 bf db db a7 3f
       -0.1678537 -0.20989081 -0.943217 1.311397

weight f4 [29, 512]
000000 7b cf 1d be bd c5 d1 bf 8f 31 71 be 62 f2 af 3e
       -0.15411179 -1.638847 -0.23554061 0.3436461
000010 e0 75 b6 3e 99 4e 9b 3e 1b 0f 4a be c2 11 15 bf
       0.35636806 0.30333403 -0.19732325 -0.5823022
000020 90 42 42 bf 7e c6 81 bf 80 ae 26 bf 84 b9 3d bf
       -0.75882816 -1.01387 -0.65110016 -0.741112
000030 8e 79 d2 bd 06 5f ae be d2 24 d6 be 94 84 a6 bf
       -0.10277091 -0.34056872 -0.41824967 -1.300921
000040 68 7d 82 be ca ae 8f bd a3 6a 17 bf bd eb 22 bf
       -0.25486302 -0.0701576 -0.5914709 -0.6364096
000050 df 9f 5d bf bc c4 74 bf 9e c8 72 bf fb 36 9e bf
       -0.8657207 -0.9561269 -0.9483737 -1.2360529
000060 2a 5c e2 be fc 5b 49 bf 5b 47 24 be f0 6b 82 be
       -0.4421094 -0.7865598 -0.16042845 -0.25472975
000070 62 38 2f bf c6 49 4d bf 85 03 43 bf 87 c3 93 bf
       -0.6844541 -0.80190694 -0.76177245 -1.1544045
000080 fe 38 23 be 97 8f f8 bd fd 6b cf bc 32 b5 43 be
       -0.1593971 -0.121367626 -0.025320048 -0.1911209
000090 d9 d2 ef be 4b 04 b9 be 25 8a 23 bf b8 4d 04 bf
       -0.46840551 -0.36136088 -0.63882667 -0.5168109
0000a0 02 5b ed 3e 28 c2 08 bf e1 95 fd 3d 30 11 bd be
       0.46358496 -0.5342126 0.12382103 -0.36927176
0000b0 82 a3 f6 be 82 29 db be bb 8c 91 bf 00 82 0d bf
       -0.48171622 -0.42805105 -1.1371073 -0.5527649
0000c0 41 dd 14 3f 88 b9 07 be 8a 5b ea bd e9 ed 2d bc
       0.58150107 -0.13254368 -0.11443241 -0.010615804
0000d0 51 f8 7f bd 04 13 c3 3c 4d c8 09 bf 4d b3 18 bf
       -0.062492672 0.023812778 -0.5382126 -0.5964859
0000e0 6b 02 9d bc c9 eb af 3e 4e 4d 4c 3e df 45 2c 3e
       -0.019166192 0.34359577 0.19951364 0.16823529
0000f0 6a c0 1f 3e 4b 63 81 3e ec 22 3f be 2e e7 3d be
       0.15600744 0.25271067 -0.18665665 -0.1854522
000100 b0 09 80 bf f5 70 a4 bf 6c 8c 07 be 63 ad 04 3f
       -1.0002956 -1.2846972 -0.1323716 0.5182707
000110 fb 4d df 3e 94 31 f3 3e 10 20 02 3f 7d a6 89 3f
       0.43614182 0.47498763 0.50830173 1.0753933
000120 dc 72 17 c0 48 fe 05 3f 89 e9 31 3f 5a 88 0e 3f
       -2.3663855 0.5234113 0.6949697 0.55676806
000130 0f 4f 93 3e 06 bf 06 3e 5e d8 f7 3d 14 6b a5 3d
       0.28771254 0.13158807 0.12101816 0.08077064
000140 9b b0 6e 3f c7 ad 2b 3f 38 00 8c 3e 12 d7 f2 3e
       0.9323823 0.6706204 0.27343917 0.4742971
000150 df 20 39 3f 86 42 3d 3f e8 7d 07 3f ed 4e 09 3e
       0.7231578 0.7392963 0.5292649 0.13409014
000160 0b 23 1d 3e fe 1d 74 3e 93 f1 a4 3e b1 93 5f 3e
       0.15345399 0.23839566 0.32215557 0.21833684
000170 7a 6b 30 3e eb 27 83 3e 7f 57 5b 3f c8 9a 94 bd
       0.17228499 0.25616392 0.85680383 -0.07256085
000180 57 36 6f 3e e7 d2 5e 3e 10 db 35 3e 28 05 69 bc
       0.23360573 0.2176014 0.17759347 -0.014222421
000190 cf db 63 3e 0e 0c 55 bd cf 02 8a 3e 83 ae 1d be
       0.22251819 -0.05201345 0.26955268 -0.15398602
0001a0 d1 8d 53 bf 1f d0 04 bf 3a a7 ea 3b 27 e0 21 be
       -0.8263827 -0.5188007 0.0071610482 -0.15808164
0001b0 33 e6 f5 3d 30 c4 2b 3e 23 ca 82 3e 29 0e a6 3d
       0.12006798 0.16774058 0.25544843 0.081081696
0001c0 4f 5e 2d bf e3 c1 80 bd 6f e2 24 3d 9b 04 2d 3d
       -0.6772203 -0.06286981 0.040255006 0.04224072
0001d0 29 3d ed be e3 cd 69 bd c8 63 dc be c2 a7 0c bf
       -0.46335724 -0.057081115 -0.43044877 -0.5494348
0001e0 49 28 ba 3c 2d 8a 5c bd 65 7c 4e 3e d2 a4 73 3e
       0.022724288 -0.053842712 0.2016464 0.23793343
0001f0 ce f1 9f 3a 6a c3 51 bc d4 d2 f4 be bb 33 d6 3d
       0.0012202801 -0.012802938 -0.478171 0.104590856
000200 a3 e3 9b 3e 76 80 84 3f 91 65 16 3f f9 b7 5b bf
       0.3044711 1.0351703 0.5874873 -0.85827595
000210 f7 71 c1 be d4 d0 80 c0 67 de 88 c0 f1 2d 18 c0
       -0.3778226 -4.0254917 -4.2771487 -2.377804
000220 50 96 f3 be 15 eb 0c bf b5 98 a5 bd f5 bd d0 3e
       -0.47575617 -0.55046207 -0.08085767 0.40769926
000230 5e f5 cf 3d 7f ef f1 be 59 70 cf be 5e d7 7c 3e
       0.10154222 -0.47253034 -0.40515402 0.24691531
000240 aa c7 8d 3d 3d 3f bb 3e 52 73 88 be a5 63 28 bf
       0.069228485 0.36571684 -0.26650482 -0.65777045
000250 1c 6b b0 bd 1f 24 15 3e c3 f7 b8 3e e9 54 88 bf
       -0.086141795 0.1456456 0.36126527 -1.0650913
000260 ef 2b b5 3e 40 2a a9 3d fe 1b 9b bd e5 e8 c0 3e
       0.3538508 0.08260012 -0.075736985 0.37677684
000270 53 dd 89 be 79 a9 ec be 67 5f 7a 3e ef 33 36 3f
       -0.2692667 -0.46223047 0.24450456 0.71172994
000280 e5 32 2c 3f 1c cc 0c 3f df 81 2d 3f 5f 6e 9c 3e
       0.6726516 0.54998946 0.6777629 0.30552956
000290 a8 6c c7 3e a7 97 ba 3c 84 b9 1a 3e 98 d5 e7 be
       0.38950086 0.022777392 0.15109831 -0.45280147
0002a0 f4 f5 09 be 94 fb a5 be 5e 4d 73 3e b5 22 b2 be
       -0.1347273 -0.324185 0.23759982 -0.34792104
0002b0 6a ef a1 bd 7e 37 e3 be 4f ae 88 3d b8 fd 96 bd
       -0.07906993 -0.44378275 0.06673872 -0.07372612
0002c0 8c c1 98 3a 73 1f aa be fc e9 0a 3e fe b4 2f 3e
       0.0011654361 -0.3322712 0.1356582 0.17158887
0002d0 4a da 21 be 7f 19 74 be e0 d2 30 be f9 32 d2 3d
       -0.15805927 -0.23837851 -0.17267942 0.102636285
0002e0 5d 65 13 be a4 b4 13 be 61 d9 04 3d 13 36 35 be
       -0.14394136 -0.14424378 0.03243387 -0.17696409
0002f0 4c ab 4f be 13 7e 21 bd 30 3f 32 3e bd ac bd 3e
       -0.20280188 -0.039426874 0.17406917 0.3704585
000300 ee 0d 32 bd a7 15 94 bc df a8 3c bc 99 43 2d 3d
       -0.043470316 -0.01807673 -0.011514871 0.042300794
000310 72 19 3f 3c 5f 78 2a bd a8 d1 b5 bb 91 07 22 3d
       0.0116637815 -0.0416187 -0.0055486746 0.039557997
000320 08 79 30 bc f3 b1 df bc 87 54 96 3c 08 9d 2a bd
       -0.010771044 -0.027306532 0.018350853 -0.041653663
000330 f5 7e 23 3d 18 bd c8 3c 22 84 69 bb 96 a5 1a bd
       0.039915998 0.02450423 -0.0035631736 -0.03775557
000340 49 df bc bc 50 df e3 3c 75 51 a9 3c 3e e3 36 bc
       -0.02305569 0.027816445 0.020668725 -0.011162577
000350 85 3e 7b 3b 1d dc 86 bc f6 13 30 bd c7 4f e4 3c
       0.0038336825 -0.01646238 -0.042987786 0.027870072
000360 5c 31 25 3c 1b b7 ab bc a0 ff 09 bd 44 5a 31 3b
       0.010082569 -0.020961335 -0.03369105 0.002706186
000370 ea 89 a7 bb e6 fc b3 bc 5a 74 13 3d 47 4b 04 bd
       -0.005112876 -0.021971177 0.035999633 -0.032298353
000380 bd f0 3f bc fd fd 0a bd 9b 96 2a bc c8 90 2c bc
       -0.011715111 -0.03393363 -0.010411884 -0.010532565
000390 ae 76 17 bd 61 2a d7 bc 36 d7 12 3d 40 17 9b 3b
       -0.036978416 -0.026265325 0.035849772 0.004732996
0003a0 37 00 a5 bc 85 71 de 3b 9a 67 c8 3c d0 27 ba 3a
       -0.020141704 0.006788435 0.024463464 0.0014202539
0003b0 47 a9 1b 3d cd 3c 69 bb 33 a9 bb bc db 26 85 bc
       0.038003232 -0.0035589219 -0.022907829 -0.01625388
0003c0 a0 2b f7 3b 3a 1d 00 3c f2 a1 3e bb fa d1 1b 3d
       0.0075430423 0.007819468 -0.0029088226 0.038042046
0003d0 c0 26 fa bc 6f 3b 07 bd 90 d0 33 3c dc f5 2d bd
       -0.030536056 -0.033015665 0.010975018 -0.042470798
0003e0 46 d9 cb 3c 2e a4 8b bc b0 68 aa 3b 39 66 31 bd
       0.024883877 -0.01704606 0.005200468 -0.043310378
0003f0 98 80 22 3b b2 df 9e 3a b0 a5 03 bd d2 8f 2e 3d
       0.0024795886 0.001212111 -0.032140434 0.042617626

bias f4 [29]
000000 eb f5 50 3d fc c7 aa bd 80 bd 28 3d 16 8d f8 3d
       0.051015776 -0.08338925 0.041196346 0.12136285
000010 db a9 ce 3d d3 8c a6 3d 2b 24 13 3d 31 22 62 3e
       0.10090991 0.08132329 0.035923164 0.22083355
000020 97 40 c3 3d c9 e8 d0 bd e5 05 c0 3d 78 96 e4 be
       0.09533804 -0.1020065 0.09376124 -0.4464605
000030 c4 bd ef be 06 30 2f be 4a b0 70 be c1 20 65 be
       -0.46824467 -0.17108163 -0.23504749 -0.22375776
000040 5e fe d4 bc 60 ec 67 3e bb 84 84 be 3a 82 9a 3e
       -0.026000198 0.22648764 -0.25882515 0.3017748
000050 5d 70 47 be 7c 30 67 3d 2a c0 5a 3e 68 60 3e 3e
       -0.19476457 0.056442723 0.21362367 0.18591464
000060 3d b4 32 bd d2 ca b1 3c ed d6 fc bc 1a 9e 92 3e
       -0.04362892 0.021703158 -0.030864203 0.28636247
000070 c2 52 51 be
       -0.20441726
