checkpoints_backup/230906/checkpoint_94.73.pth (torch, 64415 bytes, 6 tensors)

weight f4 [4, 1, 3, 3]
00000000: 3fe7 56be ec26 493e 0769 53be c9a5 883e
00000010: 052f 6dbe ea63 993d d8a3 203e 65b4 603d
00000020: 2c75 88be 3db1 8bbe 08cd 3f3f f52d 4f3f
00000030: 6066 4dbf 6264 0abf 6978 493d 9c01 323d
00000040: a2ef 56bf 58a9 c6be 6582 53bd caf0 1fbf
00000050: 3474 8f3d bf95 db3f 9211 db3f 7573 f73f
00000060: f9de 0e40 ce27 1e40 da9d 2940 aec3 b33f
00000070: 7be9 ab3f 7f6f fe3f 1231 873f ad22 b33f
00000080: 02b2 d43f ff47 60bf 9bd5 69bf 206f 1fbf
-0.20986651 0.19643754 -0.20645534 0.26688984 -0.23162468 0.0748976 0.15687501 0.054859538
-0.26651895 -0.2728366 0.7492223 0.809295 -0.80234337 -0.5405942 0.049187098 0.043458566
-0.839594 -0.38801074 -0.051638026 -0.6247679 0.07004586 1.7155074 1.7114737 1.933211
2.2323592 2.4711795 2.6502595 1.4044092 1.3430628 1.9877776 1.056185 1.3994957
1.6616824 -0.8760986 -0.9134156 -0.6227894

bias f4 [4]
00000000: b0b4 a3be 2868 883f e73b bebf 5a8e 97bf
-0.3197379 1.0656786 -1.4862031 -1.1840317

weight f4 [8, 4, 3, 3]
00000000: 0c98 983d e726 e7bd e2c9 d1bd 01cf 70bd
00000010: ce27 183d 5a6e 91bd 9179 6dbd 8eac ffbd
00000020: 8d45 813d 64a5 aa3f f000 f93e d34b debf
00000030: 9faa 353f 0b74 b63f 7125 b33f 0b01 b9bf
00000040: 782d 4cbf 3964 0940 3026 c1be 87f8 ce3e
00000050: fa7a 263f b98c 15bf 182f 8fbf 6620 0ebe
00000060: ea77 2a3f 8264 a53e 1714 a9be b588 4b3e
00000070: bf55 403f 2a03 843e 0a5c 4cbf 4d2b 40be
00000080: ec8b 803f b020 213f c600 73bf 0e23 cdbe
00000090: b4ed debd 6e89 0e3e 0098 183d aca9 983d
000000a0: d8d1 d3bd 2930 003d 41f4 e43d e6de a8bc
000000b0: ed84 4a3d 8b0a 40be 8cdb ec3e 3fe1 0c3d
000000c0: c565 c83e 42b8 78bd e75a a9be d812 b63f
000000d0: e804 a73e 4b81 be3e c9bf 6b3f d39c 623f
000000e0: a4dc 70be 1c40 0cbf 99d5 81bf 2030 89bf
000000f0: 4dbc 36bf 1f30 453d 4632 163f 87b1 fd3e
00000100: 1ead ac3f 8d25 2d3f f310 103f a37c 503e
00000110: 9227 9bbf 3f62 a4be 9b47 afbf e542 3bbe
00000120: 51da 583d a3fa 0abd 01d7 4bbd 4066 f03c
00000130: 8c05 92bc e19a 29bd d299 a6bc ccf5 1d3e
00000140: 05c5 6ebd 7c3d 9fbd 3927 a3bf a4c6 a5bf
00000150: 8ccf f9be 1244 fabe 7bbe 88bf 8b2e 1dbe
00000160: 855c e3be 95b8 063e 3c35 383f d583 593f
00000170: 96b4 483f 8dc0 13bf 7384 35be 9a30 a63e
00000180: 32e4 adbe e9f3 05be 594b 263e 20d9 79bf
00000190: 1bfa 9abf 0ff9 debf 5383 95be d641 093f
000001a0: 40ca 953f c551 fc3c b3db 413d b7fe b73d
000001b0: 202e 0a3e 7e35 cebd 18ff fd3d 80bd b6bb
000001c0: 93fd fe3d 68b9 cfbd 8ba8 5dbd 7bc4 babd
000001d0: f639 d0bd 4560 8abd fbf4 fbbd 977e 2ebe
000001e0: 155d 61bd bce0 dbbd d3fb c53d 1095 96bd
000001f0: 96ee 103c 4e69 22be 3e7d e4bd 7e5e d4bd
00000200: c31c d4bd f36b babd 081e e83b 672d 8b3d
00000210: 0a1c 1cbe 37a7 19be a84b 88bd f3de f8bd
00000220: 764f 98bd 5493 aabd 56d3 02bc 3aa5 27be
00000230: d271 dc3b 5ed2 a0bd 130f 03be dcdb 0bbe
00000240: b2a7 1c3e 4078 27be 8b46 d53c 0000 1037
00000250: 60e4 96bd 58d2 c5bd 70bc 273e 765a 6d3d
00000260: 96c6 533c 8ecd 08bc 1047 d0bd 4097 13be
00000270: 4759 22be 7d8d 29be 02fc 80bc 4f18 393d
00000280: 5b60 cbbc 4c1d e7bd f3da 533d 6f96 953c
00000290: 9907 a5bd 7090 6dbc 503c 22be d06c 8fbd
000002a0: d45a 0fbe 545c 77bd 954b ae3d 5a47 e3bd
000002b0: 0a2c 43be d9d7 fa3c 3655 1bbd b74c b63d
000002c0: 1c29 f0bc fcdf febd 9e50 32bd f697 45be
000002d0: 13b9 d6bd 6e9c dbbd 2f95 34bd d53a f1bd
000002e0: b758 0a3e 7190 1abe e200 c8bc 403f 4c3d
000002f0: 5d91 793d c1f8 473f 2ce9 0bbe 2fa8 04bf
00000300: 57ca 613f 1cca e1be 6c1e 81bf 5d06 8a3f
00000310: d9bb 8d3e 3057 1b3a 1b91 bbbd d8ae a2be
00000320: c398 0a3f 926c 2abf 3fec 49bd 84d8 ea3e
00000330: af1b 77be 55de aa3e 3c59 e63e bdf3 02bf
00000340: f749 3bbf e376 283e ced5 27bf 3fe0 cbbe
00000350: 188d a93e c062 e2be 3f80 e33d bd07 483f
00000360: e8bd af3d fcc7 163e 0d5c f03d f66c ecbd
00000370: 86e2 143d d3fa 443d d2d5 00be c1cf a43d
00000380: 00f4 24bd 51ac 07c0 6f52 70c0 b16e 83c0
00000390: ac37 c6bd dec7 8fbf bbb7 33bf d552 06c0
000003a0: a37c 15c0 2e10 b4bf 362c a0be 66eb 713e
000003b0: c1e3 d63e 7b4e 4dbe 4c97 413e 61b3 d83d
000003c0: d701 5d3e 541c 1a3e 1c8d 0bbe 66c7 29bd
000003d0: 869a fe3d 1317 2fbe 143f a13c 0634 5b3f
000003e0: fc6d 733f d3de 673e 6a4c eebd dcd4 19be
000003f0: 81ee 80bd 7687 82bd 0729 05bd fed8 01be
0.07450876 -0.11286717 -0.10243584 -0.058791164 0.037147336 -0.07101126 -0.057977263 -0.12484084
0.06312094 1.3331723 0.48633528 -1.736689 0.7096347 1.4254164 1.3995801 -1.4453443
-0.7975688 2.146742 -0.37724447 0.40423986 0.650314 -0.5841785 -1.1186247 -0.13879547
0.66589224 0.32303244 -0.3302314 0.19876368 0.7513084 0.25783664 -0.7982794 -0.18766518
1.0042701 0.629405 -0.94923055 -0.40065807 -0.10885182 0.13919613 0.037254333 0.07454237
-0.10342759 0.03129593 0.111794 -0.020614099 0.049443174 -0.18754022 0.4626125 0.0343945
0.39140144 -0.060722597 -0.33077165 1.4224501 0.3262093 0.37208018 0.92089516 0.88520545
-0.23521668 -0.54785323 -1.014331 -1.0717812 -0.71381074 0.048141595 0.5867046 0.49549505
1.3490331 0.6763542 0.5627586 0.20360045 -1.2121451 -0.32106206 -1.3693727 -0.18287237
0.052942578 -0.033930432 -0.04976559 0.029345632 -0.01782491 -0.04140747 -0.02033702 0.15425795
-0.05829336 -0.07775399 -1.2746345 -1.2951245 -0.48791158 -0.4888006 -1.068313 -0.15349786
-0.44406524 0.1315635 0.7195623 0.84966785 0.7840055 -0.57715684 -0.17726307 0.32458955
-0.33963162 -0.13081326 0.1623968 -0.9759693 -1.2107576 -1.7419757 -0.29201755 0.5361608
1.1702347 0.03080071 0.047328662 0.0898413 0.13494158 -0.100687966 0.12402171 -0.0055767894
0.12450709 -0.10142785 -0.054115813 -0.09119507 -0.10167305 -0.06756643 -0.12302586 -0.17040478
-0.05502041 -0.10736224 0.09667172 -0.0735265 0.008845946 -0.15860483 -0.111567006 -0.103695855
-0.10357048 -0.09102621 0.007083658 0.06795769 -0.15245071 -0.15005194 -0.06655055 -0.12151899
-0.07437031 -0.08328882 -0.007984957 -0.16371623 0.0067274356 -0.07852624 -0.12798719 -0.13658088
0.15298346 -0.16354465 0.026034614 8.583069e-06 -0.07367778 -0.096592605 0.16380477 0.0579476
0.012925765 -0.008349789 -0.10169804 -0.14413166 -0.15854369 -0.1655788 -0.015745167 0.045189198
-0.02482622 -0.11284885 0.051722478 0.018260209 -0.0805809 -0.014499769 -0.1584332 -0.07003176
-0.13999492 -0.060390785 0.0851051 -0.110975936 -0.19059768 0.030620502 -0.03792306 0.08901351
-0.029316477 -0.124450654 -0.043533914 -0.1929625 -0.10484519 -0.10723196 -0.044087585 -0.117787994
0.13510405 -0.15094163 -0.024414483 0.049865007 0.060929645 0.78113943 -0.13663167 -0.5181913
0.8819937 -0.4409951 -1.0087409 1.0783192 0.2768238 0.0005925773 -0.09158536 -0.3177402
0.54139346 -0.66571915 -0.049297567 0.45868313 -0.24131654 0.3337275 0.44989955 -0.51153165
-0.73159736 0.16451602 -0.65560615 -0.39819524 0.33115458 -0.44215965 0.111084454 0.7813681
0.085811436 0.14724725 0.11736307 -0.1154422 0.036348842 0.048090767 -0.12581566 0.080474384
-0.04027176 -2.1198924 -3.7550313 -4.107262 -0.09678587 -1.123287 -0.70202225 -2.0988057
-2.3357322 -1.4067438 -0.3128373 0.23624954 0.41970637 -0.20049469 0.18905371 0.10581089
0.21582733 0.15049869 -0.13628048 -0.041449927 0.12431817 -0.17098646 0.019683398 0.85626256
0.950897 0.22643594 -0.116356686 -0.15022606 -0.06295491 -0.063734934 -0.03250983 -0.12680432

bias f4 [8]
00000000: 7785 9ebf 1253 203f 7b4d 66bf 2b69 05be
00000010: d7e1 2bbe d638 53be b667 6bbf 299c a53f
-1.238448 0.62626755 -0.89961976 -0.130284 -0.1678537 -0.2062715 -0.91955125 1.2938281

weight f4 [29, 512]
00000000: 4ff5 3abe 93f8 cbbf b319 65be 1d58 b23e
00000010: 5480 bd3e ebb9 943e 7438 45be 55bc 12bf
00000020: 25c2 3dbf 00df 7abf cc1b 25bf b5e7 38bf
00000030: 399b b9bd 9d82 9dbe 310e cabe 00eb 9cbf
00000040: 339c 6ebe 63c4 53bd 7d71 12bf 4fbc 1dbf
00000050: a56f 59bf 52b1 6dbf e17c 62bf a2fe 9cbf
00000060: 52a3 d8be 61e7 48bf f673 26be 8229 83be
00000070: 1366 31bf b991 58bf ba4b 3ebf 178c 8cbf
00000080: 6b08 21be b351 d6bd 6153 30bd c1b6 19be
00000090: 5c8b ecbe 53c3 b9be 1a85 22bf 6fbf 02bf
000000a0: 4f12 dd3e bb2c 0abf 7e8c ea3d 6cfe 9ebe
000000b0: 88d8 f3be 1cf7 e0be a255 92bf f47b 08bf
000000c0: c807 103f eac7 09be 3899 13be 0330 4e3d
000000d0: 6b1b 78bd 0e99 363d 4f1b 13bf f9ba 13bf
000000e0: 4e77 87bc 31a8 bc3e 1e1a 423e acd5 3d3e
000000f0: 408e 2a3e 8ed8 7d3e 9ba8 40be 052c 23be
00000100: bcce 80bf 105f a0bf f5a1 0dbe 0bc3 023f
00000110: 34c6 de3e 0000 f13e be93 f63e 5e7b 863f
00000120: b70e 12c0 377e 023f b553 373f e84f 043f
00000130: 9c00 8a3e ed12 153e 5b1e dc3d e417 ae3d
00000140: 9fd2 683f a6b6 323f 9ab5 8f3e 9ebc ff3e
00000150: 12c3 3a3f 5aff 3c3f a9c9 053f 1bfe 083e
00000160: 8370 2b3e 1b5d 5c3e ce36 993e d451 403e
00000170: b45a 3a3e f27b 4d3e f4ea 583f b32e 55bc
00000180: 3079 713e c158 5e3e 4cef 263e a132 5ebd
00000190: 1c48 4e3e 92d5 0bbd 240e 973e ead2 2ebe
000001a0: a097 4fbf 6c53 04bf 467a 42bc 97d8 19be
000001b0: 0208 033e ae99 323e 9473 6b3e 25f0 393d
000001c0: 6d1c 2bbf 8b90 e1bd 303f 133d c509 d73d
000001d0: db15 c4be 2367 9ebd 3108 c8be 85bb 0bbf
000001e0: 1d68 14bd bef0 47bd e4ee 673e edfc 6f3e
000001f0: 10ed b0bb 5a03 1abd 3dea d2be 7c80 ce3d
00000200: 99a6 973e 31fd 7c3f 46cd 0b3f 5b44 58bf
00000210: 1b60 b6be 6b22 80c0 c298 81c0 f892 12c0
00000220: 7fc7 e9be 8fbb 06bf 5fd2 a7bd bf1f d33e
00000230: f9c0 ed3d ec5d f3be b602 d0be 81d8 643e
00000240: cb25 9a3d a7bd b53e f335 85be cead 29bf
00000250: 1667 acbd 0a9a 2d3e 9c92 c13e 61f4 81bf
00000260: b728 b13e 24d2 943d b074 97bd d84c ca3e
00000270: aa69 87be 270e ebbe b57e 513e c07f 2b3f
00000280: 7792 253f 499b 043f 856a 1c3f c52b b03e
00000290: 18c5 c43e 1b65 a03c a2c7 0b3e 0640 e1be
000002a0: 5bdd 01be e064 9fbe c8e8 4f3e aaa1 aebe
000002b0: 2466 7abd 99ab cabe 0bf0 873d 990b a8bd
000002c0: a6ac 013c 3b5a 9abe d7d4 023e bba7 2b3e
000002d0: bc3b 24be fdec 5abe 1687 2cbe 3732 b73d
000002e0: e89f 08be 4ef9 0abe 7035 b23c 02eb 31be
000002f0: 1b63 5dbe 869d 43bd 6467 1d3e aa5f b43e
00000300: ee0d 32bd a715 94bc dfa8 3cbc 9943 2d3d
00000310: 7219 3f3c 5f78 2abd a8d1 b5bb 9107 223d
00000320: 0879 30bc f3b1 dfbc 8754 963c 089d 2abd
00000330: f57e 233d 18bd c83c 2284 69bb 96a5 1abd
00000340: 49df bcbc 50df e33c 7551 a93c 3ee3 36bc
00000350: 853e 7b3b 1ddc 86bc f613 30bd c74f e43c
00000360: 5c31 253c 1bb7 abbc a0ff 09bd 445a 313b
00000370: ea89 a7bb e6fc b3bc 5a74 133d 474b 04bd
00000380: bdf0 3fbc fdfd 0abd 9b96 2abc c890 2cbc
00000390: ae76 17bd 612a d7bc 36d7 123d 4017 9b3b
000003a0: 3700 a5bc 8571 de3b 9a67 c83c d027 ba3a
000003b0: 47a9 1b3d cd3c 69bb 33a9 bbbc db26 85bc
000003c0: a02b f73b 3a1d 003c f2a1 3ebb fad1 1b3d
000003d0: c026 fabc 6f3b 07bd 90d0 333c dcf5 2dbd
000003e0: 46d9 cb3c 2ea4 8bbc b068 aa3b 3966 31bd
000003f0: 9880 223b b2df 9e3a b0a5 03bd d28f 2e3d
-0.1825764 -1.5935234 -0.22373085 0.3483285 0.3701197 0.29048094 -0.19259816 -0.5731862
-0.74124366 -0.9799652 -0.6449554 -0.72228557 -0.090628095 -0.30763713 -0.39463952 -1.2259216
-0.23301773 -0.05170096 -0.5720442 -0.6161546 -0.8493598 -0.92848694 -0.884718 -1.2265208
-0.42312104 -0.78478056 -0.16255173 -0.25617605 -0.6929638 -0.84597355 -0.743343 -1.0980252
-0.15725867 -0.10464802 -0.043048266 -0.15011121 -0.46200073 -0.36281833 -0.63484347 -0.51073354
0.4317803 -0.53974503 0.11452578 -0.31053483 -0.47626138 -0.4393853 -1.1432383 -0.5331414
0.56261873 -0.13455167 -0.14413917 0.050338756 -0.060573023 0.044579558 -0.57463545 -0.5770717
-0.016536381 0.3684707 0.18955275 0.1853854 0.16655827 0.2478964 -0.18814318 -0.15934761
-1.006309 -1.2529011 -0.13831313 0.5107886 0.43510592 0.47070312 0.48159593 1.0506399
-2.2821481 0.5097384 0.716121 0.5168443 0.2695359 0.14558001 0.10747977 0.085006505
0.9094638 0.6980995 0.28068238 0.4994859 0.72953904 0.73827136 0.52260834 0.13378184
0.16742139 0.21519892 0.29924625 0.18781215 0.18198663 0.20066813 0.8473351 -0.013011622
0.23581386 0.21713544 0.16302222 -0.054247502 0.20144695 -0.034139223 0.29502976 -0.17072645
-0.81090736 -0.5168979 -0.011869973 -0.15024029 0.12796023 0.17441437 0.22993308 0.045395035
-0.6684025 -0.110138975 0.035948932 0.1049991 -0.38297924 -0.077345155 -0.3906875 -0.5458301
-0.036232103 -0.048813574 0.22649723 0.23436327 -0.005399354 -0.037600853 -0.41194335 0.100831
0.2961929 0.9882384 0.546101 -0.844793 -0.35620198 -4.0042014 -4.049897 -2.2902203
-0.45660016 -0.5262994 -0.08194422 0.41235158 0.11609072 -0.47532594 -0.40627068 0.22348215
0.0752674 0.35496256 -0.26017722 -0.6628083 -0.084180996 0.16953292 0.37807167 -1.0152704
0.34601375 0.07266644 -0.07395303 0.39511752 -0.26447803 -0.45909235 0.20458491 0.66991806
0.6467661 0.51799446 0.61100036 0.34408394 0.3843162 0.01957946 0.13650373 -0.43994159
-0.12682097 -0.3113165 0.20303643 -0.34107715 -0.061132565 -0.39584044 0.066375814 -0.08205337
0.007914698 -0.30146965 0.12776504 0.16763203 -0.16038412 -0.21379466 -0.16848406 0.089451246
-0.1334225 -0.13571665 0.021753997 -0.17374805 -0.21619837 -0.047757648 0.15371472 0.35229236
-0.043470316 -0.01807673 -0.011514871 0.042300794 0.0116637815 -0.0416187 -0.0055486746 0.039557997
-0.010771044 -0.027306532 0.018350853 -0.041653663 0.039915998 0.02450423 -0.0035631736 -0.03775557
-0.02305569 0.027816445 0.020668725 -0.011162577 0.0038336825 -0.01646238 -0.042987786 0.027870072
0.010082569 -0.020961335 -0.03369105 0.002706186 -0.005112876 -0.021971177 0.035999633 -0.032298353
-0.011715111 -0.03393363 -0.010411884 -0.010532565 -0.036978416 -0.026265325 0.035849772 0.004732996
-0.020141704 0.006788435 0.024463464 0.0014202539 0.038003232 -0.0035589219 -0.022907829 -0.01625388
0.0075430423 0.007819468 -0.0029088226 0.038042046 -0.030536056 -0.033015665 0.010975018 -0.042470798
0.024883877 -0.01704606 0.005200468 -0.043310378 0.0024795886 0.001212111 -0.032140434 0.042617626

bias f4 [29]
00000000: d0ce 483d 2c55 98bd d3c1 2f3d 191a ec3d
00000010: bce0 c23d f029 943d 8cb1 f03c 2e27 613e
00000020: 3262 c23d 82c7 cabd 6fed b33d 042e dfbe
00000030: 1cae e9be 4c85 2cbe ccb1 64be 034a 5cbe
00000040: bee4 a9bc 40de 633e d5c0 7cbe cdfc 953e
00000050: c2e9 43be e267 553d 3c91 4f3e 0db7 373e
00000060: c076 39bd 1563 ba3c d376 06bd b393 8e3e
00000070: 6465 4abe
0.049025357 -0.0743812 0.042909455 0.11528415 0.09515521 0.072345614 0.029381536 0.21987602
0.094913855 -0.09901334 0.08785521 -0.43589795 -0.45640647 -0.16847724 -0.22333449 -0.21512608
-0.020738956 0.2225275 -0.24682935 0.29294434 -0.1913214 0.052101023 0.20270246 0.17940922
-0.045279264 0.022752324 -0.032828163 0.2784706 -0.1976524
