checkpoints_backup/230906/checkpoint_94.35.pth (torch, 64415 bytes, 6 tensors)

weight f4 [4, 1, 3, 3]
00000000: 3fe7 56be ec26 493e 0769 53be c9a5 883e
00000010: 052f 6dbe ea63 993d d8a3 203e 65b4 603d
00000020: 2c75 88be 5a22 8bbe 51e0 3d3f a417 4a3f
00000030: bbc6 49bf c134 07bf e1a6 3f3d 2af4 0f3d
00000040: 4d45 53bf 48b8 c1be 4836 49bd a103 19bf
00000050: 5a10 cd3d 5114 dd3f 910b dd3f 266a fb3f
00000060: 54d9 0e40 462b 1d40 cd1f 2a40 9014 b33f
00000070: 1058 a93f 1d98 fa3f 4b69 853f 534c b03f
00000080: b3dc d23f b1f7 5dbf f58a 64bf 0d5b 1cbf
-0.20986651 0.19643754 -0.20645534 0.26688984 -0.23162468 0.0748976 0.15687501 0.054859538
-0.26651895 -0.27174646 0.74170405 0.7894232 -0.78818864 -0.5281487 0.046790008 0.035144962
-0.8252762 -0.37835908 -0.049124032 -0.5977116 0.100128844 1.7271825 1.7269155 1.9641769
2.2320147 2.4557662 2.658191 1.399065 1.323 1.9577671 1.0422758 1.3773292
1.6473602 -0.8670607 -0.8927453 -0.6107643

bias f4 [4]
00000000: b0b4 a3be 268d 853f 6722 bfbf d9de 96bf
-0.3197379 1.04337 -1.4932374 -1.1786758

weight f4 [8, 4, 3, 3]
00000000: 0c98 983d e726 e7bd e2c9 d1bd 01cf 70bd
00000010: ce27 183d 5a6e 91bd 9179 6dbd 8eac ffbd
00000020: 8d45 813d d017 ab3f ff3a fe3e ce4a d8bf
00000030: 2743 2e3f 8f61 b63f 5bd9 b43f 7a82 b3bf
00000040: 3f62 38bf 78f1 0740 967e babe 29c3 c43e
00000050: 25f3 233f 6806 15bf a603 8cbf 74ec 00be
00000060: b7fe 2a3f 23ad 993e 18d4 a6be b1f8 4b3e
00000070: a962 3d3f 3be4 863e 1208 4abf 9875 3fbe
00000080: fd10 803f 05d7 1a3f d33a 70bf 5faf d1be
00000090: b4ed debd 6e89 0e3e 0098 183d aca9 983d
000000a0: d8d1 d3bd 2930 003d 41f4 e43d e6de a8bc
000000b0: ed84 4a3d 70ad 33be a93a ee3e c279 3b3d
000000c0: 9847 c73e 59f4 54bd ab78 aabe a825 b63f
000000d0: 90a0 b93e 0849 d23e 1b50 673f 8a53 5f3f
000000e0: e789 5ebe 9358 0cbf fd04 80bf 6b9e 88bf
000000f0: 7c05 33bf 0f21 e43c 2f72 163f c00c 013f
00000100: 61f4 a83f f75c 2e3f ab7d 0d3f 2462 5e3e
00000110: 54f2 97bf 37b9 a6be d35c adbf 80a1 52be
00000120: 51da 583d a3fa 0abd 01d7 4bbd 4066 f03c
00000130: 8c05 92bc e19a 29bd d299 a6bc ccf5 1d3e
00000140: 05c5 6ebd 377f abbd 53b3 a1bf 6991 a4bf
00000150: d555 f8be 4c5f 01bf 51d9 8ebf f624 04be
00000160: 7d47 cfbe 4bba be3d 4a3c 2f3f 9d38 4e3f
00000170: c033 443f 68f3 10bf 3618 1dbe 85ef a73e
00000180: f947 a5be dac3 05be 4620 203e 71cf 6dbf
00000190: 8cb0 95bf fb48 d5bf 2199 8bbe faad 073f
000001a0: b05d 923f c448 373b 01db 3e3d 7703 ac3d
000001b0: 202e 0a3e 7e35 cebd 18ff fd3d 80bd b6bb
000001c0: 93fd fe3d 68b9 cfbd 8ba8 5dbd 7bc4 babd
000001d0: f639 d0bd 4560 8abd fbf4 fbbd 977e 2ebe
000001e0: 155d 61bd bce0 dbbd d3fb c53d 1095 96bd
000001f0: 96ee 103c 4e69 22be 3e7d e4bd 7e5e d4bd
00000200: c31c d4bd f36b babd 081e e83b 672d 8b3d
00000210: 0a1c 1cbe 37a7 19be a84b 88bd f3de f8bd
00000220: 764f 98bd 5493 aabd 56d3 02bc 3aa5 27be
00000230: d271 dc3b 5ed2 a0bd 130f 03be dcdb 0bbe
00000240: b2a7 1c3e 4078 27be 8b46 d53c 0000 1037
00000250: 60e4 96bd 58d2 c5bd 70bc 273e 765a 6d3d
00000260: 96c6 533c 8ecd 08bc 1047 d0bd 4097 13be
00000270: 4759 22be 7d8d 29be 02fc 80bc 4f18 393d
00000280: 5b60 cbbc 4c1d e7bd f3da 533d 6f96 953c
00000290: 9907 a5bd 7090 6dbc 503c 22be d06c 8fbd
000002a0: d45a 0fbe 545c 77bd 954b ae3d 5a47 e3bd
000002b0: 0a2c 43be d9d7 fa3c 3655 1bbd b74c b63d
000002c0: 1c29 f0bc fcdf febd 9e50 32bd f697 45be
000002d0: 13b9 d6bd 6e9c dbbd 2f95 34bd d53a f1bd
000002e0: b758 0a3e 7190 1abe e200 c8bc 403f 4c3d
000002f0: 5d91 793d beaf 393f 91d9 0cbe af0c 02bf
00000300: 5fee 573f 834a cfbe aed3 77bf f419 863f
00000310: 19db 8f3e fe30 793b 46ac c4bd 9dee 9dbe
00000320: 879b 0a3f 8310 29bf 69e3 2fbd fe41 e93e
00000330: a7af 77be 3f5b ac3e a9cb e43e d62b 06bf
00000340: 38fd 3cbf a7e4 153e a71c 27bf ecb3 c7be
00000350: f9d4 ad3e a935 e1be d8ae dc3d 64d5 453f
00000360: e8bd af3d fcc7 163e 0d5c f03d f66c ecbd
00000370: 86e2 143d d3fa 443d d2d5 00be c1cf a43d
00000380: 00f4 24bd 7bc2 05c0 6858 6bc0 3496 82c0
00000390: feef ddbd eada 8dbf 5900 36bf a309 04c0
000003a0: 0e90 12c0 d1d2 b6bf b172 9bbe 8e94 6d3e
000003b0: 0800 d33e f73e 3abe 68ca 4e3e d398 e53d
000003c0: 239a 533e fb41 1a3e 458d 0abe 8580 e7bc
000003d0: 25eb ec3d 6ecb 11be 8eb7 e43c 654e 593f
000003e0: 8dab 713f 8f94 503e f6ae f1bd ab93 13be
000003f0: 81ee 80bd 7687 82bd 0729 05bd fed8 01be
0.07450876 -0.11286717 -0.10243584 -0.058791164 0.037147336 -0.07101126 -0.057977263 -0.12484084
0.06312094 1.3366642 0.49654385 -1.6897829 0.68071216 1.4248523 1.4128832 -1.4024193
-0.7202491 2.124113 -0.36424702 0.38430145 0.64042884 -0.582129 -1.0938613 -0.125902
0.66794914 0.30014905 -0.3258369 0.19919087 0.7397867 0.26346 -0.78918564 -0.18697202
1.0005184 0.60484344 -0.9383976 -0.4095411 -0.10885182 0.13919613 0.037254333 0.07454237
-0.10342759 0.03129593 0.111794 -0.020614099 0.049443174 -0.1754663 0.4652913 0.045770414
0.3892181 -0.05199084 -0.33295187 1.4230242 0.36255312 0.41071343 0.90356606 0.87236845
-0.21732293 -0.54822654 -1.0001522 -1.0673345 -0.69930243 0.027847795 0.5876798 0.5041008
1.3199579 0.68110603 0.5526988 0.21717125 -1.1870828 -0.32563183 -1.3543953 -0.2056942
0.052942578 -0.033930432 -0.04976559 0.029345632 -0.01782491 -0.04140747 -0.02033702 0.15425795
-0.05829336 -0.08373874 -1.263285 -1.2856876 -0.48502985 -0.50536036 -1.116007 -0.12904724
-0.4048423 0.09312876 0.6845137 0.80555135 0.76641464 -0.5662141 -0.15341267 0.32799926
-0.32281473 -0.13062993 0.15637311 -0.92894655 -1.1694503 -1.6662897 -0.27265266 0.5299984
1.1434841 0.0027966956 0.046595577 0.08399098 0.13494158 -0.100687966 0.12402171 -0.0055767894
0.12450709 -0.10142785 -0.054115813 -0.09119507 -0.10167305 -0.06756643 -0.12302586 -0.17040478
-0.05502041 -0.10736224 0.09667172 -0.0735265 0.008845946 -0.15860483 -0.111567006 -0.103695855
-0.10357048 -0.09102621 0.007083658 0.06795769 -0.15245071 -0.15005194 -0.06655055 -0.12151899
-0.07437031 -0.08328882 -0.007984957 -0.16371623 0.0067274356 -0.07852624 -0.12798719 -0.13658088
0.15298346 -0.16354465 0.026034614 8.583069e-06 -0.07367778 -0.096592605 0.16380477 0.0579476
0.012925765 -0.008349789 -0.10169804 -0.14413166 -0.15854369 -0.1655788 -0.015745167 0.045189198
-0.02482622 -0.11284885 0.051722478 0.018260209 -0.0805809 -0.014499769 -0.1584332 -0.07003176
-0.13999492 -0.060390785 0.0851051 -0.110975936 -0.19059768 0.030620502 -0.03792306 0.08901351
-0.029316477 -0.124450654 -0.043533914 -0.1929625 -0.10484519 -0.10723196 -0.044087585 -0.117787994
0.13510405 -0.15094163 -0.024414483 0.049865007 0.060929645 0.72533786 -0.1375487 -0.50800604
0.843481 -0.40486535 -0.9680737 1.047667 0.28096846 0.0038023586 -0.09603171 -0.3084611
0.54143566 -0.6604082 -0.042941485 0.4555816 -0.241881 0.33663365 0.4468663 -0.5241064
-0.7382388 0.14638005 -0.65278095 -0.39004457 0.33951548 -0.43986252 0.10775536 0.77278733
0.085811436 0.14724725 0.11736307 -0.1154422 0.036348842 0.048090767 -0.12581566 0.080474384
-0.04027176 -2.0899951 -3.677271 -4.0808353 -0.108367905 -1.1082432 -0.7109428 -2.0630882
-2.2900424 -1.4283086 -0.3036094 0.232012 0.4121096 -0.18188082 0.201944 0.112107895
0.20664267 0.15064232 -0.13530453 -0.028259525 0.11568288 -0.14237759 0.027919557 0.84885246
0.9440239 0.2036917 -0.11800949 -0.144118 -0.06295491 -0.063734934 -0.03250983 -0.12680432

bias f4 [8]
00000000: 9416 94bf bc54 193f 6917 5fbf 2b69 05be
00000010: d7e1 2bbe f271 4abe 46c1 5fbf 48ec a13f
-1.156939 0.5989492 -0.87145096 -0.130284 -0.1678537 -0.19770029 -0.87404287 1.2650232

weight f4 [29, 512]
00000000: 2252 69be bd9d bebf 38f5 5fbe 1ed9 a83e
00000010: 4648 bc3e b5f1 893e dfea 30be d75f 0cbf
00000020: 175e 33bf 77f4 74bf 38a7 1dbf 6431 3cbf
00000030: d8e7 a1bd 6a6a 8dbe 8cfb a6be 7ecb 96bf
00000040: 39fb 48be 5b03 85bd df97 0cbf ae2d 13bf
00000050: 2afe 4ebf f206 66bf f7fc 5dbf 9144 9dbf
00000060: ac78 d6be 65f0 41bf 8e2e 1abe 07e1 86be
00000070: b67c 24bf 5ff6 48bf dff5 3dbf 462d 87bf
00000080: 754a 04be 045b 9cbd a5b5 a0bc 5283 10be
00000090: 1d8d d0be 5623 c1be 3465 20bf 6037 04bf
000000a0: 4b5f bc3e 9776 e6be a21b c63d b06f 9cbe
000000b0: 82e2 ecbe bb00 dabe 68f7 8ebf 8235 0abf
000000c0: 392e 003f e13b d9bd 7171 33be 48b4 153d
000000d0: 9be6 a9bd d45e 043d 8879 0abf 0fdf 01bf
000000e0: aa5e 81bc e678 b03e a7a1 493e b1c9 3e3e
000000f0: fd97 273e 5e35 843e 7053 4bbe a38e 19be
00000100: d75b 80bf dc3e 99bf 8fc8 c7bd 0ab0 fe3e
00000110: 0476 e03e 4c88 f13e 733c f23e ca82 803f
00000120: 8637 03c0 8a9e de3e 43d6 333f 2b1c 033f
00000130: 26f6 863e bf4a 053e 6295 ca3d 26fa ae3d
00000140: 1444 623f 2bb0 323f be7d 963e 51cc f73e
00000150: a6f7 373f d06f 3c3f fde4 093f 1816 a23d
00000160: 6011 e93d aec7 5c3e df8b a13e 548e 573e
00000170: d812 473e 83ed 4a3e 37c1 4f3f eb3b b9bd
00000180: 903b 7c3e e8f8 6c3e afdc 223e cb4d c8bc
00000190: a50a 713e 9403 45bd ad24 843e 1c50 3abe
000001a0: 482f 49bf 7916 00bf 8b65 013d e8fc 1fbe
000001b0: 6111 c33d 148c 1a3e 9bd3 423e 5021 a43d
000001c0: 00a6 1ebf 3d80 25be c8b5 963d cee4 c83d
000001d0: 4784 b6be 1677 a9bd fb6b c3be a1b7 03bf
000001e0: 3f07 b8bc 01b7 56bd b6f6 483e ba78 533e
000001f0: 33e1 50bc c3b7 bebc 081d babe e219 d03d
00000200: 19eb 923e c947 6d3f 9a3b 133f eabe 4bbf
00000210: f26e b0be d1e2 7ec0 3491 6dc0 a83a 0ec0
00000220: d1d7 d5be 9f17 f6be a636 9abd e1d6 c83e
00000230: 9e7c 8d3d f03e eebe e805 c7be 9656 523e
00000240: 5505 a63d cb0f a23e bbc5 8ebe dd70 25bf
00000250: c62c 9fbd 802f 153e 4556 a83e b89f 6bbf
00000260: 2fd0 aa3e c6a3 423d 04aa 03bd 3d1b c53e
00000270: 3c75 96be 9150 cbbe f79e 513e 9a81 1e3f
00000280: 5c6c 1a3f a635 ef3e 3110 0e3f 0850 bf3e
00000290: 0c44 c13e be8d 3b3d c34f 113e 36bd d0be
000002a0: 56ea f2bd 2cd0 8abe 7817 4d3e d487 aabe
000002b0: c6e2 b7bd 5333 bcbe d9c2 bc3d 398a 2fbd
000002c0: c16e 5e3c c66e 8abe 728b c03d 39b1 f53d
000002d0: f03b 08be f893 2bbe 150f 16be 242e 883d
000002e0: 75c9 f1bd a5b5 02be aa5b 263d a494 31be
000002f0: d05f 68be bc49 62bd 45b5 0e3e 378c ac3e
00000300: ee0d 32bd a715 94bc dfa8 3cbc 9943 2d3d
00000310: 7219 3f3c 5f78 2abd a8d1 b5bb 9107 223d
00000320: 0879 30bc f3b1 dfbc 8754 963c 089d 2abd
00000330: f57e 233d 18bd c83c 2284 69bb 96a5 1abd
00000340: 49df bcbc 50df e33c 7551 a93c 3ee3 36bc
00000350: 853e 7b3b 1ddc 86bc f613 30bd c74f e43c
00000360: 5c31 253c 1bb7 abbc a0ff 09bd 445a 313b
00000370: ea89 a7bb e6fc b3bc 5a74 133d 474b 04bd
00000380: bdf0 3fbc fdfd 0abd 9b96 2abc c890 2cbc
00000390: ae76 17bd 612a d7bc 36d7 123d 4017 9b3b
000003a0: 3700 a5bc 8571 de3b 9a67 c83c d027 ba3a
000003b0: 47a9 1b3d cd3c 69bb 33a9 bbbc db26 85bc
000003c0: a02b f73b 3a1d 003c f2a1 3ebb fad1 1b3d
000003d0: c026 fabc 6f3b 07bd 90d0 333c dcf5 2dbd
000003e0: 46d9 cb3c 2ea4 8bbc b068 aa3b 3966 31bd
000003f0: 9880 223b b2df 9e3a b0a5 03bd d28f 2e3d
-0.22785237 -1.4891888 -0.21870887 0.32978147 0.3677389 0.2694222 -0.17277096 -0.5483374
-0.70065445 -0.95685524 -0.6158328 -0.73512864 -0.07905549 -0.2762025 -0.3261379 -1.1780851
-0.19627084 -0.06494781 -0.54919237 -0.57491577 -0.80856574 -0.8985435 -0.8671412 -1.228655
-0.4188894 -0.7575744 -0.15056822 -0.26343557 -0.64252794 -0.7850093 -0.74203295 -1.0560691
-0.12919028 -0.07634547 -0.019617865 -0.14112595 -0.4073266 -0.37722272 -0.62654424 -0.51646996
0.36791453 -0.45012352 0.09673239 -0.3055396 -0.46266562 -0.42578682 -1.1169252 -0.53987896
0.5007053 -0.10607124 -0.17523743 0.036548883 -0.08295938 0.032316998 -0.5409169 -0.50730985
-0.01579221 0.34467238 0.19690572 0.18631627 0.16366573 0.25821966 -0.19856048 -0.14995818
-1.0028027 -1.1972308 -0.097550504 0.49743682 0.4384004 0.471743 0.47311744 1.0039914
-2.050264 0.4348033 0.7024881 0.51214856 0.2635967 0.13016795 0.09891774 0.08543806
0.8838513 0.6980006 0.2939281 0.4839807 0.71862257 0.7360811 0.53865033 0.0791437
0.11380267 0.21560547 0.31552026 0.21050388 0.19440782 0.19817166 0.811542 -0.090446316
0.24632096 0.23141825 0.15904497 -0.024451157 0.23539217 -0.048099115 0.2580923 -0.18194622
-0.7858777 -0.5003429 0.03159098 -0.1562382 0.09524799 0.15092498 0.19026034 0.08014166
-0.61972046 -0.161622 0.07358891 0.09809266 -0.35647795 -0.08274667 -0.3816832 -0.5145207
-0.022464393 -0.05242062 0.19625363 0.20651522 -0.012749004 -0.023280984 -0.36350274 0.10161187
0.2869499 0.9268766 0.5751282 -0.79588187 -0.34459645 -3.9825938 -3.7119875 -2.22233
-0.41766217 -0.48064896 -0.075299546 0.3922644 0.069085345 -0.46532393 -0.38871694 0.20540842
0.08106486 0.31652674 -0.2788523 -0.6462534 -0.07772212 0.14568901 0.32878318 -0.92040586
0.33361956 0.047519468 -0.03214456 0.38497344 -0.29386318 -0.39709905 0.20470797 0.61916506
0.60321593 0.46720618 0.55493456 0.37365746 0.37747228 0.045789473 0.14190583 -0.40769356
-0.11861102 -0.27111948 0.20028484 -0.33306754 -0.089788005 -0.36757907 0.09216852 -0.04285643
0.0135762105 -0.27037638 0.09401597 0.11996693 -0.13304114 -0.16755664 -0.14654191 0.066494256
-0.11806003 -0.12764604 0.04061476 -0.17341858 -0.226928 -0.0552461 0.13936336 0.33700725
-0.043470316 -0.01807673 -0.011514871 0.042300794 0.0116637815 -0.0416187 -0.0055486746 0.039557997
-0.010771044 -0.027306532 0.018350853 -0.041653663 0.039915998 0.02450423 -0.0035631736 -0.03775557
-0.02305569 0.027816445 0.020668725 -0.011162577 0.0038336825 -0.01646238 -0.042987786 0.027870072
0.010082569 -0.020961335 -0.03369105 0.002706186 -0.005112876 -0.021971177 0.035999633 -0.032298353
-0.011715111 -0.03393363 -0.010411884 -0.010532565 -0.036978416 -0.026265325 0.035849772 0.004732996
-0.020141704 0.006788435 0.024463464 0.0014202539 0.038003232 -0.0035589219 -0.022907829 -0.01625388
0.0075430423 0.007819468 -0.0029088226 0.038042046 -0.030536056 -0.033015665 0.010975018 -0.042470798
0.024883877 -0.01704606 0.005200468 -0.043310378 0.0024795886 0.001212111 -0.032140434 0.042617626

bias f4 [29]
00000000: 13dd 533d b493 8cbd c87d 2c3d 6d7b d83d
00000010: a9ba ad3d de9d 783d 010d 243d 0f08 563e
00000020: 7864 b83d dd3a cfbd c322 b13d ce82 d5be
00000030: aa2e debe c337 27be da03 54be d207 54be
00000040: 1fac 99bc 727c 4f3e 0041 6ebe 4679 8c3e
00000050: bbc3 34be 3912 4c3d dd1a 3e3e acfd 313e
00000060: aae3 32bd 30f0 9d3c d5b7 f6bc 5abf 833e
00000070: bbf3 39be
0.051724505 -0.0686411 0.04211214 0.105704166 0.08482868 0.06069743 0.040051464 0.20901512
0.09003538 -0.10118649 0.086492084 -0.4170136 -0.43394977 -0.16329865 -0.20704594 -0.20706108
-0.018758832 0.20262316 -0.23266983 0.27436274 -0.1765279 0.049822066 0.18564935 0.17381924
-0.04367415 0.01927957 -0.030116955 0.25731927 -0.18159382
