checkpoints_backup/230906/checkpoint_94.90.pth (torch, 64415 bytes, 6 tensors)

weight f4 [4, 1, 3, 3]
00000000: 3fe7 56be ec26 493e 0769 53be c9a5 883e
00000010: 052f 6dbe ea63 993d d8a3 203e 65b4 603d
00000020: 2c75 88be 0e6a 8bbe 9fa7 3c3f 2135 473f
00000030: e5c7 47bf ffab 05bf e403 353d 9a3b 0a3d
00000040: 3855 51bf 8777 bfbe bbd6 37bd 9f40 14bf
00000050: 3567 f43d 9eb9 dd3f 774a df3f 6129 fe3f
00000060: 906f 0e40 373a 1d40 0046 2a40 6af0 b23f
00000070: ee1f a83f ab23 f83f f3a2 843f 0bee ae3f
00000080: 996f d13f 6c33 5cbf afaa 61bf ba53 1abf
-0.20986651 0.19643754 -0.20645534 0.26688984 -0.23162468 0.0748976 0.15687501 0.054859538
-0.26651895 -0.2722935 0.7369327 0.77815443 -0.7803939 -0.5221557 0.044193164 0.033748247
-0.8177066 -0.3739588 -0.044882517 -0.57911104 0.11933748 1.7322271 1.74446 1.9856378
2.2255592 2.4566782 2.6605225 1.3979619 1.3134744 1.9385885 1.0362228 1.3666395
1.6362182 -0.86015964 -0.8815107 -0.60284007

bias f4 [4]
00000000: b0b4 a3be bf6a 843f 8c61 bfbf 5f34 96bf
-0.3197379 1.0345076 -1.4951644 -1.1734732

weight f4 [8, 4, 3, 3]
00000000: 0c98 983d e726 e7bd e2c9 d1bd 01cf 70bd
00000010: ce27 183d 5a6e 91bd 9179 6dbd 8eac ffbd
00000020: 8d45 813d 2e93 a93f dcf3 f93e 7dd4 d7bf
00000030: 325b 273f 0015 b43f c218 b33f 5074 b3bf
00000040: ba40 34bf 84d8 0540 258a b7be 451a c13e
00000050: 5b23 243f ca8c 13bf 0d9f 8abf 25ef f4bd
00000060: 3f09 2d3f 084e 973e 99d4 a4be 20d3 4d3e
00000070: c874 3d3f 250e 8d3e 6a67 49bf 3302 40be
00000080: e9fc 7f3f e1d7 1a3f 3731 6cbf 145e cebe
00000090: b4ed debd 6e89 0e3e 0098 183d aca9 983d
000000a0: d8d1 d3bd 2930 003d 41f4 e43d e6de a8bc
000000b0: ed84 4a3d 3449 31be 0c0a ed3e 2cdc 483d
000000c0: e4fb c53e 0b9c 52bd 7cba a9be 10ba b63f
000000d0: fa07 c33e 2191 dc3e 7dfc 663f 329f 5e3f
000000e0: 21dd 5dbe c76b 0abf 6d5d 7ebf d192 88bf
000000f0: 9993 31bf b344 713c b5c9 153f 96c5 023f
00000100: ef8f a63f 9c6c 2b3f 61fd 0d3f cc79 663e
00000110: e4ce 96bf fde6 a4be 2f00 acbf 9b98 53be
00000120: 51da 583d a3fa 0abd 01d7 4bbd 4066 f03c
00000130: 8c05 92bc e19a 29bd d299 a6bc ccf5 1d3e
00000140: 05c5 6ebd af29 b6bd 0727 a2bf ccc7 a2bf
00000150: bc17 fabe 8def 06bf 3013 92bf dceb d3bd
00000160: 81b3 c5be ed88 9b3d 2759 2c3f 491e 4a3f
00000170: 0b97 413f 3878 0dbf c38e 12be f60e a83e
00000180: bad9 a4be 3240 04be f6d0 1f3e a479 6abf
00000190: c964 94bf c4d2 d1bf 6198 83be dbbd 063f
000001a0: 9e80 903f ac8e 9a3b 62a7 573d eff7 ac3d
000001b0: 202e 0a3e 7e35 cebd 18ff fd3d 80bd b6bb
000001c0: 93fd fe3d 68b9 cfbd 8ba8 5dbd 7bc4 babd
000001d0: f639 d0bd 4560 8abd fbf4 fbbd 977e 2ebe
000001e0: 155d 61bd bce0 dbbd d3fb c53d 1095 96bd
000001f0: 96ee 103c 4e69 22be 3e7d e4bd 7e5e d4bd
00000200: c31c d4bd f36b babd 081e e83b 672d 8b3d
00000210: 0a1c 1cbe 37a7 19be a84b 88bd f3de f8bd
00000220: 764f 98bd 5493 aabd 56d3 02bc 3aa5 27be
00000230: d271 dc3b 5ed2 a0bd 130f 03be dcdb 0bbe
00000240: b2a7 1c3e 4078 27be 8b46 d53c 0000 1037
00000250: 60e4 96bd 58d2 c5bd 70bc 273e 765a 6d3d
00000260: 96c6 533c 8ecd 08bc 1047 d0bd 4097 13be
00000270: 4759 22be 7d8d 29be 02fc 80bc 4f18 393d
00000280: 5b60 cbbc 4c1d e7bd f3da 533d 6f96 953c
00000290: 9907 a5bd 7090 6dbc 503c 22be d06c 8fbd
000002a0: d45a 0fbe 545c 77bd 954b ae3d 5a47 e3bd
000002b0: 0a2c 43be d9d7 fa3c 3655 1bbd b74c b63d
000002c0: 1c29 f0bc fcdf febd 9e50 32bd f697 45be
000002d0: 13b9 d6bd 6e9c dbbd 2f95 34bd d53a f1bd
000002e0: b758 0a3e 7190 1abe e200 c8bc 403f 4c3d
000002f0: 5d91 793d 6e60 373f 0631 02be 15d5 fdbe
00000300: 5078 563f a5fb c3be be65 72bf 2b3a 843f
00000310: d6b0 903e b0cd 333c 6223 cebd 583c 9cbe
00000320: 4b8a 0a3f 7c50 28bf d1a9 1cbd 3b5e ea3e
00000330: 76c3 74be b267 ad3e 2e69 e53e 8bae 07bf
00000340: e148 3cbf 318d 163e 19f1 26bf dc69 c4be
00000350: de45 b13e d599 e1be ceac dc3d 0389 453f
00000360: e8bd af3d fcc7 163e 0d5c f03d f66c ecbd
00000370: 86e2 143d d3fa 443d d2d5 00be c1cf a43d
00000380: 00f4 24bd 3289 04c0 e9e7 69c0 e5e5 81c0
00000390: 233f eabd a5a3 8ebf e5c2 3abf 3a01 03c0
000003a0: bcf1 11c0 c074 b9bf ec14 9bbe a1b1 623e
000003b0: 9adb ce3e a598 35be 042c 4f3e 887c e43d
000003c0: 1d93 4b3e e6de 123e 909a 0bbe fb86 abbc
000003d0: a8ef d93d 40e2 09be 6c71 f23c 4aaa 563f
000003e0: 4b9a 6f3f 0dca 433e 417a f8bd 1292 0cbe
000003f0: 81ee 80bd 7687 82bd 0729 05bd fed8 01be
0.07450876 -0.11286717 -0.10243584 -0.058791164 0.037147336 -0.07101126 -0.057977263 -0.12484084
0.06312094 1.3248041 0.48818862 -1.6861721 0.6537353 1.4068909 1.399193 -1.4019871
-0.70411265 2.09134 -0.35847583 0.37715355 0.6411645 -0.576367 -1.0829788 -0.11959676
0.67592233 0.2955172 -0.3219345 0.20100069 0.7400632 0.27549854 -0.7867342 -0.18750839
0.99995285 0.60485655 -0.92262596 -0.4030615 -0.10885182 0.13919613 0.037254333 0.07454237
-0.10342759 0.03129593 0.111794 -0.020614099 0.049443174 -0.17313081 0.46296728 0.049038097
0.3866874 -0.051418345 -0.3315009 1.4275532 0.38092023 0.43079475 0.90229017 0.8696166
-0.21666385 -0.54070705 -0.99361306 -1.0669805 -0.6936584 0.014725852 0.58510906 0.5108274
1.3012675 0.669626 0.5546475 0.225074 -1.1781888 -0.3220748 -1.3437556 -0.20663683
0.052942578 -0.033930432 -0.04976559 0.029345632 -0.01782491 -0.04140747 -0.02033702 0.15425795
-0.05829336 -0.08894669 -1.266816 -1.2717223 -0.48846233 -0.52709275 -1.1412106 -0.10347721
-0.38613513 0.07594476 0.67323536 0.7895246 0.756211 -0.55261564 -0.14312272 0.32823914
-0.32197362 -0.12915114 0.15607056 -0.9159186 -1.1593257 -1.6392446 -0.25702193 0.52633446
1.1289251 0.004716715 0.052649863 0.08445727 0.13494158 -0.100687966 0.12402171 -0.0055767894
0.12450709 -0.10142785 -0.054115813 -0.09119507 -0.10167305 -0.06756643 -0.12302586 -0.17040478
-0.05502041 -0.10736224 0.09667172 -0.0735265 0.008845946 -0.15860483 -0.111567006 -0.103695855
-0.10357048 -0.09102621 0.007083658 0.06795769 -0.15245071 -0.15005194 -0.06655055 -0.12151899
-0.07437031 -0.08328882 -0.007984957 -0.16371623 0.0067274356 -0.07852624 -0.12798719 -0.13658088
0.15298346 -0.16354465 0.026034614 8.583069e-06 -0.07367778 -0.096592605 0.16380477 0.0579476
0.012925765 -0.008349789 -0.10169804 -0.14413166 -0.15854369 -0.1655788 -0.015745167 0.045189198
-0.02482622 -0.11284885 0.051722478 0.018260209 -0.0805809 -0.014499769 -0.1584332 -0.07003176
-0.13999492 -0.060390785 0.0851051 -0.110975936 -0.19059768 0.030620502 -0.03792306 0.08901351
-0.029316477 -0.124450654 -0.043533914 -0.1929625 -0.10484519 -0.10723196 -0.044087585 -0.117787994
0.13510405 -0.15094163 -0.024414483 0.049865007 0.060929645 0.71631515 -0.12714013 -0.4957663
0.8377733 -0.38277927 -0.94686496 1.0330251 0.28259915 0.010974333 -0.100653425 -0.3051479
0.5411727 -0.6574781 -0.038247887 0.45775017 -0.23902687 0.33868176 0.44806808 -0.53000706
-0.73548704 0.14702298 -0.65211636 -0.38362014 0.34623617 -0.44062677 0.107751474 0.7716219
0.085811436 0.14724725 0.11736307 -0.1154422 0.036348842 0.048090767 -0.12581566 0.080474384
-0.04027176 -2.0708737 -3.6547797 -4.0593133 -0.114378236 -1.114369 -0.72953635 -2.0469499
-2.2803793 -1.4488754 -0.302894 0.22138073 0.40401918 -0.1773401 0.20231634 0.11156565
0.19880338 0.14342842 -0.1363318 -0.020938387 0.10641414 -0.13465214 0.0295951 0.8385359
0.9359481 0.19120045 -0.12132693 -0.13727596 -0.06295491 -0.063734934 -0.03250983 -0.12680432

bias f4 [8]
00000000: 8662 91bf 505b 163f e226 5cbf 2b69 05be
00000010: d7e1 2bbe a813 45be 9e42 5cbf 7a11 a13f
-1.1358192 0.5873308 -0.8599683 -0.130284 -0.1678537 -0.1924578 -0.8603915 1.2583458

weight f4 [29, 512]
00000000: 3f2b 80be 52b0 b9bf 37d4 5fbe 780b a23e
00000010: 0cb1 b73e bae9 8a3e 4c5f 1fbe e252 06bf
00000020: 465f 32bf e434 77bf 81e8 25bf c003 3cbf
00000030: fd4f b8bd 1f9f 8abe cb8d b7be a713 94bf
00000040: 1a8d 4fbe ccae 67bd e3d4 0fbf 7521 23bf
00000050: 5dde 4cbf b710 6bbf 9726 63bf dbd9 9abf
00000060: d374 dfbe f444 3abf 7b95 04be ac7c 89be
00000070: c600 1fbf 3802 45bf f84e 39bf 10f1 82bf
00000080: 472e f7bd 8633 67bd 8db7 51bd f6ef 28be
00000090: 828a dcbe 4ec8 c6be 47d4 1fbf 6dd1 01bf
000000a0: b244 b63e 096f e1be 74e8 b43d bd0f 94be
000000b0: f454 e7be 6bd0 e4be feed 8fbf ecdf 0ebf
000000c0: 00fe fc3e 8df2 19be bc5b 48be bc97 3d3d
000000d0: 6016 c4bd d6e1 003d f5b2 09bf 1cd8 06bf
000000e0: 26dd 9dbc 7a18 b53e 7d7f 453e 4fc4 483e
000000f0: b492 223e e5d6 8b3e ed12 4cbe 6773 1fbe
00000100: aad4 80bf 9153 96bf 36a5 a2bd b917 f93e
00000110: f353 dc3e e757 ee3e a070 f13e d7d8 7f3f
00000120: bb4a fcbf 7300 e03e b15e 2c3f 8faf fa3e
00000130: 63c2 943e d45c 1a3e 3998 773d a4cf 4f3d
00000140: 4975 5a3f 0d7e 2c3f 382e 8e3e f864 ff3e
00000150: 28ba 303f 90c7 383f 1637 003f 8277 ef3d
00000160: f5e4 8f3d 4dee 593e d32c af3e fde4 5f3e
00000170: e9ae 563e 15d7 5d3e 8a17 523f 0c09 6ebd
00000180: d8e1 7c3e 0322 663e 32d3 1d3e e7fb 33bd
00000190: 6cd1 5b3e a4d3 55bd 7ab4 863e 7a7f 39be
000001a0: 96a2 3fbf a554 f7be 8fb9 8f3c a0dc 2cbe
000001b0: 8bc1 bf3d c7eb 313e 0e16 443e 0945 bc3d
000001c0: b36c 1ebf 1d95 23be 6c92 893d bafe 4b3d
000001d0: f6ee bcbe 9efb 88bd 53ff c9be b76e 01bf
000001e0: 63ad 2cbd 6b4f 63bd 0d2b 4d3e 42cd 4d3e
000001f0: 746d 44bc 7dab dabc 9aeb 9bbe 7a71 c73d
00000200: 07c7 8c3e b739 623f e94e 093f 7935 52bf
00000210: e3d4 b3be bc38 7fc0 3fd5 67c0 c67c 0cc0
00000220: 8883 d1be a9b4 f0be aeeb a4bd 8e14 be3e
00000230: 9fd6 943d 7eb9 f1be 9837 c0be 473f 4e3e
00000240: 71e5 a03d a65b 9e3e 0694 97be 29bb 2dbf
00000250: 1124 9abd 276e 0a3e 5371 9f3e 8508 62bf
00000260: 15ba a93e f1d1 323d 8069 7dbd 860e bb3e
00000270: 4b36 9dbe 4f3c b5be 357c 503e 3b26 183f
00000280: 1156 163f 22f2 e83e 8d34 053f f3bc bd3e
00000290: 54fe bb3e c103 5c3d d7d7 0d3e 46ab cabe
000002a0: 2232 eebd c868 7cbe 53a8 473e 4d57 a5be
000002b0: ac1b 9cbd 18ac b9be b6bc e43d aa5d 1abd
000002c0: 6556 323c 8dd4 84be 6279 e33d d06d fe3d
000002d0: 8753 f0bd 35fd 27be 4cf4 13be 1db2 693d
000002e0: b3b8 f0bd bfa6 fdbd c09d 173d 683c 3cbe
000002f0: bf63 7cbe e353 3fbd eec6 043e d593 a63e
00000300: ee0d 32bd a715 94bc dfa8 3cbc 9943 2d3d
00000310: 7219 3f3c 5f78 2abd a8d1 b5bb 9107 223d
00000320: 0879 30bc f3b1 dfbc 8754 963c 089d 2abd
00000330: f57e 233d 18bd c83c 2284 69bb 96a5 1abd
00000340: 49df bcbc 50df e33c 7551 a93c 3ee3 36bc
00000350: 853e 7b3b 1ddc 86bc f613 30bd c74f e43c
00000360: 5c31 253c 1bb7 abbc a0ff 09bd 445a 313b
00000370: ea89 a7bb e6fc b3bc 5a74 133d 474b 04bd
00000380: bdf0 3fbc fdfd 0abd 9b96 2abc c890 2cbc
00000390: ae76 17bd 612a d7bc 36d7 123d 4017 9b3b
000003a0: 3700 a5bc 8571 de3b 9a67 c83c d027 ba3a
000003b0: 47a9 1b3d cd3c 69bb 33a9 bbbc db26 85bc
000003c0: a02b f73b 3a1d 003c f2a1 3ebb fad1 1b3d
000003d0: c026 fabc 6f3b 07bd 90d0 333c dcf5 2dbd
000003e0: 46d9 cb3c 2ea4 8bbc b068 aa3b 3966 31bd
000003f0: 9880 223b b2df 9e3a b0a5 03bd d28f 2e3d
-0.25032994 -1.4506934 -0.21858297 0.31649375 0.35877264 0.27131444 -0.15563697 -0.5247022
-0.69676626 -0.9656508 -0.648079 -0.7344322 -0.089996316 -0.27074525 -0.35850367 -1.1568497
-0.2026867 -0.056563184 -0.56184214 -0.63722926 -0.800268 -0.9182238 -0.8873076 -1.2097734
-0.43643817 -0.72761464 -0.12947647 -0.2685293 -0.62110555 -0.7695651 -0.7238612 -1.0229816
-0.120693736 -0.05644562 -0.05120044 -0.16497788 -0.43074423 -0.38824695 -0.62433285 -0.50710183
0.35599285 -0.44030026 0.088333994 -0.28918257 -0.45182002 -0.4469026 -1.1244504 -0.5581043
0.49412537 -0.15033932 -0.19566244 0.046287283 -0.0957458 0.031465374 -0.5378869 -0.52673507
-0.01927049 0.35370237 0.19286914 0.19606136 0.15876275 0.2731239 -0.19929095 -0.15571366
-1.00649 -1.1744252 -0.07941668 0.4865091 0.43032798 0.4655144 0.4715624 0.99940246
-1.9710306 0.43750343 0.6733199 0.48962066 0.29054555 0.15074474 0.060447905 0.05073513
0.8533521 0.6737984 0.27769637 0.4988172 0.6903405 0.7217951 0.50084054 0.11692716
0.07026092 0.21282311 0.34213886 0.21864696 0.2096516 0.21664079 0.8206717 -0.058114097
0.24695528 0.22473912 0.15412596 -0.043941405 0.21466607 -0.05220379 0.26309568 -0.18115035
-0.7485746 -0.48306766 0.017544536 -0.16881037 0.09363087 0.17375098 0.19149038 0.09192855
-0.6188461 -0.15974851 0.06717381 0.049803473 -0.36901063 -0.06688617 -0.3945261 -0.5055956
-0.042157542 -0.05549566 0.20035954 0.20097831 -0.011988986 -0.0266931 -0.30453187 0.09738441
0.27495596 0.88369316 0.5363603 -0.8211284 -0.35123357 -3.9878378 -3.6223905 -2.1951156
-0.40920663 -0.47012833 -0.08052765 0.37125057 0.07267498 -0.47211832 -0.37542415 0.20141326
0.078562625 0.30929297 -0.2960512 -0.6786371 -0.0752641 0.13518582 0.31141147 -0.8829425
0.33149782 0.043657247 -0.06186819 0.36534518 -0.30705485 -0.35397574 0.20359881 0.59433335
0.58725077 0.45497233 0.5203331 0.3705822 0.36717474 0.053714518 0.13851868 -0.39583796
-0.11630656 -0.24649346 0.19497804 -0.32293168 -0.076224655 -0.3626411 0.11168806 -0.03768698
0.010884856 -0.25943413 0.11107136 0.12423289 -0.117346816 -0.16405185 -0.1444866 0.057054628
-0.117539786 -0.1238532 0.037015676 -0.18382418 -0.24647425 -0.04671086 0.1296651 0.32534662
-0.043470316 -0.01807673 -0.011514871 0.042300794 0.0116637815 -0.0416187 -0.0055486746 0.039557997
-0.010771044 -0.027306532 0.018350853 -0.041653663 0.039915998 0.02450423 -0.0035631736 -0.03775557
-0.02305569 0.027816445 0.020668725 -0.011162577 0.0038336825 -0.01646238 -0.042987786 0.027870072
0.010082569 -0.020961335 -0.03369105 0.002706186 -0.005112876 -0.021971177 0.035999633 -0.032298353
-0.011715111 -0.03393363 -0.010411884 -0.010532565 -0.036978416 -0.026265325 0.035849772 0.004732996
-0.020141704 0.006788435 0.024463464 0.0014202539 0.038003232 -0.0035589219 -0.022907829 -0.01625388
0.0075430423 0.007819468 -0.0029088226 0.038042046 -0.030536056 -0.033015665 0.010975018 -0.042470798
0.024883877 -0.01704606 0.005200468 -0.043310378 0.0024795886 0.001212111 -0.032140434 0.042617626

bias f4 [29]
00000000: 6f60 533d e68e 87bd e3aa 293d 53fe d73d
00000010: 1b2e 933d 1e33 703d 7920 223d dc7d 4c3e
00000020: 8495 b73d cf07 bdbd ae87 ab3d 9814 d2be
00000030: 00f7 d8be a878 21be 46e7 4fbe cdc7 50be
00000040: 373f aebc b101 473e 7f6f 62be b1fe 893e
00000050: 8e2f 2ebe b53f 3f3d ab67 363e bf82 313e
00000060: 482b 2abd de73 703c 4d24 bdbc 5898 8e3e
00000070: b9b3 39be
0.051605638 -0.066190526 0.041422736 0.10546555 0.07186528 0.0586425 0.03958175 0.19969887
0.08964065 -0.09230005 0.08375488 -0.41031337 -0.42375946 -0.15768683 -0.20303068 -0.20388718
-0.021270378 0.19434239 -0.22112845 0.26952127 -0.17010328 0.046691615 0.17812984 0.17335032
-0.041545182 0.014676062 -0.023088599 0.27850604 -0.18134965
