checkpoints_backup/230906/checkpoint_95.48.pth (torch, 64415 bytes, 6 tensors)

weight f4 [4, 1, 3, 3]
000000 3f e7 56 be ec 26 49 3e 07 69 53 be c9 a5 88 3e
       -0.20986651 0.19643754 -0.20645534 0.26688984
000010 05 2f 6d be ea 63 99 3d d8 a3 20 3e 65 b4 60 3d
       -0.23162468 0.0748976 0.15687501 0.054859538
000020 2c 75 88 be bc ac 8a be 45 11 40 3f d4 85 4f 3f
       -0.26651895 -0.2708491 0.7502635 0.8106358
000030 44 59 4d bf 10 eb 0a bf 9d b1 46 3d 14 0c 47 3d
       -0.80214334 -0.54264927 0.04850923 0.048595503
000040 7d d0 57 bf 4a 88 c8 be 98 f7 20 bd eb b4 1e bf
       -0.843025 -0.3916648 -0.039298624 -0.6199481
000050 19 49 98 3d 91 7c dc 3f f7 40 db 3f 52 62 f6 3f
       0.07435817 1.7225515 1.7129201 1.9248755
000060 a9 ea 0e 40 af 54 1e 40 3e 61 29 40 69 92 b3 3f
       2.2330725 2.4739187 2.6465602 1.4029056
000070 3b 46 ac 3f 8e 3e ff 3f d1 74 87 3f 7d f3 b3 3f
       1.3458933 1.9940965 1.0582525 1.4058682
000080 0b 7d d5 3f 13 28 60 bf 07 27 6a bf f4 9b 1f bf
       1.6678785 -0.8756115 -0.914658 -0.6234734

bias f4 [4]
000000 b0 b4 a3 be 09 41 89 3f 84 b3 bd bf 08 8b 98 bf
       -0.3197379 1.0722972 -1.4820409 -1.1917429

weight f4 [8, 4, 3, 3]
000000 0c 98 98 3d e7 26 e7 bd e2 c9 d1 bd 01 cf 70 bd
       0.07450876 -0.11286717 -0.10243584 -0.058791164
000010 ce 27 18 3d 5a 6e 91 bd 91 79 6d bd 8e ac ff bd
       0.037147336 -0.07101126 -0.057977263 -0.12484084
000020 8d 45 81 3d 9b 2a ab 3f 43 7a fd 3e e6 3f de bf
       0.06312094 1.3372377 0.4950734 -1.736325
000030 46 99 38 3f e1 6d b7 3f 43 d1 b3 3f d2 5e b8 bf
       0.72108877 1.4330407 1.4048237 -1.4403937
000040 91 9d 4c bf 5b b2 0a 40 ad b9 c3 be 24 dd cf 3e
       -0.7992793 2.167136 -0.38227597 0.40598404
000050 4f df 26 3f e5 70 17 bf 03 1a 90 bf 5f e4 0d be
       0.6518449 -0.5915664 -1.1257938 -0.13856648
000060 bd f5 28 3f e7 1d a7 3e d3 b0 a9 be 5d f6 4d 3e
       0.65999967 0.3264 -0.3314272 0.20113511
000070 30 4f 41 3f 08 62 84 3e 96 e4 4e bf d9 90 44 be
       0.75511456 0.25856042 -0.80817544 -0.1919588
000080 e3 83 80 3f c9 7e 21 3f 45 10 74 bf 0c b9 ca be
       1.0040249 0.63084084 -0.95337325 -0.39594305
000090 b4 ed de bd 6e 89 0e 3e 00 98 18 3d ac a9 98 3d
       -0.10885182 0.13919613 0.037254333 0.07454237
0000a0 d8 d1 d3 bd 29 30 00 3d 41 f4 e4 3d e6 de a8 bc
       -0.10342759 0.03129593 0.111794 -0.020614099
0000b0 ed 84 4a 3d de cc 43 be 79 df ed 3e b0 5e 05 3d
       0.049443174 -0.1912112 0.4645956 0.032561004
0000c0 34 c1 c7 3e da b4 80 bd 0a cf a8 be a3 a1 b5 3f
       0.3901459 -0.06284495 -0.32970458 1.4189953
0000d0 ab 60 a0 3e 42 f7 b6 3e 93 2d 6b 3f fe b8 62 3f
       0.31323752 0.35735518 0.91866416 0.88563526
0000e0 30 1a 72 be 60 2a 0d bf 60 2b 82 bf 6f c9 88 bf
       -0.23642802 -0.55142784 -1.0169487 -1.0686473
0000f0 ac 68 39 bf 94 d3 4d 3d 1b 4a 18 3f d1 6c fa 3e
       -0.7242534 0.050250605 0.59488076 0.48911145
000100 5d 11 ad 3f b2 ec 2d 3f f8 9b 0f 3f d9 ee 4c 3e
       1.3520924 0.67939293 0.56097364 0.20012988
000110 16 59 9b bf b1 64 a8 be 3e 4f b0 bf 0d a9 37 be
       -1.2136562 -0.3288932 -1.3774183 -0.17935582
000120 51 da 58 3d a3 fa 0a bd 01 d7 4b bd 40 66 f0 3c
       0.052942578 -0.033930432 -0.04976559 0.029345632
000130 8c 05 92 bc e1 9a 29 bd d2 99 a6 bc cc f5 1d 3e
       -0.01782491 -0.04140747 -0.02033702 0.15425795
000140 05 c5 6e bd 16 11 ae bd 41 ab a2 bf da 4a a4 bf
       -0.05829336 -0.08499353 -1.2708513 -1.2835343
000150 f1 ed f8 be 89 e9 f4 be 5c 76 86 bf 94 33 2f be
       -0.48619035 -0.47834423 -1.050487 -0.17109519
000160 a6 0b e6 be c5 ae 04 3e dd d8 38 3f 29 1f 5b 3f
       -0.44930762 0.12957294 0.7220591 0.8559442
000170 cd 47 48 3f 56 69 15 bf 43 f2 34 be d1 eb a6 3e
       0.7823456 -0.58363855 -0.1767054 0.3260179
000180 ed 9c af be bd d8 fe bd 6f 31 2b 3e cd d3 7c bf
       -0.34299412 -0.12443683 0.16718076 -0.9876068
000190 a8 46 9c bf 53 4c e1 bf 08 29 99 be b9 3d 09 3f
       -1.2209063 -1.7601417 -0.29914117 0.53609806
0001a0 ae 01 96 3f 34 5e d9 3c 7f 37 4b 3d 04 96 b4 3d
       1.1719263 0.026534177 0.049613472 0.08817676
0001b0 20 2e 0a 3e 7e 35 ce bd 18 ff fd 3d 80 bd b6 bb
       0.13494158 -0.100687966 0.12402171 -0.0055767894
0001c0 93 fd fe 3d 68 b9 cf bd 8b a8 5d bd 7b c4 ba bd
       0.12450709 -0.10142785 -0.054115813 -0.09119507
0001d0 f6 39 d0 bd 45 60 8a bd fb f4 fb bd 97 7e 2e be
       -0.10167305 -0.06756643 -0.12302586 -0.17040478
0001e0 15 5d 61 bd bc e0 db bd d3 fb c5 3d 10 95 96 bd
       -0.05502041 -0.10736224 0.09667172 -0.0735265
0001f0 96 ee 10 3c 4e 69 22 be 3e 7d e4 bd 7e 5e d4 bd
       0.008845946 -0.15860483 -0.111567006 -0.103695855
000200 c3 1c d4 bd f3 6b ba bd 08 1e e8 3b 67 2d 8b 3d
       -0.10357048 -0.09102621 0.007083658 0.06795769
000210 0a 1c 1c be 37 a7 19 be a8 4b 88 bd f3 de f8 bd
       -0.15245071 -0.15005194 -0.06655055 -0.12151899
000220 76 4f 98 bd 54 93 aa bd 56 d3 02 bc 3a a5 27 be
       -0.07437031 -0.08328882 -0.007984957 -0.16371623
000230 d2 71 dc 3b 5e d2 a0 bd 13 0f 03 be dc db 0b be
       0.0067274356 -0.07852624 -0.12798719 -0.13658088
000240 b2 a7 1c 3e 40 78 27 be 8b 46 d5 3c 00 00 10 37
       0.15298346 -0.16354465 0.026034614 8.583069e-06
000250 60 e4 96 bd 58 d2 c5 bd 70 bc 27 3e 76 5a 6d 3d
       -0.07367778 -0.096592605 0.16380477 0.0579476
000260 96 c6 53 3c 8e cd 08 bc 10 47 d0 bd 40 97 13 be
       0.012925765 -0.008349789 -0.10169804 -0.14413166
000270 47 59 22 be 7d 8d 29 be 02 fc 80 bc 4f 18 39 3d
       -0.15854369 -0.1655788 -0.015745167 0.045189198
000280 5b 60 cb bc 4c 1d e7 bd f3 da 53 3d 6f 96 95 3c
       -0.02482622 -0.11284885 0.051722478 0.018260209
000290 99 07 a5 bd 70 90 6d bc 50 3c 22 be d0 6c 8f bd
       -0.0805809 -0.014499769 -0.1584332 -0.07003176
0002a0 d4 5a 0f be 54 5c 77 bd 95 4b ae 3d 5a 47 e3 bd
       -0.13999492 -0.060390785 0.0851051 -0.110975936
0002b0 0a 2c 43 be d9 d7 fa 3c 36 55 1b bd b7 4c b6 3d
       -0.19059768 0.030620502 -0.03792306 0.08901351
0002c0 1c 29 f0 bc fc df fe bd 9e 50 32 bd f6 97 45 be
       -0.029316477 -0.124450654 -0.043533914 -0.1929625
0002d0 13 b9 d6 bd 6e 9c db bd 2f 95 34 bd d5 3a f1 bd
       -0.10484519 -0.10723196 -0.044087585 -0.117787994
0002e0 b7 58 0a 3e 71 90 1a be e2 00 c8 bc 40 3f 4c 3d
       0.13510405 -0.15094163 -0.024414483 0.049865007
0002f0 5d 91 79 3d db 7f 4b 3f 50 e9 08 be d4 7b 04 bf
       0.060929645 0.79491967 -0.13370252 -0.51751447
000300 ce 4c 64 3f b9 aa e4 be 72 b5 81 bf 9b dd 8a 3f
       0.89179695 -0.446615 -1.0133498 1.0848879
000310 86 c1 8c 3e 5d 92 9e 39 74 70 b1 bd 77 be a3 be
       0.27491397 0.00030245158 -0.08664027 -0.3198125
000320 c4 ac 0a 3f 47 2f 2a bf 22 72 54 bd cc 41 eb 3e
       0.5416987 -0.6647839 -0.051866658 0.45948637
000330 b7 59 73 be 54 dc aa 3e c0 e6 e6 3e ec 88 02 bf
       -0.23764692 0.33371222 0.45097923 -0.50990176
000340 29 f1 3b bf e5 e8 2a 3e c3 60 27 bf 37 f3 cc be
       -0.73414856 0.16690405 -0.6538202 -0.40029308
000350 41 ac a8 3e cc c0 e0 be b5 fd e0 3d c9 1c 48 3f
       0.3294392 -0.43897092 0.10985891 0.7816892
000360 e8 bd af 3d fc c7 16 3e 0d 5c f0 3d f6 6c ec bd
       0.085811436 0.14724725 0.11736307 -0.1154422
000370 86 e2 14 3d d3 fa 44 3d d2 d5 00 be c1 cf a4 3d
       0.036348842 0.048090767 -0.12581566 0.080474384
000380 00 f4 24 bd 7b 5c 07 c0 f7 21 71 c0 52 88 83 c0
       -0.04027176 -2.1150196 -3.767698 -4.1103907
000390 d8 f3 a0 bd 99 92 8f bf 3d 72 33 bf 78 51 05 c0
       -0.078590095 -1.1216613 -0.7009619 -2.0830975
0003a0 35 70 15 c0 ca bf b3 bf d2 53 a2 be 4f 1f 74 3e
       -2.3349736 -1.4042904 -0.31704575 0.23840068
0003b0 14 f4 d8 3e b3 23 50 be b5 34 45 3e 55 54 e6 3d
       0.42373717 -0.20326118 0.19258387 0.11246554
0003c0 c8 f9 5a 3e 03 64 1e 3e 10 87 06 be dc 1b 29 bd
       0.21384346 0.15467839 -0.1313746 -0.041286334
0003d0 db ac 04 3e d4 ab 30 be f7 dd a4 3c 0e e5 5c 3f
       0.12956564 -0.17253047 0.020125372 0.8628701
0003e0 de 43 75 3f 1f f7 68 3e 70 3f e6 bd 49 f2 12 be
       0.9580668 0.22750519 -0.112425685 -0.14350237
0003f0 81 ee 80 bd 76 87 82 bd 07 29 05 bd fe d8 01 be
       -0.06295491 -0.063734934 -0.03250983 -0.12680432

bias f4 [8]
000000 70 be 9f bf df 4c 21 3f 37 69 66 bf 2b 69 05 be
       -1.2479992 0.6300792 -0.90004295 -0.130284
000010 d7 e1 2b be 6c 4d 52 be e3 e7 6c bf fc 8c a6 3f
       -0.1678537 -0.20537347 -0.9254133 1.3011775

weight f4 [29, 512]
000000 4d 47 32 be d5 e4 ce bf c7 c0 6b be cf 78 b0 3e
       -0.17410012 -1.6163584 -0.23022757 0.3446717
000010 91 27 ba 3e d4 f8 96 3e ed 55 4a be 84 b7 14 bf
       0.36358312 0.29486716 -0.1975934 -0.5809252
000020 f2 ae 40 bf 25 9d 7a bf 4d 23 27 bf 85 2c 3a bf
       -0.75266945 -0.97896034 -0.6528824 -0.7272418
000030 1e 3d 97 bd 35 72 9e be 13 51 cc be 4e 12 a1 bf
       -0.07384704 -0.30946508 -0.39905605 -1.2583711
000040 a9 02 82 be 14 3e 8c bd f5 92 0c bf 8e dd 1e bf
       -0.25392655 -0.06847778 -0.5491174 -0.62056816
000050 b2 89 56 bf 77 18 6a bf 17 04 60 bf 9b 51 9e bf
       -0.83803856 -0.9144358 -0.8750624 -1.2368654
000060 f2 97 db be 4d 02 48 bf cc 50 24 be 89 2b 87 be
       -0.42889363 -0.7812851 -0.16046447 -0.26400402
000070 eb e5 2f bf 24 cb 53 bf c1 86 3c bf cf 72 90 bf
       -0.687102 -0.82731843 -0.7364312 -1.1285037
000080 19 75 1c be a5 14 c5 bd d1 ce 62 bb 28 5d 16 be
       -0.15279044 -0.09623078 -0.0034608135 -0.14683974
000090 3f b1 f3 be 90 e4 ae be 68 57 1c bf 0e 03 05 bf
       -0.47596166 -0.34158754 -0.6107087 -0.51957786
0000a0 3e 60 e5 3e 19 8d 08 bf bc 9e e4 3d fc e0 a5 be
       0.4479999 -0.533403 0.11163089 -0.32398212
0000b0 36 a4 f4 be 7f 0d e5 be ee 30 93 bf f9 5a 0e bf
       -0.47781533 -0.4473686 -1.1499307 -0.55607563
0000c0 17 1f 12 3f dd f5 02 be cb 59 07 be c0 f2 2f 3d
       0.5707869 -0.12789102 -0.13217847 0.042956114
0000d0 6c c4 7f bd 1d 66 13 3d 85 90 0a bf 16 3c 13 bf
       -0.062443182 0.035986055 -0.5412677 -0.5751356
0000e0 cc a9 89 bc 80 91 bb 3e 85 92 43 3e b8 3a 33 3e
       -0.016804598 0.36634445 0.19098862 0.17502868
0000f0 11 ae 2c 3e 85 a4 81 3e de 48 4f be 4a 2c 23 be
       0.16863276 0.2532083 -0.2024264 -0.15934864
000100 76 f3 80 bf 01 45 a2 bf 9b c8 13 be f5 10 02 3f
       -1.0074298 -1.2677308 -0.14431994 0.50807124
000110 39 8b da 3e 9e 07 f0 3e 4e 06 fb 3e b3 f4 86 3f
       0.42684343 0.4688081 0.49028248 1.0543426
000120 1e 50 13 c0 5f 55 00 3f 20 60 31 3f ad 79 05 3f
       -2.301765 0.50130266 0.692873 0.5213879
000130 b4 7a 97 3e 9e 60 23 3e f0 ec e4 3d 54 ec a4 3d
       0.29585803 0.15954825 0.11178005 0.080528885
000140 6c f1 66 3f 86 46 30 3f 23 47 94 3e 9c 96 05 3f
       0.9021213 0.6885761 0.28960523 0.52182937
000150 2c bd 3e 3f fd 5f 40 3f 5e 9a 08 3f 22 a9 01 3e
       0.74507403 0.75146466 0.53360546 0.12662175
000160 cf ca 1d 3e 48 79 51 3e da 20 a5 3e 43 0f 4c 3e
       0.15409397 0.20456421 0.32251626 0.19927697
000170 02 00 38 3e 55 ea 69 3e 5e bc 5e 3f bf 56 cd bc
       0.17968753 0.22843297 0.87006176 -0.025065778
000180 eb 67 7c 3e c2 05 70 3e cc 0d 3f 3e bd 06 ef bc
       0.24649017 0.23439696 0.18657607 -0.029178018
000190 f4 a3 62 3e 99 6a b3 bc f4 e3 87 3e 6b 36 2c be
       0.22132856 -0.021901416 0.26541102 -0.16817634
0001a0 91 74 4e bf df 5e 06 bf 8f 4f 6f bc 3f 93 17 be
       -0.80646616 -0.5248851 -0.014606371 -0.14802264
0001b0 a7 bc 05 3e 2e cc 19 3e be 22 55 3e 28 b6 80 3d
       0.13060246 0.15019295 0.20814034 0.062847435
0001c0 b3 fc 2c bf 9d 7c d2 bd 83 f4 59 3d e5 0b 9c 3d
       -0.6757309 -0.10277674 0.0532117 0.07619456
0001d0 16 32 cf be 17 6f 53 bd 6e 3c ce be 25 e1 07 bf
       -0.404679 -0.051619615 -0.4028048 -0.5307792
0001e0 dd 63 0f bd 01 65 57 bd b5 fc 68 3e fa 72 6c 3e
       -0.035007346 -0.05258656 0.2275265 0.23090735
0001f0 de 1d d0 bb 56 a6 fa bc be bd dd be ce ad d1 3d
       -0.0063512167 -0.030596893 -0.43308824 0.10238229
000200 10 8d 9c 3e 9d 01 82 3f be cc 14 3f ae ea 50 bf
       0.30576372 1.0156742 0.5812491 -0.8160809
000210 87 af b7 be a7 54 80 c0 4c 29 84 c0 d6 d2 13 c0
       -0.35876104 -4.0103335 -4.130041 -2.3097434
000220 c3 5d eb be 7e b9 06 bf 56 b8 8c bd 13 9d dd 3e
       -0.45969972 -0.5262679 -0.06871097 0.432839
000230 fe 86 fc 3d 42 1a f2 be 62 2d cd be 7f 8d 74 3e
       0.12330435 -0.47285658 -0.40073687 0.23882101
000240 b3 3c 9b 3d 73 0a ba 3e 34 57 85 be 1d f9 26 bf
       0.07579937 0.36336097 -0.26043093 -0.65223867
000250 ee fe 9f bd 18 5a 27 3e 89 d7 c1 3e 33 b2 82 bf
       -0.07812296 0.16342962 0.37859753 -1.0210632
000260 d1 a7 b6 3e 7f 9a b0 3d a2 37 9b bd a2 7c cd 3e
       0.3567491 0.08623218 -0.075789705 0.4013415
000270 e4 20 8b be a3 c0 e6 be a4 2d 7e 3e 2c f1 31 3f
       -0.2717353 -0.45068845 0.24822098 0.69508624
000280 ba 93 28 3f f0 bb 08 3f c7 42 20 3f 75 77 aa 3e
       0.6585041 0.5341177 0.62601894 0.33294263
000290 a9 3d c8 3e 8d 9d a7 3c d9 12 1f 3e 38 b8 de be
       0.39109543 0.020460868 0.15534534 -0.43499923
0002a0 ae 5c 02 be 8e 2d 9c be eb 04 5b 3e 42 c0 ae be
       -0.12730667 -0.30503505 0.21388595 -0.34131056
0002b0 d8 44 8b bd c2 e2 d0 be dd 6a a7 3d 9b c9 8e bd
       -0.0680024 -0.40798002 0.081746794 -0.06972047
0002c0 03 0b b5 3b 33 4a a3 be 8a ee 10 3e b4 6f 2e 3e
       0.0055249943 -0.31892547 0.14153495 0.17034799
0002d0 f3 18 23 be 06 d8 60 be 9d 92 30 be cb 9d be 3d
       -0.15927486 -0.21957406 -0.17243429 0.0930744
0002e0 52 fc 0b be 71 e6 0c be 0f fa bd 3c 56 3a 3d be
       -0.13670471 -0.13759781 0.023190526 -0.18479285
0002f0 29 f4 4a be da 07 0b bd b2 45 1f 3e 51 8f b6 3e
       -0.19819702 -0.033943035 0.1555393 0.35656217
000300 ee 0d 32 bd a7 15 94 bc df a8 3c bc 99 43 2d 3d
       -0.043470316 -0.01807673 -0.011514871 0.042300794
000310 72 19 3f 3c 5f 78 2a bd a8 d1 b5 bb 91 07 22 3d
       0.0116637815 -0.0416187 -0.0055486746 0.039557997
000320 08 79 30 bc f3 b1 df bc 87 54 96 3c 08 9d 2a bd
       -0.010771044 -0.027306532 0.018350853 -0.041653663
000330 f5 7e 23 3d 18 bd c8 3c 22 84 69 bb 96 a5 1a bd
       0.039915998 0.02450423 -0.0035631736 -0.03775557
000340 49 df bc bc 50 df e3 3c 75 51 a9 3c 3e e3 36 bc
       -0.02305569 0.027816445 0.020668725 -0.011162577
000350 85 3e 7b 3b 1d dc 86 bc f6 13 30 bd c7 4f e4 3c
       0.0038336825 -0.01646238 -0.042987786 0.027870072
000360 5c 31 25 3c 1b b7 ab bc a0 ff 09 bd 44 5a 31 3b
       0.010082569 -0.020961335 -0.03369105 0.002706186
000370 ea 89 a7 bb e6 fc b3 bc 5a 74 13 3d 47 4b 04 bd
       -0.005112876 -0.021971177 0.035999633 -0.032298353
000380 bd f0 3f bc fd fd 0a bd 9b 96 2a bc c8 90 2c bc
       -0.011715111 -0.03393363 -0.010411884 -0.010532565
000390 ae 76 17 bd 61 2a d7 bc 36 d7 12 3d 40 17 9b 3b
       -0.036978416 -0.026265325 0.035849772 0.004732996
0003a0 37 00 a5 bc 85 71 de 3b 9a 67 c8 3c d0 27 ba 3a
       -0.020141704 0.006788435 0.024463464 0.0014202539
0003b0 47 a9 1b 3d cd 3c 69 bb 33 a9 bb bc db 26 85 bc
       0.038003232 -0.0035589219 -0.022907829 -0.01625388
0003c0 a0 2b f7 3b 3a 1d 00 3c f2 a1 3e bb fa d1 1b 3d
       0.0075430423 0.007819468 -0.0029088226 0.038042046
0003d0 c0 26 fa bc 6f 3b 07 bd 90 d0 33 3c dc f5 2d bd
       -0.030536056 -0.033015665 0.010975018 -0.042470798
0003e0 46 d9 cb 3c 2e a4 8b bc b0 68 aa 3b 39 66 31 bd
       0.024883877 -0.01704606 0.005200468 -0.043310378
0003f0 98 80 22 3b b2 df 9e 3a b0 a5 03 bd d2 8f 2e 3d
       0.0024795886 0.001212111 -0.032140434 0.042617626

bias f4 [29]
000000 f1 75 4b 3d e6 b2 92 bd 4a c5 3f 3d 2b da f2 3d
       0.049673025 -0.071630284 0.04681901 0.118580185
000010 e4 1a c3 3d 26 94 96 3d f6 e5 f9 3c e6 cd 62 3e
       0.09526613 0.07352476 0.030505162 0.22148857
000020 61 80 b8 3d a9 39 ca bd a9 5c b2 3d 0e 29 e0 be
       0.09008861 -0.09874279 0.0870908 -0.43781322
000030 0a 00 ec be 89 53 2c be 48 a5 69 be 09 ed 5a be
       -0.4609378 -0.16828741 -0.22816956 -0.21379484
000040 92 14 a8 bc b8 01 63 3e 95 74 81 be 5e 3b 95 3e
       -0.020517621 0.22168624 -0.25284258 0.29146856
000050 c2 39 41 be 5b b8 53 3d f9 b9 53 3e e6 2e 3c 3e
       -0.18869689 0.051689487 0.20676412 0.18377265
000060 f5 c4 26 bd 0c 81 94 3c 92 16 03 bd 76 aa 93 3e
       -0.040715177 0.01812794 -0.032003947 0.2884099
000070 4b bb 4e be
       -0.20188634
