checkpoints_backup/230906/checkpoint_97.56.pth (torch, 64415 bytes, 6 tensors)

weight f4 [4, 1, 3, 3]
000000 3f e7 56 be ec 26 49 3e 07 69 53 be c9 a5 88 3e
       -0.20986651 0.19643754 -0.20645534 0.26688984
000010 05 2f 6d be ea 63 99 3d d8 a3 20 3e 65 b4 60 3d
       -0.23162468 0.0748976 0.15687501 0.054859538
000020 2c 75 88 be 8d 6d 87 be 09 a3 47 3f 76 ba 65 3f
       -0.26651895 -0.26450768 0.77983147 0.8973764
000030 e0 c6 62 bf 46 2c 23 bf ee d9 53 3d 0c a6 ac 3d
       -0.8858471 -0.6373943 0.051721506 0.084301084
000040 09 2f 71 bf 1d 8b e3 be f6 ee c3 bd 96 16 47 bf
       -0.94212395 -0.44442073 -0.095670626 -0.7776884
000050 c1 d8 51 bd 28 14 e5 3f 3b bf e3 3f bb c4 e5 3f
       -0.051232103 1.7896776 1.7792734 1.7950662
000060 c4 58 05 40 83 5c 1e 40 a5 d4 26 40 4e 40 b2 3f
       2.0835428 2.4743965 2.6067288 1.3925874
000070 b7 ea b9 3f d9 9b 08 40 6a 09 8b 3f 88 6b c4 3f
       1.4524754 2.1345122 1.0862248 1.5345316
000080 63 2a df 3f 46 ea 69 bf 5e 05 80 bf 6d 31 33 bf
       1.743481 -0.913731 -1.0001638 -0.6999729

bias f4 [4]
000000 b0 b4 a3 be a8 3c 9a 3f 6e b8 b4 bf 9e 35 a0 bf
       -0.3197379 1.2049761 -1.4118783 -1.2516363

weight f4 [8, 4, 3, 3]
000000 0c 98 98 3d e7 26 e7 bd e2 c9 d1 bd 01 cf 70 bd
       0.07450876 -0.11286717 -0.10243584 -0.058791164
000010 ce 27 18 3d 5a 6e 91 bd 91 79 6d bd 8e ac ff bd
       0.037147336 -0.07101126 -0.057977263 -0.12484084
000020 8d 45 81 3d 47 5a a9 3f 8e 65 ff 3e 0c 91 f7 bf
       0.06312094 1.3230675 0.49882168 -1.934114
000030 7f 0c 78 3f b1 e7 bf 3f 36 26 ad 3f 98 e2 c7 bf
       0.9689407 1.4992582 1.3527286 -1.5616026
000040 e1 15 8e bf 14 5d 1b 40 46 45 e9 be 10 99 09 3f
       -1.1100427 2.427556 -0.45560664 0.5374918
000050 b3 c3 35 3f cb 67 20 bf aa 19 a1 bf f7 a0 3b be
       0.7100174 -0.62658376 -1.2585957 -0.18323122
000060 dc c4 1e 3f c9 4a ea 3e 4c b4 ab be e2 d2 54 3e
       0.62019134 0.45760182 -0.33535993 0.2078357
000070 26 2a 4a 3f 6f c1 28 3e 47 aa 5b bf 23 83 3f be
       0.78970563 0.16480039 -0.858067 -0.18702368
000080 4f 29 86 3f fe 5c 36 3f 01 a8 81 bf 20 63 b7 be
       1.0481356 0.71235645 -1.0129396 -0.35817814
000090 b4 ed de bd 6e 89 0e 3e 00 98 18 3d ac a9 98 3d
       -0.10885182 0.13919613 0.037254333 0.07454237
0000a0 d8 d1 d3 bd 29 30 00 3d 41 f4 e4 3d e6 de a8 bc
       -0.10342759 0.03129593 0.111794 -0.020614099
0000b0 ed 84 4a 3d f6 53 73 be f5 30 e8 3e 6f 65 3b 3d
       0.049443174 -0.23762497 0.4534985 0.04575103
0000c0 9a d2 bb 3e 1c 1e 08 bd a2 2e a0 be f5 de bb 3f
       0.36684114 -0.03323184 -0.31285578 1.4677416
0000d0 c9 3a 60 3e 0e 94 56 3e 8c 24 76 3f 48 e3 76 3f
       0.21897425 0.20954916 0.96149516 0.96440554
0000e0 a5 63 89 be ef eb 19 bf 5c 65 8e bf c7 6a 91 bf
       -0.26833835 -0.6012563 -1.1124682 -1.1360711
0000f0 a8 80 4b bf e8 e0 61 3d 9c 94 26 3f 24 fb ec 3e
       -0.7949319 0.055146128 0.6507051 0.46285355
000100 fc c9 bd 3f 48 a8 31 3f d3 fc 11 3f 6c b4 11 3e
       1.4827266 0.693974 0.57026404 0.14228982
000110 76 2c a2 bf 28 cb a0 be 76 4f ba bf 59 67 11 be
       -1.2669818 -0.31404996 -1.45555 -0.1419958
000120 51 da 58 3d a3 fa 0a bd 01 d7 4b bd 40 66 f0 3c
       0.052942578 -0.033930432 -0.04976559 0.029345632
000130 8c 05 92 bc e1 9a 29 bd d2 99 a6 bc cc f5 1d 3e
       -0.01782491 -0.04140747 -0.02033702 0.15425795
000140 05 c5 6e bd 64 7c 3f bd 6f 5a b8 bf 2d 89 8d bf
       -0.05829336 -0.046749488 -1.4402598 -1.1057488
000150 d0 b8 0c bf 22 3e c1 be 6d 85 59 bf df 83 c3 be
       -0.549695 -0.37742716 -0.84969217 -0.38186547
000160 77 0c 02 bf 11 da a4 3e 79 69 66 3f 56 57 8b 3f
       -0.5080027 0.3219762 0.9000469 1.0886028
000170 74 4f 63 3f 58 87 31 bf 19 c8 80 be fe 75 b8 3e
       0.8879311 -0.69347143 -0.25152662 0.3602752
000180 90 05 e9 be 2b 8d 07 be ec b8 3a 3e 94 96 84 bf
       -0.45512056 -0.13237445 0.18234605 -1.0358453
000190 dd 98 bc bf 36 88 09 c0 ad 5f c8 be 6f 03 1b 3f
       -1.473415 -2.1489387 -0.39135495 0.60552114
0001a0 87 17 ab 3f 0b 86 d4 3d 9e ef da 3d 87 72 1c 3e
       1.3366555 0.10377129 0.106902346 0.15278064
0001b0 20 2e 0a 3e 7e 35 ce bd 18 ff fd 3d 80 bd b6 bb
       0.13494158 -0.100687966 0.12402171 -0.0055767894
0001c0 93 fd fe 3d 68 b9 cf bd 8b a8 5d bd 7b c4 ba bd
       0.12450709 -0.10142785 -0.054115813 -0.09119507
0001d0 f6 39 d0 bd 45 60 8a bd fb f4 fb bd 97 7e 2e be
       -0.10167305 -0.06756643 -0.12302586 -0.17040478
0001e0 15 5d 61 bd bc e0 db bd d3 fb c5 3d 10 95 96 bd
       -0.05502041 -0.10736224 0.09667172 -0.0735265
0001f0 96 ee 10 3c 4e 69 22 be 3e 7d e4 bd 7e 5e d4 bd
       0.008845946 -0.15860483 -0.111567006 -0.103695855
000200 c3 1c d4 bd f3 6b ba bd 08 1e e8 3b 67 2d 8b 3d
       -0.10357048 -0.09102621 0.007083658 0.06795769
000210 0a 1c 1c be 37 a7 19 be a8 4b 88 bd f3 de f8 bd
       -0.15245071 -0.15005194 -0.06655055 -0.12151899
000220 76 4f 98 bd 54 93 aa bd 56 d3 02 bc 3a a5 27 be
       -0.07437031 -0.08328882 -0.007984957 -0.16371623
000230 d2 71 dc 3b 5e d2 a0 bd 13 0f 03 be dc db 0b be
       0.0067274356 -0.07852624 -0.12798719 -0.13658088
000240 b2 a7 1c 3e 40 78 27 be 8b 46 d5 3c 00 00 10 37
       0.15298346 -0.16354465 0.026034614 8.583069e-06
000250 60 e4 96 bd 58 d2 c5 bd 70 bc 27 3e 76 5a 6d 3d
       -0.07367778 -0.096592605 0.16380477 0.0579476
000260 96 c6 53 3c 8e cd 08 bc 10 47 d0 bd 40 97 13 be
       0.012925765 -0.008349789 -0.10169804 -0.14413166
000270 47 59 22 be 7d 8d 29 be 02 fc 80 bc 4f 18 39 3d
       -0.15854369 -0.1655788 -0.015745167 0.045189198
000280 5b 60 cb bc 4c 1d e7 bd f3 da 53 3d 6f 96 95 3c
       -0.02482622 -0.11284885 0.051722478 0.018260209
000290 99 07 a5 bd 70 90 6d bc 50 3c 22 be d0 6c 8f bd
       -0.0805809 -0.014499769 -0.1584332 -0.07003176
0002a0 d4 5a 0f be 54 5c 77 bd 95 4b ae 3d 5a 47 e3 bd
       -0.13999492 -0.060390785 0.0851051 -0.110975936
0002b0 0a 2c 43 be d9 d7 fa 3c 36 55 1b bd b7 4c b6 3d
       -0.19059768 0.030620502 -0.03792306 0.08901351
0002c0 1c 29 f0 bc fc df fe bd 9e 50 32 bd f6 97 45 be
       -0.029316477 -0.124450654 -0.043533914 -0.1929625
0002d0 13 b9 d6 bd 6e 9c db bd 2f 95 34 bd d5 3a f1 bd
       -0.10484519 -0.10723196 -0.044087585 -0.117787994
0002e0 b7 58 0a 3e 71 90 1a be e2 00 c8 bc 40 3f 4c 3d
       0.13510405 -0.15094163 -0.024414483 0.049865007
0002f0 5d 91 79 3d 09 fb 7e 3f d0 cd 3b be a5 f6 26 bf
       0.060929645 0.996018 -0.1834023 -0.652201
000300 73 95 8a 3f 35 3d 1f bf 4b 90 9d bf 83 9f a1 3f
       1.0826858 -0.6220277 -1.230966 1.2626804
000310 1d 36 61 3e ab a5 f6 bc b7 2b 3e bd 3f fe bb be
       0.21993299 -0.030108294 -0.04642841 -0.36717412
000320 53 49 15 3f b3 b9 32 bf ba 77 cb bd e0 6b f5 3e
       0.5831501 -0.69814605 -0.099349454 0.47933865
000330 76 31 74 be e7 43 a3 3e 39 eb f5 3e fe cf e9 be
       -0.23846993 0.31887743 0.48031023 -0.45666498
000340 fd 8b 3b bf 6b 83 61 3e d3 93 2f bf 22 67 f2 be
       -0.7326048 0.22022788 -0.68584937 -0.4734431
000350 c7 7f 91 3e c0 5d dc be da 48 05 3e 2a c2 57 3f
       0.284178 -0.43040276 0.13016072 0.84280646
000360 e8 bd af 3d fc c7 16 3e 0d 5c f0 3d f6 6c ec bd
       0.085811436 0.14724725 0.11736307 -0.1154422
000370 86 e2 14 3d d3 fa 44 3d d2 d5 00 be c1 cf a4 3d
       0.036348842 0.048090767 -0.12581566 0.080474384
000380 00 f4 24 bd 01 98 0c c0 e7 fe 80 c0 48 62 83 c0
       -0.04027176 -2.1967776 -4.031116 -4.105747
000390 29 e9 50 3d 4b e2 88 bf 48 3b 18 bf 3d fc 11 c0
       0.05100361 -1.0694059 -0.59465456 -2.2810204
0003a0 bc 6f 21 c0 9c f6 a9 bf 31 a4 b2 be 51 97 8f 3e
       -2.5224447 -1.3278384 -0.34890893 0.28045133
0003b0 71 9c f9 3e 0b 70 89 be a0 08 30 3e 58 c5 d3 3d
       0.48752168 -0.26843295 0.1719079 0.10340375
0003c0 bc ad 70 3e 8d 76 3a 3e 30 44 1a be 70 30 ff bd
       0.23503774 0.18209286 -0.15065074 -0.124604106
0003d0 bd 4f 65 3e b6 48 93 be 43 62 ce 3a df f3 74 3f
       0.22393699 -0.28766412 0.0015745837 0.9568462
0003e0 9d 28 85 3f 1c eb bd 3e 4e 3c 3b bd 60 b4 e9 bd
       1.0403019 0.37093437 -0.045711808 -0.11411357
0003f0 81 ee 80 bd 76 87 82 bd 07 29 05 bd fe d8 01 be
       -0.06295491 -0.063734934 -0.03250983 -0.12680432

bias f4 [8]
000000 10 d3 d7 bf ae 54 40 3f e1 f8 87 bf 2b 69 05 be
       -1.6861286 0.7512921 -1.0622827 -0.130284
000010 d7 e1 2b be b4 bd 7c be 0e 8c 90 bf a0 ee b7 3f
       -0.1678537 -0.24681741 -1.1292741 1.4369698

weight f4 [29, 512]
000000 9e 40 fb 3d fa de 0b c0 2e ed 87 be 47 80 f0 3e
       0.12268184 -2.1854844 -0.2654814 0.46972868
000010 70 d3 d7 3e 9e d9 ac 3e 13 b8 b5 be 01 64 2f bf
       0.42153502 0.3375978 -0.35492 -0.6851197
000020 a6 a8 50 bf df 88 95 bf 95 e2 29 bf c1 80 50 bf
       -0.8150734 -1.1682395 -0.6636136 -0.8144646
000030 6c a5 e7 bd b1 71 e8 be 6c 8f fe be 87 85 ae bf
       -0.113108486 -0.4539924 -0.49718797 -1.3634499
000040 f8 36 d4 be 70 67 05 be f9 d9 29 bf cf 12 2b bf
       -0.41448188 -0.1302774 -0.66348225 -0.66825575
000050 65 93 78 bf 8b 3b 97 bf f7 6a 99 bf 95 1f a4 bf
       -0.97099906 -1.1815046 -1.1985768 -1.2822138
000060 e3 1f d2 be a7 72 7d bf a0 31 7c be e4 ac 52 be
       -0.41039953 -0.9900307 -0.24628305 -0.20573765
000070 ab cf 4c bf c8 43 5b bf 95 21 41 bf 76 78 a2 bf
       -0.80004376 -0.856503 -0.7544187 -1.2693012
000080 61 f9 79 be bf b5 42 be da b3 5f bd 8d 80 71 be
       -0.24411537 -0.19014643 -0.05461488 -0.23584194
000090 f9 e4 11 bf 51 f8 cb be 35 24 32 bf 54 46 0b bf
       -0.5699001 -0.39837888 -0.695865 -0.5440419
0000a0 6e 93 37 3f 13 e7 49 bf cf 9d 54 3e d0 3e e9 be
       0.71709335 -0.78868216 0.20763324 -0.45555735
0000b0 32 a1 06 bf 3a 4b e7 be 10 4b 88 bf 76 a5 3c bf
       -0.52589715 -0.4517458 -1.0647907 -0.73689973
0000c0 1e 8e 72 3f 3a d4 82 3c 31 d3 03 be 02 c6 e4 3c
       0.94748104 0.015970338 -0.12873532 0.027926449
0000d0 08 45 83 3b 2f b6 34 3c e4 59 00 bf 25 78 66 bf
       0.004006032 0.011029764 -0.5013716 -0.90027076
0000e0 e8 28 ab bc 20 25 ca 3e 81 7d 25 3e 1c 13 a4 3d
       -0.020893529 0.3948145 0.16161157 0.08011457
0000f0 e5 ff 0a 3e d6 a8 6d 3e 9d e2 1d be ac 94 82 be
       0.13574179 0.23208937 -0.15418477 -0.25504053
000100 a3 a5 84 bf 81 58 cf bf 6c 4a c1 be 65 3e 29 3f
       -1.0363048 -1.6198884 -0.37752092 0.6611083
000110 d2 b2 fb 3e 73 12 f3 3e 04 f3 14 3f 40 89 a3 3f
       0.49159867 0.47475013 0.5818331 1.277626
000120 5b 30 6f c0 ce 35 1c 3f c9 3a 54 3f 52 f2 24 3f
       -3.7373264 0.610196 0.829022 0.6443225
000130 96 80 6d 3e 70 12 1f 3e 1d 7a ba 3d f7 f4 37 3e
       0.23193583 0.15534377 0.091053225 0.1796454
000140 8e 55 81 3f b0 7b 34 3f 01 79 c4 3e 15 12 08 3f
       1.0104234 0.7050123 0.3837357 0.5315259
000150 f8 29 5d 3f 6b bb 5b 3f 5e d6 25 3f 5b 2e 52 3e
       0.86392164 0.8583285 0.64780223 0.20525496
000160 c6 83 10 3e 96 ed 8c 3e e2 bd 9f 3e 03 03 8d 3e
       0.14112768 0.27525014 0.31199557 0.2754136
000170 e0 1c 45 3e 48 ab 96 3e 89 64 83 3f 4f 30 8d bd
       0.19249296 0.29427552 1.0265056 -0.0689398
000180 75 4b 81 3e 15 54 7e 3e bc 1c 6a 3e 99 9c c7 bc
       0.25252882 0.24836762 0.22862524 -0.024366664
000190 fb 48 87 3e ae 04 05 bd f9 52 9d 3e 7c c0 c6 bd
       0.26422867 -0.032475166 0.30727366 -0.09704682
0001a0 81 e5 85 bf af 69 17 bf 8f ae 07 bd 01 1f 3a be
       -1.0460664 -0.59145635 -0.033125456 -0.1817589
0001b0 1e 3f e4 3d 0d b0 31 3e 12 ae 8e 3e b6 6c 61 3e
       0.11144851 0.17352314 0.2786718 0.22014126
0001c0 7f 24 44 bf 3a eb 23 3d fc 91 9b 3c 8c fa 03 bd
       -0.7661819 0.04001925 0.01899051 -0.032221362
0001d0 5a 24 16 bf a2 61 86 bb 72 93 04 bf c8 41 25 bf
       -0.5864922 -0.004100994 -0.51787484 -0.645535
0001e0 13 60 01 bd 15 58 d9 bd 97 f4 33 3e 2f 40 95 3e
       -0.031585764 -0.106125034 0.17573772 0.2915053
0001f0 bc 92 5c 3d 4d 6f 2d bd eb bd 31 bf 3e 17 eb 3d
       0.053850874 -0.042342473 -0.69430417 0.114790425
000200 df d5 cd 3e 5d e2 b3 3f de 87 07 3f 95 5e 82 bf
       0.40202233 1.4053456 0.5294169 -1.0185114
000210 0a b4 ae be 58 b6 7e c0 94 16 b1 c0 39 7e 31 c0
       -0.34121734 -3.9798794 -5.534006 -2.773329
000220 e7 95 08 bf 22 b2 3a bf 83 40 82 bd aa c6 01 3f
       -0.5335373 -0.7292806 -0.06359961 0.5069376
000230 1f 88 99 3e ab c1 02 bf eb e7 f9 be 55 4e ad 3e
       0.29986665 -0.51076764 -0.48809752 0.33848825
000240 cb 17 28 3d 1a 64 0c 3f 49 76 81 be 16 a9 20 bf
       0.041038316 0.5484024 -0.25285557 -0.62758005
000250 23 19 e1 bd ea 92 91 3e b7 e7 02 3f 52 b2 d3 bf
       -0.109911226 0.284324 0.5113482 -1.6538794
000260 53 ae f1 3e 44 3f 30 3e b5 c1 65 be ed 65 02 3f
       0.4720331 0.17211634 -0.22437175 0.50936776
000270 8b e8 2a be 0c 54 27 bf 0b 38 ca 3e 16 80 7a 3f
       -0.1669027 -0.6536262 0.39495882 0.97851694
000280 d2 c9 77 3f 02 39 70 3f 81 21 83 3f 15 79 61 3e
       0.9679233 0.93836987 1.02446 0.22018845
000290 ff 7b fc 3e 00 8e a7 bd 62 61 30 3e 1d d6 1c bf
       0.49313352 -0.08181381 0.17224649 -0.6126421
0002a0 f9 37 29 be 99 8f 42 bf 9b 57 96 3e 61 aa c9 be
       -0.16525258 -0.7600036 0.29363713 -0.393878
0002b0 e7 e3 17 be 1f 7e 1b bf fb cb ff bd 03 b2 8b be
       -0.14833032 -0.6073932 -0.12490078 -0.2728425
0002c0 10 b1 bd bb a4 b1 06 bf 9e 88 5f 3e d2 4c 8c 3e
       -0.0057889298 -0.5261481 0.21829459 0.2740236
0002d0 4b 4b 5d be c8 c2 cc be 4d 8e c0 bd 76 dd 94 3e
       -0.21610753 -0.39992356 -0.09402142 0.2907521
0002e0 af 94 5a be 72 f4 64 be 02 c5 a7 bd 0d ea 39 be
       -0.21345781 -0.22358873 -0.08191873 -0.1815569
0002f0 74 7b 0a be 34 05 0f 3d cf 35 82 3e a6 ee fc 3e
       -0.13523656 0.03491707 0.25431678 0.49400824
000300 ee 0d 32 bd a7 15 94 bc df a8 3c bc 99 43 2d 3d
       -0.043470316 -0.01807673 -0.011514871 0.042300794
000310 72 19 3f 3c 5f 78 2a bd a8 d1 b5 bb 91 07 22 3d
       0.0116637815 -0.0416187 -0.0055486746 0.039557997
000320 08 79 30 bc f3 b1 df bc 87 54 96 3c 08 9d 2a bd
       -0.010771044 -0.027306532 0.018350853 -0.041653663
000330 f5 7e 23 3d 18 bd c8 3c 22 84 69 bb 96 a5 1a bd
       0.039915998 0.02450423 -0.0035631736 -0.03775557
000340 49 df bc bc 50 df e3 3c 75 51 a9 3c 3e e3 36 bc
       -0.02305569 0.027816445 0.020668725 -0.011162577
000350 85 3e 7b 3b 1d dc 86 bc f6 13 30 bd c7 4f e4 3c
       0.0038336825 -0.01646238 -0.042987786 0.027870072
000360 5c 31 25 3c 1b b7 ab bc a0 ff 09 bd 44 5a 31 3b
       0.010082569 -0.020961335 -0.03369105 0.002706186
000370 ea 89 a7 bb e6 fc b3 bc 5a 74 13 3d 47 4b 04 bd
       -0.005112876 -0.021971177 0.035999633 -0.032298353
000380 bd f0 3f bc fd fd 0a bd 9b 96 2a bc c8 90 2c bc
       -0.011715111 -0.03393363 -0.010411884 -0.010532565
000390 ae 76 17 bd 61 2a d7 bc 36 d7 12 3d 40 17 9b 3b
       -0.036978416 -0.026265325 0.035849772 0.004732996
0003a0 37 00 a5 bc 85 71 de 3b 9a 67 c8 3c d0 27 ba 3a
       -0.020141704 0.006788435 0.024463464 0.0014202539
0003b0 47 a9 1b 3d cd 3c 69 bb 33 a9 bb bc db 26 85 bc
       0.038003232 -0.0035589219 -0.022907829 -0.01625388
0003c0 a0 2b f7 3b 3a 1d 00 3c f2 a1 3e bb fa d1 1b 3d
       0.0075430423 0.007819468 -0.0029088226 0.038042046
0003d0 c0 26 fa bc 6f 3b 07 bd 90 d0 33 3c dc f5 2d bd
       -0.030536056 -0.033015665 0.010975018 -0.042470798
0003e0 46 d9 cb 3c 2e a4 8b bc b0 68 aa 3b 39 66 31 bd
       0.024883877 -0.01704606 0.005200468 -0.043310378
0003f0 98 80 22 3b b2 df 9e 3a b0 a5 03 bd d2 8f 2e 3d
       0.0024795886 0.001212111 -0.032140434 0.042617626

bias f4 [29]
000000 cf 26 46 3d f4 e3 0a be 61 3e 89 3d 1b 04 51 3e
       0.048376855 -0.1356352 0.06701351 0.20411722
000010 c3 88 3b 3e 75 a5 2b 3e 4a c0 8d 38 c5 1d 6b 3e
       0.18313889 0.16762336 6.7592206e-05 0.22960575
000020 da b7 c6 3d 0a c3 fd bd b8 20 04 3e de cb 09 bf
       0.09703036 -0.123907164 0.12903106 -0.538267
000030 63 17 1a bf de b4 61 be 80 d9 ad be 1f 8c 8c be
       -0.60191935 -0.22041652 -0.33955002 -0.27450654
000040 12 a2 db bc d3 0e a7 3e 1a 75 be be 31 d6 c9 3e
       -0.02681068 0.32628497 -0.37198716 0.39421228
000050 b6 84 93 be 4d 74 d0 3d 49 07 a3 3e f8 ed 65 3e
       -0.28812188 0.101784326 0.31841496 0.22454059
000060 3b 9a 76 bd 9b 4c fa 3c 0f f1 8a bd 41 93 b2 3e
       -0.06020568 0.030554106 -0.067842595 0.3487797
000070 40 10 81 be
       -0.2520771
