checkpoints-ir/checkpoint_96.35.pth (torch, 48720 bytes, 3 tensors)

weight f4 [4, 1, 3, 3]
000000 86 ff c6 be ea c5 2f bf 3e 7c 31 3e 52 e0 23 bf
       -0.38866824 -0.6866137 0.17332551 -0.6401416
000010 13 a4 2e bd 94 b4 70 3f c3 31 c7 be 7f a8 0e 3f
       -0.042636942 0.9402554 -0.38905153 0.55725855
000020 cc f7 c7 3e c8 22 52 3f 37 46 c7 3f 40 c0 98 3f
       0.39056242 0.8208432 1.5568303 1.193367
000030 fd 45 8c 3f 52 51 c2 3f 21 5b 1f 3f 13 d1 80 3f
       1.0958859 1.5181067 0.62248427 1.0063804
000040 1e 64 a5 3f 6b 97 91 3e b2 d5 d7 3e 8b d5 15 3f
       1.2921178 0.28435835 0.42155224 0.58528966
000050 ba 16 40 3f 26 1c 18 3f af 83 b7 3f 74 26 94 3f
       0.7503468 0.5941795 1.4337062 1.1574235
000060 9b fc 16 3f 61 f1 8d 3f 72 98 22 3f 97 e2 60 3f
       0.58979195 1.1089288 0.63513863 0.8784575
000070 6b 5b ee 3e e7 db 01 3d f0 76 42 3f f1 cd a2 be
       0.4655412 0.031703856 0.75962734 -0.31797746
000080 60 d3 ae be 5b 30 c0 be 89 08 3f be 7f b3 43 bf
       -0.3414564 -0.37536892 -0.186556 -0.76445764

weight f4 [8, 4, 3, 3]
000000 33 38 80 bf bc 92 33 3f 89 a0 92 3f 13 2d 07 be
       -1.0017151 0.70145774 1.1455241 -0.13200788
000010 7d 51 b3 3f 71 94 c8 3f 33 26 5c bd ee de 10 3f
       1.4009243 1.5670301 -0.053747367 0.56590164
000020 f5 33 a2 3e cf c7 de be 7f bd 13 be 9b 97 02 3f
       0.31680265 -0.43511817 -0.14427756 0.5101258
000030 9b 45 f4 bd 7c 69 89 be eb d8 f2 3e 7e 29 1a 3e
       -0.11927339 -0.2683829 0.4743112 0.1505489
000040 49 24 63 be 36 a2 63 3c 6a ec e0 be 58 0c 2c bd
       -0.2218181 0.013893655 -0.4393037 -0.04200396
000050 9f 0d 03 3f e0 7e 3d be c0 09 3d be 32 9b 03 3f
       0.5119266 -0.1850543 -0.1846075 0.51408684
000060 b0 f0 a1 bb b7 4c 50 3c 9e 71 f5 3d 21 27 c9 3c
       -0.0049420223 0.012713603 0.119845614 0.02455479
000070 7b 79 39 bf e8 fd c0 3e 92 fd f3 be 0b af e2 be
       -0.7245099 0.37693715 -0.47654396 -0.44274172
000080 d9 71 c9 3e 13 61 2f be 6e 30 7c be 60 10 3e 3d
       0.3934467 -0.17126875 -0.2462785 0.046402335
000090 a3 41 b2 be de 23 07 bf cc f8 67 3f e6 aa 49 bf
       -0.34815702 -0.52789104 0.9061401 -0.78776395
0000a0 8a 7c 1e 3f cb 7f bf 3f 16 41 09 3f 60 f6 a6 3f
       0.6190878 1.4960874 0.5361494 1.3043938
0000b0 b4 b8 af 3f a5 86 18 3f b2 df 8a be 47 c2 ed be
       1.3728242 0.5958045 -0.2712379 -0.46437284
0000c0 46 15 5c 3d f2 87 99 be 7c b8 af 3b 7c 3b bf be
       0.053731225 -0.2998653 0.0053625684 -0.3735007
0000d0 44 51 07 3c e5 28 af 3e a1 c6 a5 3e 14 45 75 be
       0.008259121 0.34210888 0.32378104 -0.23952132
0000e0 1b 56 fa bd ce da e6 bd e0 b9 85 be ac 1e 1a 3e
       -0.122234546 -0.112722024 -0.26118374 0.15050763
0000f0 cc cd 9d be 2c 64 0a 3e 38 64 0a 3f 61 19 89 3f
       -0.30821073 0.13514775 0.5405917 1.071087
000100 08 08 56 3f 30 07 42 be 8c ab ab 3f c5 ac ef 3d
       0.83606005 -0.18948054 1.3411727 0.11702875
000110 66 93 b6 be d9 3f 35 3e 26 f2 a6 be cc 4f 63 3f
       -0.3565933 0.17700137 -0.3260662 0.88793635
000120 68 e5 d6 3f 63 5c bc 3f 6d 03 76 3f 83 85 47 3f
       1.6788759 1.4715694 0.9609898 0.779381
000130 8e 48 49 3b 32 7e 84 3f 65 39 d4 3c 82 81 81 3f
       0.0030713412 1.0351012 0.025906274 1.0117648
000140 8c 2a bc 3f c7 6e 1c 3e 57 da 28 3e 6d 5c 8e be
       1.4700484 0.15276633 0.1648954 -0.2780489
000150 7a 50 c5 3e bf 3b 41 be 66 04 b4 be 69 99 1e bd
       0.3853796 -0.18870448 -0.35159606 -0.038720522
000160 a4 27 e2 be 09 04 e7 3c 72 7c 4e 3d c3 2f 2d 3e
       -0.44170868 0.028200166 0.05041165 0.16912751
000170 21 76 05 be 61 a9 c2 3e 45 30 89 be 2a 70 2d be
       -0.13033344 0.3801985 -0.2679464 -0.16937318
000180 aa 23 54 3e 20 25 91 be 35 85 93 3e fe 4d 49 3f
       0.2071673 -0.28348637 0.28812566 0.7863463
000190 86 20 b5 3f 0e 1c ae 3f 8a e5 bd 3f b8 9d c3 3f
       1.415055 1.3602312 1.4835675 1.5282507
0001a0 92 42 2e 3f 1f 32 5e 3f c9 a2 c4 3e 3e fb 81 be
       0.6807033 0.8679523 0.38405445 -0.25386995
0001b0 a5 78 86 bf 9d 36 22 3e 35 ef 6a 3e 31 49 f5 be
       -1.0505568 0.15841146 0.22942813 -0.47907403
0001c0 0f 71 a8 3e 90 21 6a bc 11 7a 28 be ef f3 ad be
       0.32898757 -0.0142902285 -0.16452815 -0.3397517
0001d0 a7 19 f8 be 9c 65 25 3b a1 fa 5f be d7 06 9f be
       -0.4845707 0.0025237566 -0.21872951 -0.31059906
0001e0 ec d8 de bd fe cf 56 3b 1f ca 0b 3e 33 87 aa bd
       -0.10881218 0.0032777782 0.13651322 -0.083265685
0001f0 9d f9 0e 3e 2c c8 cc 3e a3 05 36 be fa d9 90 bd
       0.13962407 0.3999647 -0.17775588 -0.07072826
000200 0d 48 37 bd d6 24 26 be ab d2 51 3d f0 f9 25 3e
       -0.044746447 -0.1622499 0.0512263 0.16208625
000210 8b b1 61 3d e0 06 9b 3e 7e 3c 7d 3e fc 47 52 3f
       0.05510096 0.30278683 0.24730107 0.8214109
000220 cf 20 06 3f e0 d4 2f 3f f5 c0 44 3c 6a b6 15 bd
       0.5239381 0.68684196 0.012008895 -0.036550917
000230 b5 56 12 3f 8c 76 9a bd 50 bb 13 3f 30 ec 97 3f
       0.57163554 -0.07542142 0.5770769 1.1868954
000240 e5 87 58 bf 60 d6 f5 be eb 91 2d bf d6 8a a4 3c
       -0.8458236 -0.48015118 -0.6780078 0.020085733
000250 4e 50 bc 3e 6d 3e 71 bd 58 68 75 be f0 93 d7 bd
       0.36780018 -0.058897424 -0.23965585 -0.10526264
000260 de 9f 5f bf 84 ec 49 be a8 b0 9e bd 7d 0f a8 be
       -0.8735331 -0.1971913 -0.07748538 -0.32824317
000270 b1 33 8d 3d 1a 2a d0 3e 19 ae cc 3e 52 ec 26 be
       0.06894625 0.4065712 0.39976576 -0.16301087
000280 f4 84 0b 3e 40 3f 48 be e9 9c 97 bd 58 22 07 be
       0.13624936 -0.19555378 -0.07402975 -0.13196695
000290 75 9b 6a be 48 8b ca bd a8 35 e8 3e 58 c3 b1 3e
       -0.22910865 -0.09889847 0.45353436 0.34719348
0002a0 d8 b3 4d be 2e eb 0f 3c 7b d8 1a bd 15 4b 9c 3e
       -0.20088136 0.008784099 -0.037804108 0.30526033
0002b0 36 ab 86 3d 81 4d 7f 3d 99 29 35 be 53 ee 14 3f
       0.06575625 0.062329773 -0.1769165 0.58176154
0002c0 9b c8 65 3f dc fe 31 bf 4f e1 89 be 1b df af 3e
       0.89759225 -0.6952951 -0.2692971 0.34349903
0002d0 63 73 ff 3e e2 ea 5b 3f 09 f1 89 3e c1 92 26 bf
       0.4989272 0.8590528 0.26941708 -0.6506768
0002e0 49 3d 1f be 71 24 9b bd 1f c4 99 bf 4f f1 73 3d
       -0.15550722 -0.0757531 -1.2012976 0.0595563
0002f0 91 5c 46 3f 19 a7 9b 3e c8 66 d6 3e ff 42 00 3f
       0.77484995 0.30400923 0.4187529 0.5010223
000300 68 de c1 3d 65 8f df bd 71 2d 80 be d6 78 ce be
       0.09466249 -0.10916022 -0.2503467 -0.40326566
000310 cb e7 98 be eb 22 c2 be 82 be 05 3e 46 ce c8 3e
       -0.29864344 -0.37917265 0.13060954 0.39219874
000320 27 27 f2 3e 06 3e a3 3d 48 78 37 be f6 51 3c be
       0.47295496 0.079708144 -0.17916977 -0.1839064
000330 81 7f da be 31 f5 dd be d4 19 19 be 09 14 84 3f
       -0.42675403 -0.4335113 -0.14951259 1.0318614
000340 a8 44 87 3f 63 98 7f 3f cc e2 05 3f ff f8 ed 3e
       1.0567827 0.998419 0.5229919 0.4647903
000350 bd aa a8 3e a7 a3 b5 3d 4b 5e f0 3d 71 11 dd be
       0.32942763 0.08869105 0.11736735 -0.4317737
000360 9c 48 81 3f f7 97 9b 3f 82 91 dc bd bd 0b 87 3e
       1.0100284 1.2155751 -0.10769941 0.26376143
000370 c8 1d 30 3f 72 46 b6 3e 98 98 e6 be 7f 05 21 3e
       0.6879544 0.3560062 -0.45038295 0.15724753
000380 c6 7d b9 3e 8d 45 9a be 5f 78 9e 3e 3c 9b 44 bd
       0.3622877 -0.30131188 0.3095121 -0.047999606
000390 e8 98 5b be e2 eb de 3e d3 9f 7d 3e d0 22 1c bf
       -0.21445048 0.4353934 0.24768 -0.6099062
0003a0 63 cf ac be a4 64 05 bd 79 0a e1 bc b6 30 b5 3e
       -0.33751974 -0.03256668 -0.027470814 0.35388726
0003b0 44 ce e4 bc e3 84 8a be a5 ca 9e 3e 0c ee 09 3f
       -0.027930386 -0.2705451 0.3101398 0.53878856
0003c0 87 7f a8 be bf b2 89 be f0 4e 01 be 22 8c 92 be
       -0.32909796 -0.26894185 -0.12627769 -0.28622538
0003d0 61 a8 00 3d f9 02 a9 3e a9 7c 0e 3c 84 a6 d7 3e
       0.03141058 0.3301008 0.0086967135 0.4211923
0003e0 48 68 41 3f 72 c7 bf be 46 a4 71 be 5e bd fd bd
       0.75549746 -0.37456852 -0.23597822 -0.123896345
0003f0 7c 4f 5e be 8e b9 97 be 1b 5d df be 31 b0 2d be
       -0.21710008 -0.29633754 -0.4362572 -0.16961743

weight f4 [29, 384]
000000 55 e3 09 bd 17 7d c9 bd 42 50 9d 3d f2 08 e6 3c
       -0.033664066 -0.09838312 0.076813236 0.028080437
000010 9e bd 73 be ba c4 bf be 0a ee 10 bf 76 98 77 3e
       -0.23802802 -0.37454778 -0.5661322 0.24179253
000020 8f c2 9c 3d 7d ee 3a 3c 56 03 04 3e 60 24 36 bd
       0.076542966 0.011409399 0.12891898 -0.044468284
000030 65 7d 12 be bc 74 2f bd 03 1f cb 3c ca 47 15 3e
       -0.14305647 -0.042835936 0.024795061 0.14578167
000040 b7 49 8a bd 26 bd ad bd 52 54 88 3d b3 07 bd bd
       -0.06752341 -0.08483343 0.06656708 -0.09229984
000050 4f d4 b4 3d ed 4f 1c bf c8 d9 88 3e 5c 91 39 be
       0.08829557 -0.6105946 0.26728654 -0.18121856
000060 29 11 82 bd 50 fc c2 bc c8 45 cf 3d 76 0c 97 bd
       -0.06350929 -0.023801953 0.101207316 -0.073754236
000070 c1 80 f0 3d 31 b3 b3 be 85 24 e5 3e 33 6d 30 3d
       0.11743308 -0.3509765 0.44754425 0.04307289
000080 45 f6 14 bd 4b c1 a2 3d a4 97 5f 3d c7 1c 02 3d
       -0.036367673 0.07947024 0.054587975 0.031765725
000090 6c f6 7f 3e b5 66 f2 3e 39 d2 77 3e d3 07 0e bf
       0.24996346 0.47343984 0.24201287 -0.5548069
0000a0 6d 78 89 3d d1 8d 69 3e d5 17 8e 3d 6e f5 b0 3e
       0.067124225 0.22808005 0.06938139 0.34562248
0000b0 48 58 ac 3e 01 62 e8 3e 32 6b b7 3e 66 ef ab bf
       0.33661103 0.4538727 0.3582397 -1.3432434
0000c0 f2 f3 db 3d 1f f4 5c bd 74 43 4c 3e 37 b0 47 3e
       0.10739888 -0.05394375 0.19947606 0.19500814
0000d0 ff b9 5d be 6e da 48 be f0 3d 40 be 21 78 56 3f
       -0.21652983 -0.19614574 -0.18773627 0.8377705
0000e0 5d e5 2d bc ce 90 18 3d 75 e9 2d bc 1f b3 f2 bb
       -0.0106137665 0.03724747 -0.0106147425 -0.007406607
0000f0 46 44 e8 ba f3 57 ff 3d 41 84 aa 3d 9f b0 99 be
       -0.0017720542 0.12467947 0.08326007 -0.30017564
000100 cd b3 c5 bd 87 ef 84 be a6 4f b9 bd b9 1a 67 bd
       -0.09653435 -0.25963995 -0.09048395 -0.05642197
000110 09 fc 38 bf d5 5f c4 3d ef fc b4 3e ff 9c cc be
       -0.72259575 0.09588591 0.35349223 -0.3996353
000120 3a 5a 96 be f6 bf 89 be e0 ca fb be bb 75 6a bf
       -0.29365712 -0.26904267 -0.4917822 -0.9158589
000130 1f 2a 00 bf a9 2f a3 3e 59 48 07 3e 1c 09 19 3d
       -0.5006427 0.318723 0.13211192 0.037362203
000140 30 dc 6f bf 41 b9 e7 be d5 4b a1 be f2 52 0f bf
       -0.93695354 -0.45258525 -0.31503168 -0.5598594
000150 93 47 e4 3e cb af c4 3d b9 4a 5f 3e 42 2e 62 be
       0.44585857 0.09603842 0.21805848 -0.22087958
000160 ef ff 91 bf 14 0c dd bf 1d fa c0 be 62 0f 43 bd
       -1.140623 -1.7269311 -0.3769082 -0.047622092
000170 d0 a3 35 bd 80 00 82 3e d0 68 76 3e 2a 6c b3 bc
       -0.044345677 0.25391006 0.2406342 -0.021902163
000180 c1 d7 2f 3e b1 05 06 bf 18 ef 00 be c7 b6 5a be
       0.17172147 -0.52352434 -0.12591207 -0.21358787
000190 c6 6d fd be ef 2d 8b bd 3d cc 5c be 4c b2 f4 3e
       -0.49497813 -0.067958705 -0.21562286 0.4779228
0001a0 e5 93 c0 be 5d 1d 37 be 80 e1 0d 3d 08 27 1f bd
       -0.37612835 -0.17882295 0.03463888 -0.038855582
0001b0 9a 70 e6 3e c6 76 a6 3e 29 d8 32 bd 2c 05 05 3d
       0.45007783 0.32512492 -0.043663178 0.032475635
0001c0 6e 0e a8 bf 80 87 1f bf c5 9a 10 bf 49 cc 6c bf
       -1.3129404 -0.6231613 -0.5648616 -0.92499214
0001d0 45 ee 7b 3d 57 20 42 3e f1 20 50 3e 98 42 2e be
       0.06150653 0.18957649 0.20325066 -0.17017591
0001e0 c3 3e 86 bf aa 26 53 bf 05 13 20 bf 8c a3 fe be
       -1.0487903 -0.8248087 -0.6252902 -0.4973415
0001f0 f4 23 a0 bd 86 54 0f 3d d3 b5 8d be ae 57 2e bc
       -0.078193575 0.034992717 -0.27677783 -0.010641022
000200 05 ec 7f bf b9 68 92 bf 77 67 82 bf f8 71 c2 bd
       -0.9996951 -1.1438209 -1.0187825 -0.09494394
000210 9b c1 09 be 34 bb f1 bb 6b 6e 8c 3d 05 e6 e8 bd
       -0.13452761 -0.0073770527 0.06856998 -0.11371998
000220 7c 9c 14 c0 30 b2 d2 bf 65 61 07 bf b3 db 27 3e
       -2.322051 -1.6460629 -0.5288299 0.16392402
000230 98 ae ed bb a4 7b 4f 3e 1d 26 91 3c 13 88 05 3e
       -0.007253479 0.20262009 0.01771837 0.1304019
000240 1f f4 5e 3c b1 5d d8 3d a9 36 32 3e 22 47 73 3e
       0.013608008 0.10564745 0.17403664 0.23757604
000250 11 c2 4e 3e ed 55 93 3b 19 a6 55 3d 8f ad 95 3e
       0.20191218 0.004496327 0.052160356 0.29233977
000260 a4 3b be 3d 51 c0 ef 3d de 7f c9 3d a6 82 0a 3e
       0.09288719 0.11706603 0.09838842 0.13526401
000270 16 cb ee 3d 24 9b ec bd d4 69 26 bd 07 2d 81 bd
       0.11659829 -0.11553028 -0.04062827 -0.063074164
000280 c0 9f 3b 3d 75 3d 69 bb b1 c1 71 3d 56 e6 0b 3d
       0.045806646 -0.003558961 0.05902261 0.034155212
000290 13 ec 4c 3d fa 51 8e bd f3 5e 11 3e 15 a2 99 3d
       0.050029825 -0.069492295 0.14196377 0.07501618
0002a0 b6 62 77 be 13 dd 9f bd 8b 6b 02 bd 22 5d da bd
       -0.24158749 -0.078058384 -0.031840842 -0.10662295
0002b0 80 98 74 bd 9a 5b 02 bd 2c 17 75 3a 37 87 0d bd
       -0.059715748 -0.03182564 0.0009349461 -0.03455278
0002c0 bf d4 b5 bc e9 5d 3d 3e 90 31 33 3d 77 3f b1 bd
       -0.022196172 0.18492855 0.04374844 -0.08654683
0002d0 97 ec ec bc 18 9e 96 3d e0 09 c7 bd 1b b7 9d be
       -0.028921409 0.07354373 -0.097186804 -0.3080376
0002e0 0f 59 57 be f1 9d bf 3e c3 19 cd bc a6 7d 49 3e
       -0.21030067 0.37425187 -0.025036698 0.19676837
0002f0 87 15 bf bd 9a 9b a1 be 72 6a 8b be 0c 1c 4a bf
       -0.09330278 -0.31564027 -0.2722965 -0.78949046
000300 d2 2b a5 be ea d1 b7 bd 94 62 91 3c e7 e5 09 3e
       -0.32259995 -0.08975585 0.017747201 0.13466607
000310 42 69 02 3e d3 6e 18 be 31 71 41 be 10 d8 c1 be
       0.12735465 -0.14886026 -0.18890835 -0.37860155
000320 9c f4 6b 3c 60 42 ec 3d 0c cc 5f 3e 33 0a 46 3d
       0.014401581 0.115360975 0.21855181 0.04834957
000330 a3 47 19 3e e8 d3 34 bb 7d 2f bf 3d ce 6a 3c 3e
       0.14968733 -0.0027592126 0.093352295 0.18400118
000340 9b 56 7d be c9 87 6c bd 81 16 3b bd 94 75 34 3d
       -0.24740069 -0.057746682 -0.04567576 0.044057444
000350 66 a3 78 3d fa 94 1e be 88 8f 89 3d 9c 42 11 bd
       0.060702704 -0.15486518 0.067168295 -0.035463914
000360 71 ef 21 bf b2 c9 08 be 8d cb 5d 3d 82 5d 3c bd
       -0.63255984 -0.1335819 0.0541492 -0.045987613
000370 2b 67 03 3d 0d 97 fa bd d1 8e 1c bd c2 ab 61 3e
       0.03208081 -0.12235842 -0.038222138 0.22038177
000380 51 10 3a bf e7 a6 99 3d 30 da 7c 3b 8b cb 14 be
       -0.72681147 0.07502537 0.0038582198 -0.1453077
000390 09 3f b1 bd ee 16 94 3d 66 88 95 3e a0 81 bf bc
       -0.08654601 0.07230936 0.29205626 -0.02337724
0003a0 3c 42 c0 ba 1d 5a 81 3e e9 a4 b0 bd 3f ef e5 3d
       -0.0014668177 0.25264063 -0.08625204 0.11227273
0003b0 02 7f 33 3e 5e 78 d3 bc 93 26 eb be f6 58 70 bf
       0.17528918 -0.025814231 -0.45927867 -0.93885744
0003c0 93 0c 1f be 54 e3 19 bf 6d 5d 05 3f c6 6f 5e 3c
       -0.1553214 -0.601125 0.5209568 0.013576454
0003d0 47 54 25 bf d7 ab 61 bf 9f 33 3d bf 64 57 22 bf
       -0.6458172 -0.8815283 -0.7390689 -0.634146
0003e0 9c 5b c4 bd 7a 7b 30 3e 61 43 49 bf af 8d 27 bf
       -0.095877856 0.17234603 -0.7861844 -0.65450567
0003f0 32 23 4f be e1 52 08 bf 3c f3 0c bf f1 c2 28 bf
       -0.2022827 -0.53251463 -0.55058646 -0.65922457
