checkpoints-ir/checkpoint_95.80.pth (torch, 48720 bytes, 3 tensors)

weight f4 [4, 1, 3, 3]
0	0xbebbf978	-0.36713767
1	0xbf27e584	-0.6558459
2	0x3e2a759b	0.16646425
3	0xbf1ce476	-0.61286104
4	0xbd438157	-0.04773077
5	0x3f68a23e	0.9087256
6	0xbebf4a1d	-0.3736123
7	0x3f0bdd96	0.5463499
8	0x3ebbc5d4	0.36674368
9	0x3f548f91	0.83031565
10	0x3fbf78d2	1.4958746
11	0x3f941d1e	1.1571386
12	0x3f8a4039	1.0800849
13	0x3fba04ab	1.4532675
14	0x3f16a8d2	0.5885135
15	0x3f81b544	1.0133443
16	0x3fa1de7a	1.264602
17	0x3e984b09	0.29744747
18	0x3ee8c24d	0.4546074
19	0x3f117535	0.5681947
20	0x3f426ae3	0.75944346
21	0x3f146275	0.57962734
22	0x3fa8eae0	1.3196678
23	0x3f88f826	1.0700729
24	0x3f181e4d	0.59421235
25	0x3f870a0b	1.054994
26	0x3f1a8e72	0.60373604
27	0x3f57bdd3	0.84274024
28	0x3ee91a6e	0.45527977
29	0x3d0e66eb	0.03476612
30	0x3f3c3767	0.7352204
31	0xbe9db387	-0.3080103
32	0xbea56e9c	-0.3231095
33	0xbebb7ff4	-0.36621058
34	0xbe3d206c	-0.18469399
35	0xbf3731f8	-0.7156062

weight f4 [8, 4, 3, 3]
0	0xbf5b6b26	-0.8571037
1	0x3f40c492	0.7529994
2	0x3f903105	1.126496
3	0xbd8a584e	-0.06755124
4	0x3fafa4de	1.3722188
5	0x3fc080b2	1.5039275
6	0xbd1c63a7	-0.038180973
7	0x3f0d0b9e	0.5509585
8	0x3eafc011	0.34326223
9	0xbee24e32	-0.44200283
10	0xbe0ffdd7	-0.14061676
11	0x3f0202c5	0.50785476
12	0xbe019622	-0.12654927
13	0xbe882fe5	-0.2659904
14	0x3eed3a06	0.4633333
15	0x3e0461c8	0.12927926
16	0xbe6aa547	-0.22914611
17	0x3c5b0971	0.01336895
18	0xbee0951b	-0.43863758
19	0xbd0ddba8	-0.03463331
20	0x3f0317a1	0.5120793
21	0xbe45a4e9	-0.1930119
22	0xbe3d0794	-0.18459922
23	0x3f006e66	0.50168455
24	0xbccd13ec	-0.025033914
25	0x3bf74628	0.007546205
26	0x3dfa9b0c	0.12236604
27	0x3cd75a8b	0.026288291
28	0xbf2f101e	-0.6838397
29	0x3ec3e5a2	0.38261133
30	0xbefbd514	-0.49186003
31	0xbed8a9d8	-0.4231708
32	0x3ebe0928	0.3711636
33	0xbe45ce54	-0.19316989
34	0xbe643f7d	-0.22289844
35	0x3d8d8d61	0.069117315
36	0xbe912d84	-0.28355038
37	0xbef4f9ac	-0.47846735
38	0x3f5f7bed	0.8729847
39	0xbf336a24	-0.7008383
40	0x3f1d64c3	0.61481875
41	0x3fbb6178	1.463912
42	0x3f02f3ee	0.5115346
43	0x3f9c13ec	1.219358
44	0x3fa871df	1.3159751
45	0x3f13f57f	0.5779647
46	0xbe8baa35	-0.27278295
47	0xbeec4278	-0.46144462
48	0x3d5e2575	0.05423494
49	0xbe935b48	-0.2878058
50	0xbc260909	-0.01013399
51	0xbeb8b9ef	-0.36079356
52	0xbae23e54	-0.0017261007
53	0x3e9e1a1e	0.308793
54	0x3e9e1d01	0.30881503
55	0xbe73a6ce	-0.237941
56	0xbdfe7ed1	-0.12426532
57	0xbdd81b9a	-0.105521396
58	0xbe80763a	-0.250902
59	0x3e04f080	0.12982368
60	0xbe995150	-0.2994485
61	0x3df517b6	0.11967413
62	0x3f017b2e	0.5057858
63	0x3f868e85	1.0512244
64	0x3f572514	0.8404095
65	0xbdffdb83	-0.124930404
66	0x3fa4f78f	1.2888049
67	0x3e0900f8	0.13379276
68	0xbea4ab36	-0.32161874
69	0x3e69d6e6	0.22835883
70	0xbe7d1fca	-0.24719158
71	0x3f5988de	0.8497447
72	0x3fce0aa2	1.6096995
73	0x3faf7570	1.3707714
74	0x3f731716	0.949571
75	0x3f425725	0.7591422
76	0x3cb23411	0.021753343
77	0x3f83620f	1.02643
78	0x3d3160fc	0.043305382
79	0x3f78c4ea	0.97175467
80	0x3fb50acd	1.4143921
81	0x3e20269d	0.1563973
82	0x3e29600a	0.16540542
83	0xbe8ab52a	-0.27091342
84	0x3ebd84e9	0.37015465
85	0xbe3d81ee	-0.18506595
86	0xbeaf09db	-0.34187207
87	0xbd361c6b	-0.044460695
88	0xbed9bf64	-0.42528832
89	0x3cb3891f	0.02191597
90	0x3d594bbc	0.05305074
91	0x3e2cbddc	0.168693
92	0xbdf45f0b	-0.119321905
93	0x3ebca999	0.36848143
94	0xbe84ac46	-0.25912684
95	0xbe22d1ad	-0.15900297
96	0x3e52459b	0.20534365
97	0xbe88036c	-0.2656511
98	0x3e902e3d	0.28160277
99	0x3f44a588	0.7681508
100	0x3faf1fda	1.3681595
101	0x3fa85f6b	1.3154119
102	0x3fb78901	1.4338685
103	0x3fbcbff3	1.4746078
104	0x3f28c750	0.65929127
105	0x3f574af2	0.8409873
106	0x3ebb4b11	0.3658071
107	0xbe83a8b9	-0.25714663
108	0xbf74e7df	-0.9566631
109	0x3e09e6b2	0.1346691
110	0x3e655007	0.2239381
111	0xbeca6f07	-0.39537832
112	0x3eb4d1a8	0.35316205
113	0x3ce672ff	0.028131006
114	0xbdf615b2	-0.12015857
115	0xbe9b17c3	-0.30291566
116	0xbee503b0	-0.44729376
117	0xbc81f6ed	-0.015864814
118	0xbe6c6e6c	-0.23088998
119	0xbea11880	-0.31464005
120	0xbdced09b	-0.10098382
121	0x3c9196d1	0.01777211
122	0x3e0d48d8	0.13797319
123	0xbdb42460	-0.087960005
124	0x3e0feb0f	0.14054511
125	0x3ec98320	0.39357853
126	0xbe43f1ec	-0.19135255
127	0xbda599e1	-0.08085991
128	0xbd49d743	-0.049277555
129	0xbe1d515a	-0.15363064
130	0x3d841fc5	0.06451372
131	0x3e287f4d	0.16454811
132	0x3d4685ca	0.048467435
133	0x3e9aff18	0.30272746
134	0x3e781eb2	0.2423046
135	0x3f44d26a	0.76883566
136	0x3ef32d05	0.47495285
137	0x3f22c2c7	0.63578457
138	0xbce3b7fe	-0.027797695
139	0xbcf41989	-0.029797332
140	0x3f0405d9	0.5157142
141	0xbd94d2b0	-0.07266748
142	0x3f0c97e6	0.5491928
143	0x3f90d979	1.1316367
144	0xbf4c1cde	-0.7973155
145	0xbed6ad5c	-0.41929138
146	0xbf13f662	-0.57797825
147	0x3d010cad	0.03150623
148	0x3ea3e716	0.32012242
149	0xbdda4be8	-0.10659009
150	0xbe66f390	-0.22553849
151	0xbdecc639	-0.115612455
152	0xbf5b9907	-0.85780376
153	0xbe3d35e1	-0.18477584
154	0xbd92ddbd	-0.071711995
155	0xbe8ab9f9	-0.2709501
156	0x3d9dc82b	0.07704195
157	0x3ec5429d	0.38527384
158	0x3ec473f5	0.38369718
159	0xbe233733	-0.15939026
160	0x3e117a5e	0.14206836
161	0xbe37b54c	-0.17940253
162	0xbd6f7999	-0.058465574
163	0xbe00ebf4	-0.12590009
164	0xbe32b7b0	-0.17452884
165	0xbdc080b4	-0.09399548
166	0x3ed9621f	0.42457673
167	0x3ea8116f	0.328258
168	0xbe47fa9b	-0.19529192
169	0x3cab7d4b	0.020933768
170	0xbc918035	-0.01776133
171	0x3e83e080	0.25757217
172	0x3d7a378e	0.061088137
173	0x3d7d81f7	0.061891522
174	0xbe3cdb16	-0.1844295
175	0x3efd3d2c	0.49460733
176	0x3f469dbf	0.7758445
177	0xbf1dc1cb	-0.6162383
178	0xbe53ef0d	-0.2069666
179	0x3ea4a8dc	0.3216008
180	0x3f03d076	0.5148996
181	0x3f50e02f	0.81592077
182	0x3e8b07b5	0.27154317
183	0xbf2126fd	-0.62950116
184	0xbe43a10d	-0.19104405
185	0xbd84f90a	-0.06492813
186	0xbf8983ec	-1.0743384
187	0x3da90d86	0.082545325
188	0x3f3dd8a5	0.741587
189	0x3e99937e	0.2999534
190	0x3ecfaec8	0.40563035
191	0x3efbbf8b	0.49169573
192	0x3de6ee35	0.11275903
193	0xbde698d2	-0.11259617
194	0xbe824ab3	-0.25447616
195	0xbec12e7a	-0.3773077
196	0xbe952b0a	-0.291344
197	0xbec47f79	-0.38378504
198	0x3e045265	0.12922056
199	0x3ebfa5f9	0.37431315
200	0x3eed54e2	0.46353823
201	0x3dc1e1c9	0.09466893
202	0xbe40ddfe	-0.18834683
203	0xbe405b5f	-0.18784855
204	0xbecc55ab	-0.3990911
205	0xbedaebb4	-0.42757952
206	0xbe20e82e	-0.1571357
207	0x3f7c2351	0.9849139
208	0x3f836e64	1.0268064
209	0x3f83cde4	1.0297208
210	0x3f0d0c08	0.55096483
211	0x3eecd6e0	0.46257687
212	0x3eb96cda	0.3621586
213	0x3da8e8e4	0.08247545
214	0x3d9ec595	0.077525295
215	0xbee4609e	-0.44604963
216	0x3f758d12	0.9591838
217	0x3f9617a8	1.1725969
218	0xbda2068b	-0.07911404
219	0x3e9bd538	0.3043611
220	0x3f2d9bf3	0.67816085
221	0x3eba0685	0.363331
222	0xbed03088	-0.40662026
223	0x3e14030c	0.14454287
224	0x3eb733fc	0.35781848
225	0xbe9adf3d	-0.30248442
226	0x3e9957c4	0.29949772
227	0xbc7b7b27	-0.015349186
228	0xbe58e842	-0.2118235
229	0x3ed2d088	0.41174722
230	0x3e6d8dc4	0.2319861
231	0xbf1ca3fd	-0.61187726
232	0xbea4d505	-0.3219377
233	0xbcd694c7	-0.02619399
234	0xbd0455b8	-0.03230831
235	0x3eaed83c	0.3414935
236	0x3bb713b7	0.005587067
237	0xbe87d385	-0.26528564
238	0x3e92691b	0.28595814
239	0x3f05d838	0.5228305
240	0xbea79843	-0.32733354
241	0xbe815ef5	-0.2526776
242	0xbdf61f42	-0.12017681
243	0xbe826c4a	-0.25473243
244	0x3d596c7d	0.053081978
245	0x3ea13c89	0.31491497
246	0x397ab5cc	0.00023909583
247	0x3ecabc3b	0.39596733
248	0x3f361ba9	0.71135956
249	0xbed8f014	-0.42370665
250	0xbe832379	-0.25613
251	0xbdf394bc	-0.11893603
252	0xbe53569d	-0.20638509
253	0xbea2fbdd	-0.3183278
254	0xbeca49b8	-0.39509368
255	0xbdf664b8	-0.12030929

weight f4 [29, 384]
0	0x3ab09e39	0.0013474888
1	0xbdb9cf59	-0.090727516
2	0x3d4651eb	0.048417967
3	0x3b439439	0.0029842986
4	0xbe65fd11	-0.22459818
5	0xbea58da0	-0.32334614
6	0xbef6300a	-0.48083526
7	0x3e1a10b0	0.15045428
8	0x3d8f4a9d	0.06996653
9	0x3c70c1e0	0.014694661
10	0x3df3c57c	0.119029015
11	0xbcf9391e	-0.030422743
12	0xbe0e8932	-0.13919523
13	0xbcf903bc	-0.030397289
14	0x3d514c2a	0.051098026
15	0x3e2282e2	0.1587024
16	0xbd988304	-0.07446864
17	0xbd9c7f53	-0.07641473
18	0x3d82b3e7	0.0638197
19	0xbdbc1bb0	-0.091849685
20	0x3d8b7de0	0.06811118
21	0xbf121987	-0.570702
22	0x3e917417	0.28408882
23	0xbe33ed2e	-0.17570946
24	0xbd8a90f8	-0.06765932
25	0xbcd531c4	-0.026024707
26	0x3db00c83	0.085961364
27	0xbd5ab930	-0.053399265
28	0x3dc3734f	0.09543478
29	0xbea92341	-0.3303471
30	0x3edac3b7	0.42727444
31	0xbc81630b	-0.015794298
32	0xbd73e65e	-0.059545867
33	0x3d864e4a	0.06557901
34	0x3d2d7a0e	0.04235273
35	0x3ce65d1e	0.028120574
36	0x3e7fdc5d	0.24986406
37	0x3ee09210	0.43861437
38	0x3e57ffab	0.21093623
39	0xbf01bab3	-0.50675505
40	0xb907b098	-0.0001294039
41	0x3e49845e	0.196794
42	0x3d61e0c7	0.055146005
43	0x3eac6f26	0.3367855
44	0x3ea6bfe3	0.32568273
45	0x3ece5180	0.40296555
46	0x3ea6472b	0.32476172
47	0xbf976bf2	-1.1829817
48	0x3dd9b03c	0.10629317
49	0xbd6ded5f	-0.058087703
50	0x3e44a7b7	0.19204603
51	0x3e3a891a	0.18216363
52	0xbe5af916	-0.21384081
53	0xbe4bcc51	-0.1990216
54	0xbe5ee668	-0.2176758
55	0x3f45c55d	0.7725428
56	0xbc7cbd57	-0.0154260015
57	0x3d261ac4	0.04055287
58	0x3bb78a54	0.005601207
59	0xbbdecf55	-0.0067996182
60	0xbca58e94	-0.020209588
61	0x3de30b10	0.110860944
62	0x3da0afaa	0.07846005
63	0xbe90f581	-0.28312305
64	0xbdf8b269	-0.12143404
65	0xbe81669e	-0.25273603
66	0xbdc3e09e	-0.09564327
67	0xbd89920a	-0.06717308
68	0xbf311da2	-0.6918584
69	0x3dd62e76	0.104580805
70	0x3eac4cc8	0.3365233
71	0xbeb9e4ce	-0.36307377
72	0xbe9f7f55	-0.31151834
73	0xbe863b4b	-0.26217112
74	0xbef57244	-0.4793874
75	0xbf4fa837	-0.8111605
76	0xbee67dde	-0.45017904
77	0x3ea04f42	0.3131047
78	0x3e13fba9	0.1445147
79	0x3d299cf4	0.041409448
80	0xbf676afe	-0.9039763
81	0xbee885b2	-0.454145
82	0xbeb2a781	-0.3489342
83	0xbf0191c1	-0.5061303
84	0x3ec81ab3	0.3908287
85	0x3dd64041	0.10461474
86	0x3e56e644	0.20986277
87	0xbe479fcb	-0.1949455
88	0xbf82e869	-1.0227176
89	0xbfd0b021	-1.630375
90	0xbecb6d23	-0.39731702
91	0x3c1591fd	0.009129045
92	0xbd590154	-0.052979782
93	0x3e78f8c0	0.2431364
94	0x3e69e7fe	0.22842404
95	0xbc43ffa7	-0.011962808
96	0x3e1d6c98	0.15373456
97	0xbefeaa58	-0.49739337
98	0xbdd87cfc	-0.10570714
99	0xbe2f5d60	-0.17125463
100	0xbef8e861	-0.4861479
101	0xbdeb8a9b	-0.11501046
102	0xbe6642a0	-0.22486353
103	0x3edc852c	0.43070352
104	0xbecbf9ae	-0.39838928
105	0xbe154170	-0.14575744
106	0x3d68e434	0.056858256
107	0xbc60a81f	-0.013711958
108	0x3ebbf62b	0.3671125
109	0x3ea5922b	0.3233808
110	0xbd776e04	-0.060407653
111	0x3c7017a4	0.014654074
112	0xbfa119e0	-1.2586021
113	0xbf1855ea	-0.59506094
114	0xbf0db17f	-0.5534896
115	0xbf642fab	-0.89135236
116	0x3cb338f9	0.021877753
117	0x3e51ec0e	0.20500204
118	0x3e3bc577	0.18337046
119	0xbe1ff9b2	-0.15622595
120	0xbf7e64d6	-0.99372613
121	0xbf4b7ad6	-0.7948431
122	0xbf1f6e3f	-0.622776
123	0xbefa453e	-0.48880953
124	0xbd40163d	-0.046896208
125	0x3c8698d4	0.016430296
126	0xbe8335ce	-0.25626987
127	0xbc2f0a70	-0.010683641
128	0xbf7058a8	-0.9388528
129	0xbf8cb65e	-1.0993154
130	0xbf76a168	-0.96340036
131	0xbdd3acb0	-0.10335672
132	0xbe063550	-0.13106275
133	0xbbc08c0b	-0.0058760694
134	0x3d88ea3f	0.06685304
135	0xbdcf197f	-0.10112285
136	0xc007c31d	-2.1212838
137	0xbfcb7efa	-1.5898125
138	0xbf0e5ad0	-0.5560732
139	0x3e0df129	0.13861527
140	0xbb920429	-0.0044560623
141	0x3e48e8d7	0.19620071
142	0x3cd79968	0.026318267
143	0x3dfedb86	0.124442145
144	0x3ce4fda4	0.027952977
145	0x3daf0565	0.08545951
146	0x3e2c8e45	0.16851147
147	0x3e6d77ca	0.23190227
148	0x3e44b051	0.19207884
149	0xbb8f8773	-0.0043801605
150	0x3d12458d	0.03571086
151	0x3e7e5d24	0.24840218
152	0x3db7836d	0.08960614
153	0x3de5eb87	0.11226564
154	0x3dbcfd3d	0.09227989
155	0x3e03e36b	0.12879722
156	0x3de62abb	0.11238619
157	0xbdd76c0c	-0.10518655
158	0xbd110c72	-0.03541226
159	0xbd8ea480	-0.0696497
160	0x3d230ebd	0.039808977
161	0xbbb526f1	-0.005528324
162	0x3d47ccf9	0.04877946
163	0x3cd8c064	0.026458926
164	0x3d24bd17	0.040219393
165	0xbd8c1987	-0.068408065
166	0x3e094603	0.13405614
167	0x3d8b97b9	0.06816048
168	0xbe863505	-0.26212326
169	0xbd9d9e61	-0.07696224
170	0xbd5d685b	-0.0540546
171	0xbdc2ab90	-0.09505379
172	0xbd82c42d	-0.06385074
173	0xbd0c317f	-0.03422689
174	0xbc4c3155	-0.012462934
175	0xbd0d2464	-0.034458533
176	0xbdb2d64a	-0.08732279
177	0x3e195696	0.14974436
178	0x3b805e23	0.003917472
179	0xbdb7737f	-0.08957576
180	0xbcb7e243	-0.022446757
181	0x3dab9742	0.083784595
182	0xbdb38861	-0.087662466
183	0xbe5136b2	-0.20431021
184	0xbdafaaa2	-0.085774675
185	0x3e9f2e8d	0.31090203
186	0xbd673748	-0.056449205
187	0x3e4a7a7d	0.19773288
188	0xbd7b8d68	-0.061414152
189	0xbe91eeb4	-0.2850243
190	0xbe9a742c	-0.30166757
191	0xbf4544ed	-0.770583
192	0xbe98ea33	-0.2986618
193	0xbd21d0d3	-0.03950579
194	0x3d1c28de	0.03812491
195	0x3e13955d	0.14412446
196	0x3e1e6e41	0.15471746
197	0xbdf16645	-0.117870845
198	0xbe1a0dec	-0.15044373
199	0xbe8cc89d	-0.27496806
200	0x3d073e86	0.03301861
201	0x3dd91450	0.105995774
202	0x3e609bf7	0.21934496
203	0x3d6f4261	0.058412913
204	0x3e15502e	0.14581367
205	0xbbcb0206	-0.0061953096
206	0x3da5bb53	0.0809237
207	0x3e0c3df7	0.13695513
208	0xbe494755	-0.19656117
209	0xbd668dc8	-0.056287557
210	0xbd1518e9	-0.03640071
211	0x3d228cda	0.039685108
212	0x3d9fd4ce	0.07804261
213	0xbdfab669	-0.12241823
214	0x3d9b29d7	0.0757634
215	0xbc64b048	-0.013958044
216	0xbf0dea96	-0.55436075
217	0xbdab7a79	-0.08372969
218	0x3d08e3de	0.033420436
219	0xbcca32eb	-0.024682483
220	0x3d0eda1f	0.034875985
221	0xbdbec976	-0.093157694
222	0xbd248511	-0.040165965
223	0x3e468427	0.1938635
224	0xbf0feb1f	-0.5621814
225	0x3d8dc78a	0.06922825
226	0xbcd3423f	-0.025788425
227	0xbe085a1d	-0.13315625
228	0xbd68800c	-0.05676274
229	0x3d9b5ea8	0.075864136
230	0x3e69cfef	0.22833227
231	0xbcc6a9cf	-0.024250893
232	0xbdaaf112	-0.08346762
233	0x3e3fb691	0.18721987
234	0xbdb9ee20	-0.09078622
235	0x3e01dc1e	0.12681624
236	0x3e3d493b	0.18484966
237	0xbbdaa659	-0.006672662
238	0xbec58005	-0.38574234
239	0xbf5e6a1c	-0.8688066
240	0xbe246ec6	-0.16057882
241	0xbf0242b5	-0.50883037
242	0x3ed16152	0.40894562
243	0xbcb6e237	-0.022324665
244	0xbf1d05a5	-0.6133674
245	0xbf4c3e80	-0.7978287
246	0xbf2e240d	-0.6802376
247	0xbf1324a3	-0.5747778
248	0xbd919dc9	-0.07110173
249	0x3e46de98	0.1942085
250	0xbf38890e	-0.7208413
251	0xbf136855	-0.57581073
252	0xbe60cde0	-0.21953535
253	0xbefbac93	-0.491551
254	0xbefa53fd	-0.48892203
255	0xbf0f410d	-0.55958635
