checkpoints-ir/checkpoint_94.70.pth (torch, 48720 bytes, 3 tensors)

weight f4 [4, 1, 3, 3]
00000000: 800c a4be 816b 14bf df24 0f3e 3618 0bbf
00000010: 493c 64bd 1708 4d3f 2b9d a9be ffd9 003f
00000020: 5690 9a3e 2a3c 3a3f 5ff1 9a3f db92 833f
00000030: ebc6 6a3f ff07 973f 27b5 f13e 3718 683f
00000040: 4407 8d3f f196 8b3e 9fdf e23e 1bfd e43e
00000050: 9c97 2e3f 7d44 f23e 6a78 6e3f 8479 5b3f
00000060: 87eb 063f 75f6 5b3f dd5c e83e 0ca1 393f
00000070: 93cd d63e 7f3e 143d a860 2b3f b6dd 93be
00000080: 4bc7 8cbe 3ea6 acbe abbc 31be f3b0 15bf
-0.32040787 -0.5797654 0.13978909 -0.5433382 -0.055721555 0.8009047 -0.33127722 0.50332636
0.30188245 0.72748053 1.2104911 1.0279192 0.91709775 1.1799315 0.4720852 0.9066195
1.1017842 0.27263597 0.44311234 0.44724354 0.6820009 0.47317877 0.9315249 0.85732293
0.52703136 0.8592294 0.4538335 0.72511363 0.41953716 0.036192413 0.6694436 -0.2888009
-0.27495798 -0.33720583 -0.17357127 -0.5847313

weight f4 [8, 4, 3, 3]
00000000: 1426 07bf 6902 413f a51f 863f e38e bc3d
00000010: 23a9 9e3f 0f40 a73f 5f39 8bbd 1139 d63e
00000020: 61d1 c63e 8c66 e1be 0531 09be 1ce5 f73e
00000030: a79f c6bd 1d23 7abe 97fe d83e 8bca f63d
00000040: a1a0 5ebe 17a4 713c cc52 d8be e6a1 d4bc
00000050: 5e43 fc3e 1a68 27be 52fe 2abe 22be ec3e
00000060: 3e32 0cbd 4eaa b73c 8648 033e 892f 933d
00000070: 88c4 0fbf 1b5b ac3e 4a24 fcbe 1244 cabe
00000080: 23c5 783e a3f5 37be cf00 0abe 946f ad3d
00000090: 0e3c cdbd a4e9 9dbe faf3 413f 9a64 eabe
000000a0: 67aa 223f d408 aa3f acae e23e 6b5d 843f
000000b0: ffd3 923f 3c52 053f 9eee 78be 809f cfbe
000000c0: f389 573d 69d7 75be 8a6d 90bc bbd0 a2be
000000d0: a96a 163b d343 863e 55e8 843e a221 49be
000000e0: b3bf abbd c374 b7bd ffba 4ebe b477 d93d
000000f0: 1a68 86be f9d4 e93d 659a e93e 6ee6 7a3f
00000100: 54d1 543f e568 1e3d af28 923f e950 d43d
00000110: 87bc 9ebe 7be1 833e 8612 0cbe 3939 313f
00000120: 1ee2 b03f 58d9 913f 1ab4 503f 4c68 273f
00000130: afdb 783d 5110 6f3f 056e f23c 3f90 5c3f
00000140: 3cbc 9a3f 0480 163e c07e 2b3e 29a9 81be
00000150: 8232 a33e d09b 3bbe 5581 a9be 4c78 47bd
00000160: 2c6a bbbe 075b af3a 34a8 163d 60d7 293e
00000170: 6dbe cebd 0775 a83e 86a8 79be b2ce 1abe
00000180: 03c4 573e b576 51be e8fe 813e 1d63 333f
00000190: 052a 9a3f 703f 9c3f 0b6c 973f e779 9e3f
000001a0: 018d 103f f1c4 453f 3f7f b33e c1af 54be
000001b0: 6f65 21bf e2a9 2a3e 7030 683e 6c57 3fbe
000001c0: e153 cc3e 1cd0 f73d 255a 583d c101 efbd
000001d0: 25b3 a4be 2abd e7bc c2bd 6cbe 4599 90be
000001e0: 460a aabd 6d99 483d 6e86 1a3e 37e3 3ebd
000001f0: ff21 3f3e 0e2e d83e b61a 4cbe d6f5 9ebd
00000200: 720e 73bc 999c 06be f1b7 c93d 5e56 3b3e
00000210: 3638 ba3d b567 b43e 305c 923e 421c 2d3f
00000220: d94f c53e 997d fe3e 154d 00be f1d8 39bc
00000230: 14b9 bb3e 3a74 09bd 8e77 053f f152 7b3f
00000240: bbe0 19bf e1fb 84be 04f8 a5be a625 37bd
00000250: b853 413e f289 6abe 7a7f 6ebe 6129 a8bd
00000260: d0ec 3cbf ef08 2dbe 2fd2 67bd 7e31 24be
00000270: e1c9 983d 9103 9c3e 6f0b 9d3e a7ae febd
00000280: 2c13 2d3e 6042 0fbe 2690 efbc 736a d7bd
00000290: e5a6 86bd eb87 d1bd d71c aa3e cb8b 823e
000002a0: 3cfc 20be bc35 8b3d e168 0a3d ba71 7a3c
000002b0: 906c 06bc 2ba6 9fbc 3197 d9bd 0d90 a83e
000002c0: c2eb f93e 14c7 d5be b153 9abd 0bf0 783e
000002d0: daef 1e3f 3771 473f 4f7e 873e f088 06bf
000002e0: fe53 3ebe e988 1bbd 9c2a 2cbf c9f6 5a3e
000002f0: fbda 2d3f 2cb7 8b3e 5c5c c23e a54a ea3e
00000300: 1b40 033e b74c f0bd 389d 81be 69d0 b0be
00000310: 5aa1 86be a101 bebe 2114 e83d 2895 ad3e
00000320: c710 db3e 4a86 d43d 2bb3 50be 954e 3fbe
00000330: d805 b7be 50d9 cabe fa05 19be c8b5 603f
00000340: bb2c 773f efef 833f 8e24 183f 3291 e93e
00000350: 16bb d63e 683a 103c 6828 10bd 4b62 02bf
00000360: ca41 343f 2f5e 733f b6f1 93bc 4a0f 953e
00000370: 6e16 193f 4a5f c63e cd1e a4be 222b 173e
00000380: 3e46 973e 73a4 8cbe a264 823e d1ff 173d
00000390: ad25 1fbe 48f5 a93e a99b 203e a809 06bf
000003a0: f608 87be b74e dcbc e9cc babc f1a4 933e
000003b0: 766a 7c3d 2de6 53be 58b8 533e b8da e33e
000003c0: 36c2 77be 64e2 4cbe a422 02be 0673 39be
000003d0: 07f6 f73d 60ee 8f3e aa7d 2c3d 88fc b33e
000003e0: a883 1b3f b0a2 adbe fda0 3ebe 007d 05be
000003f0: 9a6d 34be 3415 a4be 93dd 6dbe fe6f afbd
-0.5279248 0.753943 1.0478407 0.09206941 1.2395366 1.3066424 -0.06798052 0.41840413
0.38831618 -0.4402355 -0.13397606 0.48416984 -0.0969842 -0.24427457 0.42381737 0.12050351
-0.21740963 0.014748595 -0.4225067 -0.025956105 0.49270147 -0.16348305 -0.16698578 0.4623881
-0.034227602 0.022420075 0.12820634 0.07186801 -0.5615926 0.33663258 -0.49246436 -0.3950506
0.24293952 -0.17964797 -0.13476871 0.084685475 -0.1002122 -0.30842316 0.75762904 -0.45779878
0.63541263 1.3283944 0.4427389 1.0341009 1.1470946 0.52078605 -0.24309775 -0.40551376
0.052621793 -0.24007954 -0.017630357 -0.31799874 0.0022951758 0.2622362 0.25958505 -0.19641736
-0.08386173 -0.089578174 -0.20188521 0.10618535 -0.26251298 0.114175744 0.45625606 0.9800786
0.8313191 0.038674254 1.1418666 0.10366995 -0.3100321 0.25757965 -0.13678941 0.6922794
1.3819005 1.1394453 0.81524813 0.6539352 0.06075638 0.9338427 0.029593477 0.861576
1.2088695 0.14697272 0.1674757 -0.2532437 0.31874472 -0.18321157 -0.33106485 -0.04869871
-0.3660444 0.0013378569 0.036781505 0.16586065 -0.100949146 0.32901785 -0.24380693 -0.1511791
0.21070866 -0.2045544 0.2538979 0.7007311 1.2044073 1.220686 1.1829847 1.2380952
0.56465155 0.77253634 0.3505802 -0.2077017 -0.630454 0.16666368 0.22674727 -0.18685693
0.39907745 0.121002406 0.052820344 -0.116702564 -0.32167926 -0.028288443 -0.23119262 -0.28241935
-0.08302741 0.048974443 0.15090343 -0.046603408 0.18665312 0.42222637 -0.19932064 -0.07761733
-0.014834987 -0.13145675 0.09849537 0.18294665 0.09092753 0.35235372 0.28585958 0.67621243
0.3853748 0.49705198 -0.12529404 -0.011343227 0.3666464 -0.033558108 0.5213555 0.98173434
-0.60108536 -0.25973418 -0.32415783 -0.04471364 0.18879592 -0.22904184 -0.23290816 -0.082110174
-0.7379885 -0.16897939 -0.05659693 -0.16034505 0.0746038 0.3047147 0.30672786 -0.12435656
0.16901845 -0.13990164 -0.02924354 -0.105183505 -0.06574801 -0.102310024 0.33225128 0.2549728
-0.1572122 0.067973584 0.033791427 0.015285904 -0.008204594 -0.019488415 -0.106245406 0.32922402
0.4881268 -0.41753447 -0.07535494 0.24310319 0.62084734 0.7790713 0.26463553 -0.525527
-0.18586728 -0.037972365 -0.67252517 0.21383204 0.6791226 0.27288187 0.3796109 0.45760074
0.12817423 -0.11733382 -0.2531526 -0.34534004 -0.26294976 -0.37110618 0.11331964 0.3390286
0.42786238 0.10377176 -0.20380847 -0.1868232 -0.35746646 -0.3961892 -0.14943686 0.87777376
0.9655263 1.0307597 0.5943078 0.45618588 0.4193961 0.008802988 -0.035194784 -0.50931233
0.70412886 0.9506559 -0.018059593 0.29113227 0.5979985 0.38744575 -0.3205475 0.14762548
0.29545778 -0.27469215 0.25467402 0.0371092 -0.15541716 0.33194947 0.1568438 -0.52358484
-0.26374024 -0.026893003 -0.022802787 0.28836778 0.061624967 -0.20693274 0.2067579 0.44502807
-0.2419518 -0.20008236 -0.12708527 -0.18110284 0.12107473 0.28111553 0.04211203 0.35153604
0.60747766 -0.33913183 -0.186161 -0.13035965 -0.17619935 -0.32047427 -0.23229055 -0.08566283

weight f4 [29, 384]
00000000: 0b21 8a3d 7d81 c4bd ddc2 1abd ab58 92bd
00000010: 3c20 57be 0a56 4fbe 4a70 a5be acb8 5bbc
00000020: eb98 453d 2ea1 a43c 4778 bb3d 729f a13c
00000030: fcd2 10be 9732 b5bc a525 a63d df44 2f3e
00000040: 04c2 a6bd c9e8 86bd 3ebe 243d e71a adbd
00000050: 5c70 babb daeb f8be f3db 793e 4c5e 9ebd
00000060: 0379 8ebd b2a3 e9bc a213 493d 954f 78bd
00000070: 1462 b53d 83ba 8bbe 59fe ba3e 1461 a23c
00000080: 9123 8bbd d91e 783c f3c7 c93c f61c d2bb
00000090: 5ef1 3d3e 90eb ae3e 4bba 643e 56ab 95be
000000a0: 29d0 b1bd f043 0e3e 7935 043d fe53 623e
000000b0: 3edd 453e d572 ac3e 5cfc 1f3e 6065 49bf
000000c0: 5bd5 d43d 662e 86bd f3f6 273e 96cf 1c3e
000000d0: 53d3 4ebe adb9 2fbe 27d8 43be 6d36 153f
000000e0: 225b 06bd 80af bf3c 0a41 263c 570b 383c
000000f0: 9d30 55bd 424e bf3d 53e2 593d 3033 43be
00000100: 4483 15be 07f9 72be 4230 f8bd 37e0 19be
00000110: 8a24 22bf cf51 bb3d 81e8 8d3e 4eb0 8bbe
00000120: 20fe 6bbe 8fec 69be e215 b9be 8465 19bf
00000130: 5cde 9bbe 99d9 833e c1b3 043e 02e3 ed3c
00000140: 33b1 2dbf 112b c4be a20d 9dbe 705b c3be
00000150: 32a2 5c3e d458 263e 6934 213e db3c c5bd
00000160: fb69 37bf eb45 8dbf edfc d8be b8ce 85bc
00000170: 74ac eebc 44ae 2d3e 0967 253e 3fd1 cc3c
00000180: f52f cb3d 4067 bcbe d737 2abd 101b c8bd
00000190: 902e cdbe 2bf8 15be 0ecc 5cbe ef65 823e
000001a0: 2dbe c5be cc52 f3bd c8de 923c 35d1 babc
000001b0: 6a3d 4b3e 218a a13e fb90 80bd fdbc 83bd
000001c0: f00c 77bf 3f26 06bf ccf7 fcbe 4b73 39bf
000001d0: e327 52bd 4d91 533e b958 113e 1019 fdbd
000001e0: 7101 4cbf 37b4 36bf 7803 02bf 4aff e8be
000001f0: 7a11 00bd 70a4 44ba b8b6 50be 0a44 a3bb
00000200: b5a3 4cbf d744 70bf 2734 42bf 18b9 d9bd
00000210: 89cf c3bd 0431 9cbb 902d 733d 8503 6fbd
00000220: 2e2e ccbf f311 98bf 47af 07bf 2433 d63d
00000230: b38a 1cbc 6bdc 163e bcf9 553d 2f82 f33d
00000240: 5cbd a93d f9e1 db3c 335d 0d3e 10ad 513e
00000250: 9770 173e 52cf 01bd 81ed 8cbc 4cf0 0f3e
00000260: ca71 5c3d de26 b13d 1d12 7a3d a8a7 ed3d
00000270: a681 c93d 94fc 92bd 154f 17bd 1c41 9cbd
00000280: 248d 903c 8033 8bbc d64f 9a3c c7a5 113b
00000290: cf2c 983c 830e 5abd 1ca3 c93d 7185 673d
000002a0: 3ef9 4fbe 208c a1bd 588d 59bd e302 9fbd
000002b0: 4d25 4abd c4b5 08bd 3523 a1bc 9bae a8bc
000002c0: f7d9 1ebe 1bda e03d d6e6 06bd 79fc a9bd
000002d0: ad7e 07bc 6559 c13d 05f7 37bd 758b 8ebd
000002e0: f69d dfbc 73d0 153e dab8 4bbd c172 093e
000002f0: eafd 13bd 9549 3dbe c852 ccbe acdd 3dbf
00000300: 40b4 0cbe 1c4e 2c3d 66c5 623d ed5f 033e
00000310: 0f1d 043e bdc0 fdbd 06af 1dbe c414 ecbd
00000320: 2f5a 923d bd24 143d 21a9 2d3e e85c 9c3d
00000330: 8f3f d83d 6661 0a3a 7119 db3c 6c63 823d
00000340: 0101 cdbd 3a55 afbd d944 15bd 3c67 293c
00000350: a11c 833d a77b 5cbd 6272 3d3d 0088 6c3c
00000360: 9e7f 79be c7dd fdbc dc43 073c b92c e6bc
00000370: 9714 963c 3093 3bbd 3844 6bbd d30a f73d
00000380: 0adf 91be 520e 9d3d 9ec5 b7bd b5e2 a8bd
00000390: 15f6 003b 91e3 713d 085f 323d 5359 c7bc
000003a0: 6d39 0abe c683 9d3d c1cc 1cbc c5b4 d13d
000003b0: f7a1 f83d b963 1b3c c4ea 75be 36e2 24bf
000003c0: a030 8abe 40c7 c6be 1e8f 593e f0c2 a7bd
000003d0: 4fb3 f5be f1a4 10bf 0f23 15bf dc46 f6be
000003e0: be1d 9ebd abc7 fa3d a201 1bbf 0431 e2be
000003f0: 0f1a 96be 0899 c8be ef01 c9be 7a19 edbe
0.06744584 -0.095950104 -0.037783492 -0.07145818 -0.2100839 -0.20247665 -0.32312232 -0.013410728
0.048241537 0.020096388 0.091538005 0.01972935 -0.14142984 -0.02211885 0.08112649 0.17116116
-0.08142474 -0.06587369 0.04022049 -0.08452397 -0.005689664 -0.4861744 0.2440031 -0.077328295
-0.06956675 -0.028520439 0.04909099 -0.06062277 0.088565975 -0.27290735 0.36522177 0.019821681
-0.06793893 0.015144073 0.024631476 -0.006412144 0.18549106 0.34164095 0.2233669 -0.2923228
-0.086822815 0.13893104 0.032277558 0.22102353 0.19322678 0.3368136 0.15623611 -0.7867031
0.10392257 -0.065518185 0.16402797 0.15313563 -0.20197801 -0.17160673 -0.19125424 0.5828617
-0.032801755 0.023399115 0.010147342 0.011233172 -0.052048314 0.09341098 0.053194355 -0.19062495
-0.14600855 -0.23727809 -0.121185794 -0.15026937 -0.63337004 0.09146463 0.2771645 -0.27282947
-0.2304616 -0.22844146 -0.36149508 -0.59920526 -0.30443084 0.2575195 0.12959196 0.02903891
-0.6784851 -0.38314107 -0.30674464 -0.381557 0.21546248 0.16244823 0.15742649 -0.09630748
-0.7164609 -1.1036962 -0.42380467 -0.016333923 -0.029134966 0.16961008 0.16152586 0.02500212
0.099212565 -0.36797523 -0.04155716 -0.09770787 -0.40074587 -0.1464545 -0.21562216 0.25468394
-0.38621655 -0.118810266 0.017928496 -0.022804836 0.19847646 0.31550696 -0.06277653 -0.06432531
-0.96504116 -0.5240211 -0.49407804 -0.7244155 -0.05130757 0.20660897 0.14194001 -0.12358296
-0.796897 -0.71368736 -0.5078654 -0.4550727 -0.031266667 -0.000750131 -0.20382202 -0.004982476
-0.799373 -0.9385504 -0.7586083 -0.10631007 -0.095610686 -0.0047665853 0.059369624 -0.058352966
-1.5951593 -1.1880478 -0.53001827 0.10458973 -0.009554553 0.1473252 0.05224012 0.11890065
0.082880706 0.02684115 0.13805084 0.20476174 0.14789043 -0.031691857 -0.017203094 0.1405651
0.053819455 0.086499915 0.06105243 0.116042435 0.098391816 -0.07177082 -0.036940653 -0.07629606
0.017645426 -0.01699233 0.018836897 0.0022224055 0.018576054 -0.053236496 0.09845564 0.056523744
-0.20309922 -0.07888055 -0.05311331 -0.077642225 -0.04935198 -0.03337647 -0.019670108 -0.02059107
-0.15512834 0.109791 -0.032934986 -0.083001085 -0.008269948 0.09440879 -0.04491331 -0.06960193
-0.027297001 0.14630298 -0.049736835 0.13422681 -0.036130823 -0.184851 -0.39906907 -0.7416637
-0.13740635 0.04206668 0.055364035 0.12829562 0.1290171 -0.123902775 -0.15398797 -0.11527398
0.071461074 0.03616785 0.16959049 0.07634908 0.10558998 0.0005278796 0.02674553 0.063666195
-0.10009957 -0.085611776 -0.03644261 0.010339554 0.06401945 -0.05382886 0.046251662 0.014436722
-0.24365088 -0.03098954 0.008255925 -0.028097497 0.018320365 -0.045794666 -0.057438105 0.120626114
-0.28490478 0.07668747 -0.08973239 -0.08246366 0.0019677926 0.059054915 0.04354766 -0.024334585
-0.13498469 0.076911494 -0.0095703015 0.10239557 0.12140267 0.009484225 -0.24015337 -0.6440767
-0.26990223 -0.3882389 0.21246001 -0.08191478 -0.47988364 -0.5650168 -0.5825662 -0.48100936
-0.077205166 0.12245115 -0.60549366 -0.4417802 -0.29316756 -0.39179254 -0.39259288 -0.463085
