checkpoints-ir/checkpoint_94.95.pth (torch, 48720 bytes, 3 tensors)

weight f4 [4, 1, 3, 3]
000000 e6 53 a9 be 47 4a 17 bf 3a 64 16 3e 60 e2 0d bf
       -0.33071822 -0.59097713 0.14686671 -0.55423546
000010 98 d0 46 bd 92 c6 54 3f f4 96 ab be 40 df 04 3f
       -0.048538774 0.83115494 -0.33513606 0.5190315
000020 10 3d a4 3e fc ce 3f 3f c7 35 a5 3f ad 33 88 3f
       0.32077837 0.7492521 1.2907037 1.064077
000030 05 3e 73 3f 05 00 9e 3f 67 86 fd 3e 78 a8 6b 3f
       0.9501651 1.2343756 0.49516603 0.9205394
000040 81 b2 90 3f 5c 6e 8c 3e 47 64 e4 3e ba c0 fc 3e
       1.1304475 0.27427948 0.44607756 0.4936579
000050 39 bc 34 3f cb b5 fe 3e 90 6d 81 3f 5f 7a 66 3f
       0.70599705 0.49748072 1.0111561 0.90030473
000060 8f c2 08 3f 86 6f 67 3f 41 6b f5 3e e8 de 42 3f
       0.5342187 0.90404546 0.4793339 0.7612138
000070 e4 66 e2 3e 55 26 3c 3d b4 b5 30 3f 31 66 94 be
       0.44219124 0.045934994 0.69027257 -0.28984216
000080 13 1a 8e be 37 3a af be b7 63 2f be 5d 26 1c bf
       -0.27754268 -0.34224102 -0.17127882 -0.6099604

weight f4 [8, 4, 3, 3]
000000 01 a9 1a bf 60 63 45 3f 87 67 89 3f 07 a4 59 3d
       -0.6041413 0.7710476 1.0734719 0.053134944
000010 16 ed a4 3f 7a 70 ae 3f 2a f8 63 bd 8d e3 ea 3e
       1.2884853 1.3628075 -0.05565659 0.45876732
000020 84 97 c4 3e e6 c6 e3 be 20 65 0f be af 4f fa 3e
       0.38396847 -0.44487685 -0.1400342 0.4888892
000030 68 2f d4 bd f8 13 7f be ba bd df 3e df 23 04 3e
       -0.103606045 -0.24909961 0.43699437 0.12904309
000040 c6 1c 5b be fb f1 b3 3c 86 34 dc be 3c a2 00 bd
       -0.21397695 0.021965971 -0.43008822 -0.03140472
000050 73 2f fe 3e 7f 1d 2e be e5 52 2e be bf ab f3 3e
       0.49645576 -0.1700344 -0.17023809 0.4759197
000060 70 a3 ca bc 72 2d d0 3c 24 58 0a 3e e6 9a 56 3d
       -0.024736136 0.025412295 0.13510185 0.052393816
000070 94 29 1e bf fd bc af 3e 08 26 01 bf fb 5a d6 be
       -0.61782193 0.34323874 -0.50448656 -0.41866288
000080 4e d0 88 3e 10 b6 39 be 06 91 1b be af db a5 3d
       0.26721424 -0.18135858 -0.15192041 0.08098542
000090 13 d5 f9 bd a0 ab aa be ed 4b 4b 3f a0 47 00 bf
       -0.12198844 -0.33334064 0.7941273 -0.5010929
0000a0 f4 25 23 3f 71 8a ae 3f 0e 81 ea 3e 42 83 8b 3f
       0.63729787 1.3635999 0.45801586 1.0899432
0000b0 bc de 98 3f 3e ce 08 3f 52 ca 7c be 09 76 d4 be
       1.1942973 0.534397 -0.24686554 -0.41496304
0000c0 f6 6b 5a 3d 65 aa 7f be 9c 36 6b bc fb 77 a5 be
       0.053325616 -0.24967344 -0.014356282 -0.323181
0000d0 88 be 9a 3b 38 cb 8d 3e ac c0 8a 3e 4f c5 4f be
       0.00472242 0.27694106 0.27100122 -0.20290111
0000e0 e4 e7 b7 bd 1d 0f bd bd 1f 5c 58 be fa 87 e7 3d
       -0.089797765 -0.09231398 -0.21128891 0.11305232
0000f0 47 7e 88 be d3 e1 f3 3d 5a 36 f1 3e f1 4b 81 3f
       -0.26658842 0.11908307 0.4711178 1.01013
000100 43 be 57 3f 2b c5 db 3b a5 14 96 3f 8c cf e4 3d
       0.8427469 0.006706854 1.172505 0.11172399
000110 2e c1 99 be 9e 2b 85 3e d5 2c 1e be c1 f7 3d 3f
       -0.30030197 0.2600984 -0.1544679 0.7420617
000120 a1 db b9 3f 03 7a 99 3f 71 48 56 3f e5 ee 31 3f
       1.452015 1.199036 0.83704287 0.6950515
000130 33 40 48 3d ae 2e 73 3f 7b 90 68 3d 20 a7 63 3f
       0.04888935 0.949931 0.056778412 0.8892689
000140 26 9b 9f 3f 25 ec 19 3e af b0 2f 3e 49 f0 82 be
       1.2469223 0.15031488 0.17157243 -0.25573948
000150 fd 2c a9 3e f5 50 3c be 0e 9a ac be 82 c7 4c bd
       0.33042136 -0.18390258 -0.33711284 -0.049994953
000160 75 71 c2 be c3 e3 5d 3b 11 a7 2c 3d 73 87 2e 3e
       -0.37977186 0.003385768 0.042151514 0.17043857
000170 ec bc d6 bd 3a 37 ad 3e e5 a3 7d be 65 26 20 be
       -0.10485253 0.33831197 -0.24769552 -0.15639646
000180 0d 27 55 3e d7 6e 5f be 8a 95 83 3e c6 ab 36 3f
       0.20815678 -0.21819626 0.25700027 0.71355855
000190 9b f5 a0 3f fa 0c a2 3f a4 d2 9e 3f 8b 55 a6 3f
       1.2574953 1.266021 1.2408032 1.2994856
0001a0 72 26 16 3f 35 07 47 3f 43 54 b1 3e d8 d6 71 be
       0.5865241 0.7774537 0.346346 -0.23617113
0001b0 94 d5 39 bf d3 6f 1c 3e 1a 24 5e 3e bd 93 86 be
       -0.7259152 0.15277033 0.21693459 -0.2628459
0001c0 5d 61 c1 3e 76 1c c7 3d a6 af 5b 3c b1 1a 20 be
       0.37769595 0.09722225 0.013408577 -0.15635182
0001d0 ff e3 b4 be 4d 67 b9 bc d7 77 63 be 58 a2 90 be
       -0.35330197 -0.022632265 -0.22213684 -0.28248858
0001e0 70 ca ac bd 5e 76 41 3d 9f 38 1f 3e 79 dc 64 bd
       -0.084370494 0.047232024 0.15548943 -0.05587432
0001f0 61 98 35 3e d1 a1 d4 3e a2 d4 45 be 54 1e 8c bd
       0.17733909 0.41529706 -0.19319394 -0.06841722
000200 74 00 79 bc a8 33 09 be 29 1d c5 3d 80 8c 3e 3e
       -0.015197862 -0.13398612 0.096247025 0.18608284
000210 0a 8c a5 3d b9 e9 ae 3e 44 2e 8c 3e bb e7 30 3f
       0.08083351 0.3416269 0.27379048 0.6910359
000220 cd a7 ce 3e 84 df 0b 3f 43 cc b0 bd 9f 81 cf ba
       0.40362397 0.5463793 -0.0863271 -0.0015831477
000230 5a 0a db 3e a0 64 08 bd 27 a1 08 3f 56 7e 83 3f
       0.42781335 -0.03329909 0.533709 1.027293
000240 c0 02 2a bf 71 87 9b be 73 76 bf be 65 7f 02 bd
       -0.66410446 -0.3037677 -0.37395057 -0.031859774
000250 bc 5f 59 3e 94 7b 41 be 26 50 6b be d2 ee b7 bd
       0.21227926 -0.18894798 -0.22979793 -0.08981098
000260 61 7b 44 bf d5 69 32 be 96 d5 65 bd 57 9d 2e be
       -0.7675076 -0.17423184 -0.056111895 -0.17052208
000270 95 29 84 3d 69 8e a0 3e c5 c7 a5 3e da 5e 18 be
       0.06453244 0.3135865 0.32378975 -0.14879933
000280 c2 fd 14 3e 19 d0 21 be a8 9e 18 bd f3 1d d5 bd
       0.14549926 -0.15802039 -0.03726068 -0.10406103
000290 cf ed 9a bd e4 13 e6 bd 0e a3 af 3e c7 80 8a 3e
       -0.0756489 -0.112342626 0.34304088 0.27051374
0002a0 82 d3 3b be 66 c4 26 3d 14 2b 60 3c 39 7e 89 3d
       -0.18342403 0.040714644 0.013682146 0.06713528
0002b0 c7 5e 52 3c 27 fc fe 3c 99 cb db bd 2b 3f be 3e
       0.0128399795 0.031126095 -0.107321925 0.37157568
0002c0 b4 d3 0f 3f a2 5d f1 be c7 91 fa bd a3 76 76 3e
       0.5618241 -0.4714175 -0.12234836 0.24068694
0002d0 9d 73 1a 3f f6 f9 47 3f aa 37 88 3e 76 f4 0d bf
       0.6033266 0.78115785 0.26604968 -0.5545114
0002e0 96 c5 4b be e1 63 1e bd 9a 0d 42 bf 3d 66 36 3e
       -0.19899592 -0.03866947 -0.75802004 0.17812438
0002f0 a4 30 34 3f bc 52 92 3e ce c5 c8 3e 8c 49 f0 3e
       0.7038672 0.28578746 0.39213413 0.46931112
000300 e5 79 01 3e 5e 54 ef bd a8 e6 82 be 54 8d b3 be
       0.12644155 -0.11686014 -0.25566602 -0.35068762
000310 2a 0f 88 be 0a 77 bd be ce e3 fc 3d 79 5f b4 3e
       -0.2657407 -0.37004882 0.12348138 0.3522909
000320 bd f6 e0 3e 84 c4 d2 3d f1 95 4e be e0 eb 40 be
       0.43938246 0.10291389 -0.20174386 -0.18839979
000330 25 6d ba be 0f 53 cc be 66 e7 14 be 37 aa 6a 3f
       -0.36411396 -0.3990712 -0.14541396 0.9166598
000340 18 e3 7e 3f e5 50 86 3f a9 ed 14 3f ee 04 e7 3e
       0.9956527 1.0493437 0.5817514 0.4512095
000350 68 0f c4 3e 54 3e 43 3c 6e 58 dd bc 2c 1a 05 bf
       0.38293004 0.011916716 -0.027019706 -0.5199306
000360 f4 d0 43 3f c6 b9 7e 3f e9 9c 53 bd a4 8c 96 3e
       0.7649071 0.9950222 -0.051663313 0.29404175
000370 d4 11 1d 3f 4f a5 be 3e 54 6e b3 be 39 8b 08 3e
       0.6135533 0.37235495 -0.3504511 0.13334359
000380 3e de a0 3e 59 c9 91 be ac b9 86 3e de 5d 71 3c
       0.31419557 -0.2847393 0.2631353 0.014731852
000390 52 03 2b be 40 67 b4 3e d5 17 2f 3e 85 44 0c bf
       -0.16700485 0.35235023 0.17098935 -0.5479205
0003a0 f1 b7 91 be 60 18 01 bd bc ca de bc 7f 01 99 3e
       -0.2846065 -0.031517386 -0.02719628 0.29883954
0003b0 38 a6 1b 3d 4f 4c 60 be 71 cb 67 3e 2b 69 eb 3e
       0.038000315 -0.2190411 0.226362 0.45978674
0003c0 12 3c 88 be fd 00 60 be ca a8 03 be 1c f6 58 be
       -0.2660833 -0.21875377 -0.12857357 -0.21187633
0003d0 26 3b c4 3d 2c 0c 92 3e 1a 10 1e 3d 21 73 be 3e
       0.09581594 0.2852491 0.038589574 0.3719721
0003e0 9b 07 23 3f 2f 08 be be 9b 94 58 be 0b f8 0d be
       0.6368348 -0.3711562 -0.21150438 -0.13864152
0003f0 c7 e5 43 be b3 79 a9 be 6b 00 96 be d0 6f ad bd
       -0.19130622 -0.33100662 -0.29297194 -0.08468592

weight f4 [29, 384]
000000 dc ab 48 3d 35 ff d9 bd 1f 85 33 bc 94 29 3e bd
       0.048992023 -0.1064438 -0.0109570315 -0.04642637
000010 af 64 56 be c5 bb 76 be 4f 86 b6 be 33 9d 2b 3d
       -0.20936845 -0.24095066 -0.35649344 0.041897964
000020 c4 d7 6d 3d 68 dc 93 3c a2 87 c7 3d b7 bf 03 3c
       0.0580671 0.018049434 0.09742667 0.008041314
000030 6a c6 15 be ba 7e fa bc b5 e3 92 3d e2 50 2f 3e
       -0.1462647 -0.030578006 0.07172338 0.17120698
000040 36 b7 98 bd d1 45 88 bd ba 1f 4c 3d 89 8b c5 bd
       -0.0745682 -0.066539414 0.049834944 -0.09645755
000050 21 28 98 3b 79 eb 02 bf 30 21 88 3e fa 2b e2 bd
       0.0046434556 -0.5114055 0.2658782 -0.11043544
000060 42 ee 72 bd 1a ae d5 bc 17 78 7a 3d 08 0c 87 bd
       -0.05930925 -0.026083995 0.061149683 -0.06594092
000070 b8 44 a8 3d b8 36 98 be ce c2 c6 3e a9 0d 90 bb
       0.08216232 -0.29729247 0.388205 -0.0043961597
000080 a5 49 6b bd ab 91 01 3d 21 45 08 3d dc 3b a9 3a
       -0.05744328 0.03163306 0.03326905 0.0012911516
000090 91 34 48 3e 37 47 b8 3e fb 48 50 3e 25 be b4 be
       0.19551302 0.35991833 0.2034034 -0.3530132
0000a0 be 65 7d bd c5 0a 29 3e 8f 02 42 3d 44 ab 81 3e
       -0.061864607 0.16508015 0.04736572 0.25325978
0000b0 2c a2 68 3e 74 94 b2 3e 31 62 3f 3e ea 35 60 bf
       0.22718114 0.34878886 0.18689801 -0.87582266
0000c0 7d 78 d9 3d e0 a8 93 bd 17 53 32 3e 7f 6f 27 3e
       0.106186844 -0.07209945 0.17414509 0.16351126
0000d0 37 d5 53 be 88 98 3c be ae 13 56 be e7 a3 23 3f
       -0.20686804 -0.18417561 -0.20905945 0.6392197
0000e0 94 26 be bc ec 0f 0c 3d 04 db 5c 3c 53 1b 92 bb
       -0.023211755 0.03419487 0.013479952 -0.0044588237
0000f0 cc e2 76 bd 77 fe c1 3d eb f1 8a 3d ac 6c 5a be
       -0.060274884 0.094723634 0.067844234 -0.21330518
000100 3a ee 0c be 23 9e 74 be d2 28 e7 bd 49 10 16 be
       -0.13762751 -0.2388845 -0.11287083 -0.1465465
000110 4e e3 26 bf 16 d0 b7 3d 0c 79 96 3e ee d6 9b be
       -0.6519059 0.08975236 0.29389226 -0.30437416
000120 c6 ad 74 be 46 2e 70 be ee 14 c9 be ff 14 2c bf
       -0.23894414 -0.23455152 -0.3927378 -0.6721954
000130 15 2b b0 be fd 32 8e 3e cc a6 f1 3d 82 87 d1 3c
       -0.3440787 0.27773276 0.11799392 0.02557731
000140 ed 65 39 bf 54 09 cb be 0e dc 99 be b3 ae d7 be
       -0.7242115 -0.39655554 -0.300507 -0.42125472
000150 be b3 8a 3e d2 0d 1d 3e 83 7f 30 3e a6 0b 05 be
       0.27090257 0.15337303 0.17236142 -0.12992725
000160 a5 f1 41 bf 30 cf 98 bf 9a 6a d6 be 26 2f b8 3c
       -0.75759345 -1.1938229 -0.41878206 0.02248342
000170 c2 b1 05 bd 35 14 46 3e 58 b4 33 3e 2a 91 32 3c
       -0.032640226 0.19343646 0.17549264 0.010898868
000180 55 e8 e8 3d 83 1e d1 be 36 04 54 bd 04 18 e8 bd
       0.11372439 -0.4084359 -0.05176183 -0.113327056
000190 42 a3 df be 8a 6e 1a be f8 19 59 be d8 4b a2 3e
       -0.43679243 -0.1508123 -0.21201313 0.3169849
0001a0 79 5c c8 be 22 a3 ef bd 88 3f fa 3c b2 6b 15 bd
       -0.3913305 -0.11701037 0.030547872 -0.03647966
0001b0 29 8b 81 3e 1c 1f a9 3e bb 6e 47 bd c1 cb 64 bd
       0.25301483 0.33031547 -0.048689585 -0.055858377
0001c0 6e 1b 84 bf 8e 41 09 bf 90 4f fd be 8f c4 46 bf
       -1.0320871 -0.53615654 -0.49474764 -0.77643675
0001d0 a3 17 41 bd de 8e 57 3e 4e 0d 23 3e a8 81 0a be
       -0.047141682 0.21050593 0.15923044 -0.13526022
0001e0 6c 5c 56 bf 3b 84 3c bf df 2c 00 bf 99 83 ea be
       -0.83734775 -0.7363927 -0.5006847 -0.45803526
0001f0 d6 de 19 bd 72 c8 45 3c a4 52 5f be 23 c1 4c bc
       -0.03756603 0.012071716 -0.21808869 -0.012497219
000200 cf ba 52 bf 77 aa 7b bf 63 cb 53 bf 22 16 b8 bd
       -0.823163 -0.98306984 -0.8273222 -0.089885965
000210 7a 5c d4 bd 0f 86 d8 bb 51 7c 6c 3d f4 ff 9d bd
       -0.10369201 -0.006607778 0.057735745 -0.07714835
000220 2c 79 dc bf ba e4 a2 bf 34 5b 05 bf c3 b0 f8 3d
       -1.7224479 -1.2726052 -0.5209229 0.121430896
000230 1c 65 18 bb ce eb 25 3e 87 0d 3e 3d e9 99 f0 3d
       -0.0023253625 0.16203234 0.04639962 0.11748106
000240 e1 f5 95 3d 7f e8 0e 3d eb ac 18 3e b5 52 5d 3e
       0.07322288 0.034889694 0.14909713 0.21613581
000250 6b 37 26 3e c1 4a cf bc 81 b8 14 bc dc c2 1b 3e
       0.16232078 -0.0253042 -0.009077192 0.15211052
000260 c1 d0 91 3d 05 41 ca 3d 56 5a 99 3d b0 46 f3 3d
       0.07119895 0.09875683 0.07487933 0.11878717
000270 7a 5d cb 3d 15 46 ac bd b5 34 1d bd dd 24 9f bd
       0.099299386 -0.084118046 -0.038380343 -0.07770703
000280 04 65 f5 3c fd 1c 3e bc 52 b9 02 3d 4b a4 e1 3b
       0.029955395 -0.011603591 0.031915016 0.0068860403
000290 7b 6b aa 3c d5 be 7c bd c6 4a d3 3d 45 7c 59 3d
       0.020803204 -0.06170543 0.10316996 0.05309703
0002a0 be 6a 56 be c8 e6 8e bd 9b ad 40 bd 89 c7 9f bd
       -0.20939156 -0.06977612 -0.047040563 -0.0780173
0002b0 a9 6d 60 bd 66 ba 1a bd 4e 52 b9 bc d9 f6 f4 bc
       -0.05479208 -0.03777542 -0.022622254 -0.029902862
0002c0 48 9a 0b be d7 07 04 3e f5 0f 40 bc e3 80 a4 bd
       -0.13633072 0.12893616 -0.011722554 -0.08032396
0002d0 1d 26 22 bc 23 51 c8 3d 88 fa 60 bd e5 79 cc bd
       -0.009896782 0.097811006 -0.054926425 -0.09984187
0002e0 f0 cb 8c bb aa fc 48 3e af d2 2f bd 5c 05 27 3e
       -0.004296772 0.19627634 -0.042925533 0.16310638
0002f0 e5 1c 2f bd 48 b5 62 be 7a 0a c7 be af a2 42 bf
       -0.042752165 -0.22139466 -0.3887518 -0.76029485
000300 45 2d 2b be ef 7b 49 3c 1d fa 46 3d 6f 5c 10 3e
       -0.16716488 0.0122976145 0.04857837 0.1409776
000310 75 9c 10 3e d3 2a ee bd a0 e9 28 be 09 3b 1e be
       0.14122184 -0.11629262 -0.16495371 -0.15452208
000320 f5 63 98 3d 63 47 73 3d 44 e2 40 3e dc 0e 9b 3d
       0.0744094 0.05939425 0.18836313 0.075711936
000330 1f 90 e7 3d e0 e7 c9 bb 73 d6 1d 3d c4 ab a7 3d
       0.11306786 -0.006161675 0.038534593 0.081870586
000340 f5 54 e5 bd be 31 a3 bd 11 7e fe bc 2a 8b 73 3c
       -0.11197845 -0.07968472 -0.031065973 0.014864722
000350 85 c8 85 3d 46 a0 96 bd c0 3f 48 3d d2 70 8e 3b
       0.06532387 -0.073547885 0.04888892 0.0043469453
000360 89 bc 9c be 32 3a c1 bc 05 e0 8a 3c c6 93 bc bc
       -0.3061259 -0.02358732 0.016952524 -0.023019683
000370 e8 29 7d 3c 39 0e 75 bd 9d 88 7f bd 53 b0 01 3e
       0.015451886 -0.059828017 -0.062386144 0.12664919
000380 06 cb ac be 68 b4 ae 3d 88 19 96 bd ad c2 b2 bd
       -0.33748645 0.085305035 -0.073290884 -0.08728538
000390 f8 15 38 bc 85 5a 7b 3d e0 b8 a0 3d ce 0d 37 bd
       -0.0112357065 0.061365623 0.07847762 -0.0446909
0003a0 5e 74 06 be 3f ee ea 3d 91 51 75 3b e8 f2 05 3e
       -0.13130328 0.11471223 0.003743265 0.13080943
0003b0 4a 6c 19 3e 4e 01 2a 3c 55 59 91 be 31 e1 39 bf
       0.14982715 0.010376288 -0.28388467 -0.7260924
0003c0 05 f4 76 be 86 ee d1 be da 44 8c 3e 09 23 aa bd
       -0.24116524 -0.4100229 0.2739628 -0.08307464
0003d0 8c 85 fe be 2b c4 1f bf 8c 36 18 bf c4 f2 fb be
       -0.49711263 -0.62408704 -0.5945823 -0.49208653
0003e0 89 e4 b4 bd b6 3c 11 3e 8d 41 20 bf 9b 0d e8 be
       -0.08832652 0.14183316 -0.6260002 -0.4532288
0003f0 50 97 87 be 81 d5 d2 be ed 7d ce be f5 45 f2 be
       -0.2648263 -0.41178516 -0.4033045 -0.47318998
