checkpoints_backup/230831/checkpoint_85.95.pth (torch, 64863 bytes, 6 tensors)

weight f4 [4, 1, 3, 3]
00000000: 248d a6be c675 a8bd bf41 833e a8d1 7dbe
00000010: e6bd c7bd 1627 c2bd c6a7 713e 3b00 9c3d
00000020: d6ca f0bc 01f6 293f 11e7 9f3f 0f64 f53f
00000030: 744f 053f 2837 493f 85db 9c3f 9ca0 cbbe
00000040: 8411 0abf 8e8b 7bbe de1f 003f 470f ec3e
00000050: 73a4 ffbc 6e72 593f 8b09 163f b2d2 ff3e
00000060: 5dd2 4b3f fc26 81bd 0a57 0cbf 8458 13bf
00000070: 6f94 8fbf 0f6c 39bf d2cd 663f f597 f43e
00000080: 830b 00bf c8f2 7b3f c99d 9f3f 373a 023f
-0.32529557 -0.082255885 0.25636098 -0.24787009 -0.09753017 -0.09480111 0.23599157 0.076172315
-0.029393595 0.66391 1.2492391 1.917116 0.5207436 0.78599787 1.2254492 -0.39770973
-0.53932977 -0.24564955 0.50048625 0.46105406 -0.031206345 0.8494023 0.5860831 0.49965435
0.79617864 -0.06306264 -0.5482031 -0.5755694 -1.1217173 -0.7243051 0.90157807 0.47772184
-0.50017565 0.9841733 1.2470027 0.5087008

bias f4 [4]
00000000: 7c96 94be 73ef 95bf 785a 99bf c260 dabe
-0.2902106 -1.1713699 -1.1980734 -0.42651945

weight f4 [8, 4, 3, 3]
00000000: 8665 243d 8fa2 083e 0a7a 09be eb3b 5dbd
00000010: 6b88 63bd 2049 3ebd dbca 4e3d 50bc 133d
00000020: 3654 48bd 3bd9 05bd 9bdf 35be 3e28 17bf
00000030: 2d61 07be e494 3e3e a178 7abc 1c01 f53e
00000040: 82a6 4a3d 6b8c 29be 1c96 70be 0602 3e3f
00000050: d7a0 143f fcbf 8b3e 934d 2b3f 2517 d73e
00000060: e5fe 283f 5516 643f ff93 3c3e eb90 0d3f
00000070: 1d2b 233f 8cf4 14bf 9a74 c6bf ea88 58bf
00000080: 8943 29bf 5f8d 803b 9c61 b63e cc91 1d3f
00000090: 60fe f83d c09a e63d 567f 4cbd 83fc 26be
000000a0: 96cf 473c b67a d83c 564c 54bc 0bfc bd3c
000000b0: ebf3 0bbe 3401 73be b776 3fbf 860b abbe
000000c0: e7ab f13c 064b 423f 83de 113f 58e8 04bd
000000d0: 2ecb d13e 6cf0 1dbd 4ce7 c1bf 3546 84bf
000000e0: 4ba7 52bf 92ee 89bf 3eca 893e 1506 8cbe
000000f0: 83fd ff3d eb09 7b3e 2fca 17be 0412 86bf
00000100: 1fef 1a3f 2c71 bd3f 40b0 ef3f a4f7 a33f
00000110: 49f3 62bf 8458 b1be 3fed 7abf 0d53 b9be
00000120: 96cc 9cbd 7e46 8fbd b0f9 abbd 1cc3 20be
00000130: 83d8 8e3d e638 9c3d 80f0 30bd abca a938
00000140: b616 483d 6d10 07bf 49d3 bdbe 4c71 763e
00000150: cfeb b8be 2d9a 9fbe 5040 5e3f 8872 fcbd
00000160: 8bc1 5bbf 3821 373f cb4c 8f3f 5282 84be
00000170: 008e 1abf bdf7 8b3f 8fb2 8abd 9562 eebe
00000180: 4b68 6e3f 4113 143f e0cd 27bf 4173 9ebe
00000190: 1d0b 343f 6e55 d5bf 0366 a5be a1e7 813f
000001a0: 1955 debf a545 3e3d dac8 ef3e 2d06 dabf
000001b0: 332e 99bd 974d 0ebe 2bdd d53d d6b1 d83c
000001c0: ee66 bfbd 2b82 2e3d 8b9c 103d 9aa9 05be
000001d0: ab3f 9fbb 6c11 9e3f 1328 a23f e03c 6a3f
000001e0: 8bef a3bf be29 d6be 2868 f3bd 9d3d d83e
000001f0: 807a 703e fb3a bcbf 8c2f 47c0 579b 02c0
00000200: 2c28 e63d 6907 86c0 907b 01c1 4a97 91c0
00000210: da2d c6bd eb73 a4bf 128f 34c0 b4d2 3fc0
00000220: 23ad df3e 25f3 de3e 7d08 623f 4fc0 b53f
00000230: 93d9 73bf 5771 143e 79ea 553e 3f89 d33e
00000240: a081 2fbd b35f 1a3e 2be0 53bc dbb1 063e
00000250: 7000 2abd 9b0b 8fbd ea6e 113e 2b32 0f3e
00000260: f6a8 a2bd 24d8 86bf 1640 9abf 66c4 b1be
00000270: 7519 fd3e 7ffc 283f 52a8 fd3e de56 563e
00000280: 2912 053f 3b0f a2be 24bf 00bf 63e3 86be
00000290: 9ded c13e 6557 023f 79f2 823f 4716 973f
000002a0: 7871 463e 9309 1b3f e6eb 7c3e b438 513e
000002b0: 1679 38bf e785 c23e aa32 1ac0 a2ae a8bf
000002c0: 7e02 e4bd bb11 2c3f 598f b93d 69c9 7bbe
000002d0: 525b 113e f07b 09be 96bc c83d ced6 9f3d
000002e0: 6452 0bbe c091 46bc c2c0 04be 58ee c5bd
000002f0: 76dc d23d e7ea 233f c9f3 f53e 54db 5ebf
00000300: a654 d13e 6d16 a6bf 5b92 293e 91be 423b
00000310: 7fcf 4abf 2846 123e e34b ab3d 598b 773f
00000320: 13b7 81bf 1af7 fe3f f930 36be bcb4 71bd
00000330: 96fe 85be 1a4f dbbd 2258 bd3f 057c cd3e
00000340: 7431 153f e0b9 acbe d5af c1bf 4f72 76c0
00000350: d82d 55bf 429a 86bf cc81 983e f65e 993f
00000360: fb92 b63d 5080 ed3d 8ec9 b63d 961f 95bd
00000370: e68b 943d c6f3 803d 1e07 123e 03cb febd
00000380: d08a 043d 35af b0ba 1e02 01bd c595 d33e
00000390: 2488 87be e3fd 7c3d 276b 29be a8fa 91bd
000003a0: f74e 5e3d 4644 7c3d 30df 353d 1cc5 5bbd
000003b0: a7b7 adbe dfac 27be 59d8 1dbe 7a95 7cbe
000003c0: c0d2 ab3c 266c b03e f223 cdbd 56c7 e73f
000003d0: c9e4 bb3f eebb 99be cd00 debe f23a 273f
000003e0: 5d35 c53f d37a 96bf dce9 d7bf 7a9a 93be
000003f0: 00cc b43b 08cb f0bd 002a bf3d 560b bebd
0.040135883 0.13343261 -0.1342546 -0.05401222 -0.05555002 -0.046456456 0.050486427 0.03606826
-0.048908435 -0.03267787 -0.1776108 -0.5904578 -0.13220663 0.18611485 -0.015287549 0.4785241
0.0494752 -0.16557471 -0.23494762 0.7422184 0.5805792 0.2729491 0.66915244 0.42009845
0.6601394 0.89096576 0.18415831 0.5529925 0.6373766 -0.5818565 -1.5504334 -0.84583914
-0.66118675 0.0039231027 0.35621345 0.61550593 0.12157893 0.11259985 -0.049926125 -0.16307263
0.012195488 0.0264257 -0.012957653 0.023191473 -0.13667266 -0.23730928 -0.7479052 -0.3340723
0.029500915 0.75895727 0.5698015 -0.032448143 0.40975326 -0.038559362 -1.5148711 -1.0333925
-0.8228652 -1.0775931 0.2691211 -0.2734839 0.124995254 0.24515502 -0.1482322 -1.0474248
0.6052112 1.4800162 1.8725662 1.2809949 -0.88652474 -0.34637845 -0.9801826 -0.36196175
-0.07656209 -0.06995867 -0.083972335 -0.15699428 0.0697489 0.0762804 -0.04319811 8.096298e-05
0.048849784 -0.5275944 -0.3707526 0.24066657 -0.36117408 -0.31172314 0.86816883 -0.123265326
-0.858422 0.7153506 1.119531 -0.25880677 -0.60372925 1.0934979 -0.067723386 -0.46559587
0.9312789 0.5784188 -0.65548515 -0.30947307 0.7032946 -1.6666696 -0.3230439 1.0148813
-1.736972 0.046453137 0.46832925 -1.7033135 -0.07479515 -0.13896786 0.10442575 0.026451986
-0.09345804 0.042604607 0.03530554 -0.13052979 -0.0048598847 1.2349067 1.266848 0.9149914
-1.2807478 -0.41828722 -0.118851006 0.42234507 0.2348423 -1.47055 -3.112277 -2.0407312
0.11238131 -4.1884046 -8.092667 -4.549718 -0.09676714 -1.2847875 -2.8212323 -2.9972353
0.4368678 0.4354488 0.882942 1.4199313 -0.95253867 0.1449636 0.20890225 0.41315648
-0.04284823 0.15075569 -0.012931864 0.13153784 -0.041504323 -0.069846354 0.14202467 0.13983981
-0.07942383 -1.0534711 -1.2050807 -0.34720153 0.49433485 0.6601028 0.4954248 0.20931575
0.51980835 -0.31652245 -0.5029166 -0.26345357 0.37876597 0.50914603 1.0230247 1.1803674
0.19379222 0.60561484 0.24699363 0.20431787 -0.7205976 0.37992784 -2.4093423 -1.3178294
-0.11133288 0.67214555 0.090605445 -0.2458855 0.14194992 -0.13426185 0.09801595 0.078046426
-0.13605648 -0.01211971 -0.12964156 -0.09664601 0.10295956 0.6403031 0.48037556 -0.8705342
0.40884894 -1.2975594 0.16559736 0.0029715637 -0.79222864 0.14284575 0.083640836 0.96697
-1.0133995 1.991916 -0.17792119 -0.059010252 -0.26170796 -0.10708447 1.4792521 0.40133682
0.58278584 -0.3373556 -1.5131785 -3.8507268 -0.83273077 -1.0515826 0.29786527 1.1982105
0.08914753 0.11596739 0.08925162 -0.07281415 0.07253246 0.06296496 0.14260527 -0.12441065
0.032358944 -0.001347995 -0.03149616 0.41325203 -0.26471055 0.061765563 -0.16544782 -0.07127887
0.054274525 0.061588548 0.0444023 -0.053654775 -0.33929178 -0.16374539 -0.15414561 -0.24666396
0.020974517 0.3445751 -0.10016622 1.8107708 1.4679195 -0.3002619 -0.43359986 0.6532432
1.540691 -1.1756233 -1.6868243 -0.28828794 0.0055174828 -0.11757475 0.09334183 -0.09279506

bias f4 [8]
00000000: 487b 11c0 5dc3 31bf 5427 293f 2000 febd
00000010: 190e 9dbf 26dc 8c3e 9a2c 8abf 81b8 3dbf
-2.2731495 -0.69438726 0.66075635 -0.124023676 -1.2269927 0.2751171 -1.0794861 -0.74109656

weight f4 [29, 512]
00000000: 9e2a be3d 35db 073f 8042 eebe e947 81be
00000010: 381a 59be 7894 3dbe 4b03 aac0 c9cc ff3e
00000020: 7a46 463d ce43 ac3d 48d8 093d 0778 2bbe
00000030: f728 26be b701 09bd de27 053e 1d47 0dbd
00000040: 3b39 c53d 7f20 2c3d 3bfb f1bd 683b 20be
00000050: 96a8 08be 209d ff3d fc83 c6bd dbd2 0fbe
00000060: f624 173e 3f71 88bd 1869 d8bd c7a8 51be
00000070: 0340 e2be e4b5 25be 828b 6abe 8130 3b3c
00000080: c977 0b3f 70e0 9f3e f039 51bd c697 7abd
00000090: dab5 84be 6ba4 8bbe 88ce bb3c 3287 873c
000000a0: 4173 233f b855 d83e ab4d bc3d a702 a63e
000000b0: 0b38 723e c3df 7b3e 182e cd3d 8d35 a23d
000000c0: 06c9 1b3f 7b51 ac3e b409 193e 274e 453e
000000d0: 24c2 b73d fe24 b03d edac 663d ac7b ddbc
000000e0: 07f3 2d3f 9adb de3e fb50 8c3e c494 c83e
000000f0: 59df ba3e 8bbb b93e d399 a03d 14e4 593d
00000100: ceef a13c 9dfb 1fbd ebde d2bc 2bcf 85ba
00000110: bbe7 0d3c 3e65 373e 17ed a93e 0cff 9d3d
00000120: 910d 7ebc a6c5 e6be 3d4e 26be 8fe0 ffbc
00000130: 171b 9a3d aebd d63c 8b82 3db9 1eb7 ed3d
00000140: 9b38 523f efe6 1740 d1af 603e e346 92be
00000150: 7275 37bd 8ad4 e5bb 0337 993e a9f7 a73f
00000160: 9b7b 8c3e 1534 1ec0 0461 a8be 0c86 673e
00000170: 8270 943c 0915 47be e0cc 043f e6b6 87bd
00000180: 67da b23d 6b06 c9be 0fbb b7be a532 783d
00000190: 9ce4 a1bd 4762 9bbd becd d7bc 53aa 29be
000001a0: 1880 44bf 71cb 58bf 8f1d 5e3e f241 1ebf
000001b0: 66fb 3ebe 859e b0bd 748b e1bd 1c57 513d
000001c0: a4d3 17bc 390d 363e b4ec 623e 35f3 2a3d
000001d0: 6e40 fbbd 27e6 30be deb0 3abe 0ece ef3e
000001e0: 0cb9 12bf 532f 6abf 1c35 813e 3413 3ebe
000001f0: 6b01 1cbe 810a b73b 3d1e c93d c715 6e3d
00000200: 0897 0fbf 1fff 00be 5c80 8dbe 52ed 51be
00000210: 570d 18be 18d0 8bbe f7b5 c7be 90b6 b73c
00000220: 7a88 7dc0 fea2 83bf 8da6 88bf 8e21 4fbf
00000230: da8f e7bd f56f ca3d 8abe 08be ae0c c6bd
00000240: 305f 0fbf 0aa5 afbe d5a8 f4be ca7b 1cbf
00000250: 3908 e2be bf02 6fbb e2c4 92bd 1aa2 73bf
00000260: 0750 02bf a6ce ee3d 3e99 63bc efd0 14be
00000270: 86d2 4dbe ea89 1c3d d5f4 a2bd e9d7 30bf
00000280: f39a 3f3d 13d9 a73e e061 9e3d f2df 213e
00000290: df2b 94bc 93ef d3bd 4eab e23a 3ada 64bf
000002a0: 21ea 0cbe 209f 8a3e 1222 e93d 7930 403e
000002b0: de73 ed3d 81b1 f13c e211 17be 391c 75be
000002c0: 870c 54bd fb81 c63d 9047 a93d c28d 063e
000002d0: 4b99 2b3d e5b2 bcbb 7c79 90be dbd2 1cc0
000002e0: 00a9 14be 6357 fa3d 4473 433e 32ff 023e
000002f0: 0aa6 fb3d 2405 c23d 283d 99be 35ba 83c0
00000300: 43a2 8dbe 5394 223f e802 bbbe 3678 37be
00000310: 87c2 a4be fe19 10bf bd5b f83d 7ecf 163e
00000320: 1057 48be 8bee 36c0 6788 28bb 5290 85bd
00000330: 49d5 c53d a38d 843e 7591 afbe 68a8 103f
00000340: a987 c13e d415 793c 503d b23d 9422 c13c
00000350: f24e 813c 97b6 f83d 6a93 fb3c 68ca 83bd
00000360: e201 9ebf 930f 95bf b0ef 25be cc56 09be
00000370: c7c7 86be 799d 08bc fdde d43c 89c5 74bf
00000380: 0392 683f 93ad 87bf 3712 19be 4be4 f6bd
00000390: a884 c2be 2e2f 6bbe 4b48 c03b 9b0c 9f3d
000003a0: 1220 923d 208f e63d d8be 01bd cf1e e2bc
000003b0: 36d6 1abc e680 a03d 31c9 c7bd 0e95 a5be
000003c0: 6514 343e 7bd9 ce3e 7810 5dbe 871e adbe
000003d0: fa7b 77be 1c45 9cbf 4e46 50bf f714 adc0
000003e0: 97d4 63bf 0961 98be d99c c0bc d4dd 173b
000003f0: 953b a53e 7dcc ec3d f29a 5b3c b6dc d8c0
0.09285472 0.5306886 -0.4653511 -0.25250176 -0.21201408 -0.18513668 -5.312902 0.49960926
0.048407055 0.0841137 0.033653527 -0.16745006 -0.16226564 -0.0334489 0.1300349 -0.034491647
0.096300565 0.04202318 -0.118154965 -0.15647662 -0.1334556 0.12481141 -0.09693143 -0.14045279
0.14760193 -0.06662225 -0.1056692 -0.2047454 -0.44189462 -0.16182667 -0.2290478 0.011425138
0.5447965 0.3122592 -0.051080644 -0.0611799 -0.25919992 -0.27273878 0.02292563 0.016543958
0.6384774 0.42252898 0.091945015 0.324239 0.23654191 0.24597077 0.10018557 0.0792037
0.6085361 0.33655915 0.14945108 0.19268094 0.08972576 0.08600806 0.05631726 -0.02703651
0.67948955 0.43526918 0.27405533 0.39176 0.36498526 0.36275896 0.0784184 0.053196028
0.019767668 -0.039058316 -0.025741061 -0.0010208836 0.008661206 0.17909715 0.33188698 0.07714662
-0.015506164 -0.4507267 -0.16240783 -0.031235008 0.07524698 0.026213493 -0.00018073076 0.116071925
0.82117623 2.37347 0.21942069 -0.28569707 -0.04478974 -0.007013862 0.29924783 1.3122455
0.27438053 -2.4719288 -0.32886517 0.22609729 0.018120054 -0.19441618 0.51875114 -0.06626682
0.08733063 -0.3926271 -0.35884902 0.060595173 -0.07904932 -0.07587104 -0.026343223 -0.1656888
-0.76757956 -0.84685427 0.21690963 -0.61819375 -0.18650588 -0.08623985 -0.11012927 0.051108465
-0.009266768 0.17778482 0.22160608 0.041735847 -0.12268148 -0.17275296 -0.18231532 0.46836895
-0.5731361 -0.9147846 0.25235832 -0.18562013 -0.15234916 0.005585969 0.098202206 0.058126237
-0.5608983 -0.12597321 -0.27636993 -0.20500687 -0.14848839 -0.273072 -0.39006016 0.02242592
-3.9614549 -1.0284116 -1.0675827 -0.80910575 -0.113067344 0.09884635 -0.13353935 -0.09670387
-0.5600462 -0.34305602 -0.4778506 -0.6112639 -0.44146898 -0.0036470143 -0.07166459 -0.9516922
-0.5090336 0.11660509 -0.013891516 -0.14532827 -0.2009984 0.038217463 -0.07956854 -0.6907945
0.04677863 0.32782802 0.07733512 0.15808085 -0.018087326 -0.103484295 0.0017293484 -0.8939549
-0.13761188 0.27074528 0.113834515 0.18768491 0.115943655 0.029503586 -0.14752916 -0.23936547
-0.05176976 0.096927606 0.082656026 0.13140014 0.04189424 -0.0057586306 -0.28217685 -2.4503696
-0.14517593 0.12223699 0.19086939 0.12792662 0.12287529 0.09473637 -0.2992947 -4.1164804
-0.27662858 0.63507575 -0.36525655 -0.1791695 -0.32179663 -0.5628966 0.12126873 0.1472759
-0.19564462 -2.8583095 -0.0025716068 -0.065216675 0.096598215 0.2588931 -0.34290662 0.5650697
0.37798813 0.015202958 0.08703101 0.023576058 0.015784714 0.12144201 0.030709941 -0.0643509
-1.2344325 -1.1645378 -0.16204715 -0.13412017 -0.26324293 -0.008338326 0.025985235 -0.95613915
0.90847796 -1.0599846 -0.14948355 -0.12055262 -0.37991834 -0.22967216 0.005867993 0.07766076
0.07135023 0.11257768 -0.031676143 -0.027602581 -0.009450486 0.078370854 -0.09755171 -0.32340282
0.17585905 0.404003 -0.21588314 -0.33812353 -0.24168387 -1.220859 -0.81357276 -5.408809
-0.8899626 -0.29761532 -0.02351229 0.0023172991 0.3227202 0.115624405 0.013403641 -6.7769423

bias f4 [29]
00000000: fd2d debd 7533 1bbd e764 4fbf d58f 143e
00000010: 3f07 aabe 686e 19bf ef46 133f 4f06 f53c
00000020: 8522 3c3f cec1 df3e d34a 823f c552 ccbf
00000030: 4998 68bf db9c debe ab14 0fbf cdb0 743d
00000040: 55aa 523f 1e67 943f 3466 c53e 43b6 683f
00000050: cc86 5cbe 115c b6be 0483 823e 8580 333f
00000060: f8f1 13bf 3b39 613e c9a2 77be 5122 d33f
00000070: 7eb4 a5bf
-0.10848615 -0.03789087 -0.8101334 0.14507993 -0.33208653 -0.5993409 0.5753011 0.029910235
0.7349017 0.4370255 1.0179085 -1.5962759 -0.9085737 -0.43479046 -0.5589091 0.059738923
0.82291156 1.1593969 0.38554537 0.9090311 -0.21535796 -0.35617116 0.25490582 0.7011798
-0.5779109 0.21994488 -0.24183191 1.6494848 -1.2945707
