checkpoints_backup/230831/checkpoint_84.09.pth (torch, 64863 bytes, 6 tensors)

weight f4 [4, 1, 3, 3]
00000000: 248d a6be c675 a8bd bf41 833e a8d1 7dbe
00000010: e6bd c7bd 1627 c2bd c6a7 713e 3b00 9c3d
00000020: d6ca f0bc 290d 2c3f 5c50 9f3f 892a e63f
00000030: df36 193f 4a27 433f b413 9e3f 647e d0be
00000040: 661a 13bf 3207 83be d01e ff3e 6544 ee3e
00000050: ce76 febc a294 463f 1041 063f fa39 d03e
00000060: ba7b 473f d866 363d edcb f5be 16a4 0fbf
00000070: e479 76bf 3f97 1ebf d154 5d3f cff0 d43e
00000080: 3bb2 0dbf 6001 773f d455 9d3f 03c1 be3e
-0.32529557 -0.082255885 0.25636098 -0.24787009 -0.09753017 -0.09480111 0.23599157 0.076172315
-0.029393595 0.6720758 1.2446399 1.7981731 0.5984935 0.76231825 1.2349763 -0.40721428
-0.57462156 -0.25591427 0.49828196 0.46536556 -0.03106251 0.77570546 0.5244303 0.40669233
0.77923167 0.044531673 -0.48007146 -0.5610975 -0.9627974 -0.61949533 0.86457545 0.41589972
-0.55350083 0.96486473 1.2291818 0.3725663

bias f4 [4]
00000000: 7c96 94be 8946 93bf d282 95bf a296 d1be
-0.2902106 -1.1505901 -1.1680548 -0.40935236

weight f4 [8, 4, 3, 3]
00000000: 8665 243d 8fa2 083e 0a7a 09be eb3b 5dbd
00000010: 6b88 63bd 2049 3ebd dbca 4e3d 50bc 133d
00000020: 3654 48bd b53e 81bd 9887 42be 345e 17bf
00000030: af4b eebd aed8 283e 519c 163b 8ed7 e53e
00000040: 1ffc d73d 5cd8 68be b44e bbbd 6e6f 323f
00000050: 9385 063f a83c a93e 05c4 253f 0b67 ba3e
00000060: ff93 1e3f f2ed 573f 95f4 e53d accb 143f
00000070: 4264 0e3f 792b d7be 9118 d0bf 919d 4abf
00000080: 5a17 30bf ff72 fcbb e012 533e a849 3c3f
00000090: 60fe f83d c09a e63d 567f 4cbd 83fc 26be
000000a0: 96cf 473c b67a d83c 564c 54bc 0bfc bd3c
000000b0: ebf3 0bbe 52d9 99be b135 38bf 862f 9ebe
000000c0: 2a0e d03c 97c4 3a3f b5c5 0d3f 2c7c 4f3d
000000d0: d97b c13e a878 9fbc c4c2 c5bf 18fe 88bf
000000e0: 6509 5bbf 24c4 50bf 6eeb 5a3e a472 2fbe
000000f0: 128d 603e 937d 573e 6ebc efbd 7b0c 90bf
00000100: 02d3 3b3f 6867 bd3f bbc2 ec3f 02cd a43f
00000110: 08a0 23bf 8f5e dbbe 2ca1 81bf dcf0 16bf
00000120: 96cc 9cbd 7e46 8fbd b0f9 abbd 1cc3 20be
00000130: 83d8 8e3d e638 9c3d 80f0 30bd abca a938
00000140: b616 483d f352 e9be 52eb bcbe fbc4 773e
00000150: 1e06 c7be 7220 8ebe d5a3 563f bf2e e7bd
00000160: d765 4bbf 6019 2c3f fd4c 793f 5058 b5be
00000170: c0d3 24bf 008d 873f 8767 83bd c3a0 74be
00000180: d912 763f 1f4d 123f cf4c 45bf 4d98 58be
00000190: 668a 113f 5328 e9bf e63f 25be ef4a 263f
000001a0: d279 f1bf 1b41 823e e418 e33e 7c60 ddbf
000001b0: 332e 99bd 974d 0ebe 2bdd d53d d6b1 d83c
000001c0: ee66 bfbd 2b82 2e3d 8b9c 103d 9aa9 05be
000001d0: ab3f 9fbb 41b3 923f ec08 a33f 6963 723f
000001e0: 3035 a1bf 98ff d3be 9d90 12be 4d89 0b3f
000001f0: 3626 063e 3ac0 bebf ad5c 2fc0 45e5 f5bf
00000200: df9b dd3b db2d 6cc0 d691 e6c0 e1d1 88c0
00000210: aec0 91bd 0545 acbf 99d3 17c0 8256 49c0
00000220: 5265 cf3d 31b3 c13e 7f1d 563f d187 9a3f
00000230: 95e5 88bf 65bc 8b3e 7220 b13e 9505 ee3e
00000240: a081 2fbd b35f 1a3e 2be0 53bc dbb1 063e
00000250: 7000 2abd 9b0b 8fbd ea6e 113e 2b32 0f3e
00000260: f6a8 a2bd c7df 78bf 49cc 85bf 1c27 4bbe
00000270: adb3 ba3e 95f8 f63e 2f57 f53e 3ff1 453e
00000280: 3e86 e03e 7b29 9dbe 5205 e6be f60d 05be
00000290: 6044 d93e bb7b ed3e 78e4 6e3f 990b 853f
000002a0: eb8e 7a3e aa64 2d3f 2151 873e 57f2 ba3e
000002b0: f924 ddbe a4a4 003f 1ce9 13c0 d154 6bbf
000002c0: bb7d 72bc ebd5 0d3f 36c0 21bd a79e 97be
000002d0: 525b 113e f07b 09be 96bc c83d ced6 9f3d
000002e0: 6452 0bbe c091 46bc c2c0 04be 58ee c5bd
000002f0: 76dc d23d 413c 183f eb3b eb3e 59cb 54bf
00000300: 16dd cb3e 385c 97bf 0994 ca3d f6e4 d8bd
00000310: a178 64bf 8451 a93e 9446 803e 3311 633f
00000320: 3f66 82bf 7106 e93f cb06 6fbe 0ffb 96be
00000330: f8db 74be 2a3c 1fbe 3a43 e83f bad5 003f
00000340: 82e4 3e3f 569b ecbe d2ed 87bf a92b 48c0
00000350: 835b 3dbf acb4 4ebf 05c9 263d f3bd 963f
00000360: fb92 b63d 5080 ed3d 8ec9 b63d 961f 95bd
00000370: e68b 943d c6f3 803d 1e07 123e 03cb febd
00000380: d08a 043d a68c 94bd 4196 e0bd c1c9 cf3e
00000390: 3320 2ebe 9113 603d 9c53 61be 324f d9bd
000003a0: 5fa1 763d 5cfc c13d 1ac3 f53d d122 f6bc
000003b0: 6ee9 9cbe e078 0dbe 7bce 5ebd d06d 53be
000003c0: 596d 1fbd 5dc0 943e ed7d c7bd f8f8 e03f
000003d0: 43a8 c23f 4879 90be 0490 a6be 1788 593f
000003e0: 6bdb b63f d4cb 8bbf 19a4 d2bf 6ef2 02be
000003f0: 00cc b43b 08cb f0bd 002a bf3d 560b bebd
0.040135883 0.13343261 -0.1342546 -0.05401222 -0.05555002 -0.046456456 0.050486427 0.03606826
-0.048908435 -0.063107885 -0.18997037 -0.5912812 -0.11635529 0.16488907 0.0022981355 0.44891018
0.10546135 -0.22738785 -0.09145871 0.6970128 0.5254757 0.3305409 0.6475223 0.3640674
0.61944574 0.8434745 0.11228291 0.5812328 0.5562173 -0.42025355 -1.6257497 -0.7914668
-0.6878563 -0.0077041383 0.20612669 0.7354989 0.12157893 0.11259985 -0.049926125 -0.16307263
0.012195488 0.0264257 -0.012957653 0.023191473 -0.13667266 -0.30048615 -0.71956927 -0.30895633
0.025397379 0.7295622 0.553798 0.05065553 0.377898 -0.019466713 -1.5450063 -1.0702543
-0.8556121 -0.81549287 0.21378872 -0.17133576 0.21928814 0.21043997 -0.11705862 -1.1253809
0.7336885 1.4797182 1.8496927 1.2875063 -0.63916063 -0.4284558 -1.0127311 -0.5896127
-0.07656209 -0.06995867 -0.083972335 -0.15699428 0.0697489 0.0762804 -0.04319811 8.096298e-05
0.048849784 -0.45571098 -0.36898285 0.24196236 -0.38871855 -0.2775913 0.8384374 -0.11288213
-0.7945227 0.6722622 0.973831 -0.3541894 -0.64385605 1.0589905 -0.06416231 -0.2388945
0.9612251 0.5714893 -0.77070326 -0.21151848 0.56851804 -1.8215431 -0.16137657 0.6495809
-1.8865302 0.25440297 0.44354928 -1.729507 -0.07479515 -0.13896786 0.10442575 0.026451986
-0.09345804 0.042604607 0.03530554 -0.13052979 -0.0048598847 1.1460954 1.2737098 0.9468294
-1.2594357 -0.4140594 -0.14312978 0.5450638 0.13100514 -1.4902413 -2.7400315 -1.9210593
0.006762966 -3.6902988 -7.2053022 -4.27562 -0.07116829 -1.3458563 -2.37229 -3.145905
0.10126747 0.37832025 0.8363876 1.2072698 -1.0695063 0.2729217 0.34595066 0.46488634
-0.04284823 0.15075569 -0.012931864 0.13153784 -0.041504323 -0.069846354 0.14202467 0.13983981
-0.07942383 -0.9721646 -1.0452968 -0.19839138 0.36465207 0.48236528 0.47918078 0.1933031
0.4385242 -0.3069571 -0.44925934 -0.12993607 0.42434978 0.4638346 0.93317366 1.0394164
0.24468581 0.67731726 0.26429084 0.36513016 -0.4319227 0.5025122 -2.3111029 -0.91926295
-0.014800484 0.5540454 -0.039489947 -0.2961323 0.14194992 -0.13426185 0.09801595 0.078046426
-0.13605648 -0.01211971 -0.12964156 -0.09664601 0.10295956 0.5946694 0.4594415 -0.83122784
0.39817113 -1.1825018 0.09891517 -0.10590546 -0.89246565 0.33070004 0.25053847 0.8869812
-1.0187453 1.8205091 -0.23342435 -0.29488418 -0.23912036 -0.15550295 1.8145516 0.5032612
0.74567425 -0.46212262 -1.0619452 -3.1276648 -0.7396776 -0.80744433 0.04071905 1.1776718
0.08914753 0.11596739 0.08925162 -0.07281415 0.07253246 0.06296496 0.14260527 -0.12441065
0.032358944 -0.07253389 -0.10966159 0.40583614 -0.1700447 0.05470616 -0.2200455 -0.106108084
0.06021249 0.09471962 0.12000103 -0.030045899 -0.30646843 -0.13815641 -0.054396134 -0.20647359
-0.03892264 0.29053012 -0.09740815 1.7575979 1.5207599 -0.2821753 -0.3253175 0.8497328
1.4285711 -1.0921578 -1.6456329 -0.12787792 0.0055174828 -0.11757475 0.09334183 -0.09279506

bias f4 [8]
00000000: 3720 fabf 3642 2fbf 336a 363f 8de1 3b3d
00000010: 506f a9bf 58d0 843e 4b3f 7dbf f0ef 35bf
-1.9541081 -0.68460405 0.712558 0.0458694 -1.3237095 0.25940204 -0.989247 -0.7106924

weight f4 [29, 512]
00000000: bedd 493e fb9b df3e c4a2 c6bc 059d 90be
00000010: 533f 14be 4646 58be 635a 68c0 6575 c53e
00000020: 0d8d 5a3d af86 da3c 6eea 7a3d ffc3 14be
00000030: aa82 07be 597e 223d 5960 ed3d 5ca1 8fbd
00000040: bb1f d43d d47b 623c c8ab 1dbe 72a3 debd
00000050: df15 77bd 3484 c7bc 71d4 29be 480f 99bd
00000060: c244 f73d f3d9 8cbc 1624 85bd cf69 4dbe
00000070: f2ab e5be e347 fdbd 4acf 89be e309 96bc
00000080: 8c4c 183f d801 843e 528f 6d3d ed42 aabc
00000090: f7e3 66be 0e0a 6cbe 07ca 89bd 1cf7 3f3c
000000a0: f43b 233f 60a4 cd3e acc0 933d 251d a73e
000000b0: c712 643e 8a57 af3e e0d9 683b 394d c63d
000000c0: d0a8 183f cae5 923e 34a2 fd3d 52be 4a3e
000000d0: 9a1e a23d c6ca 213e 9a3c fabc 26fc 99bc
000000e0: ce7f 0c3f 7f4b c23e aaf9 883e a9d9 a03e
000000f0: baa8 d83e 7071 c63e 8e44 293e 1336 0c3d
00000100: 57da fabc eb80 23bd f928 33bd 5873 0a3b
00000110: 9d22 bc3c 7263 343e e2b8 a13e 3a43 843d
00000120: a1b4 eebc 290f aebe 817c 86bd db23 b5bc
00000130: 2bbf 973d bea7 583c 74ec cdbc 2459 8d3d
00000140: 92b7 de3e d77d 0940 b03e 2c3e a088 7ebe
00000150: 7af6 c43c 6389 293d dc14 c03e c470 bc3f
00000160: 59e4 a83e 4736 14c0 0faf 89be b9a0 6a3e
00000170: 415a b33d 15b2 92bd 6552 cd3e 5f13 b3bc
00000180: 41f6 f43c 5a79 cebe 528e 9abe 0efa b93d
00000190: 2f6f 0dbb be05 cbbc 4876 a0bc d0c8 8bbd
000001a0: cbc8 30bf 25dc 5abf 0b08 a93d ba00 24bf
000001b0: 96c6 fcbd 2f28 9cbd fe9b 13be 6b98 d83d
000001c0: 7103 003e a75d 88bd 72e4 293d 7045 b8bc
000001d0: 42f4 0ebe 7c25 24be e5f9 b1bd 72be 0f3f
000001e0: 3994 c4be f1a7 67bf 8f29 953d 4833 50be
000001f0: 1991 69be 69bc 2f3c 28de 213e c456 a3bd
00000200: 014c a9be 0e51 46bd 182f aebe f0d6 80be
00000210: 2150 e3bd 321c 79be a64f 8fbe a6bc ef3c
00000220: 9b56 58c0 6713 52bf a91a 69bf 4910 56bf
00000230: 3829 23bd f983 1b3d eda1 13be 6b75 10be
00000240: 95d2 17bf 02d4 60be ca56 0bbf 4891 03bf
00000250: 6b13 f0be a163 083d f8cd 04bd 3daf 53bf
00000260: d8ea 09bf 730f f83d 2e68 b53c 061b 0bbe
00000270: 0f13 24be 17e9 b13d 402b 96bd 9502 0abf
00000280: 87f0 13bd fe7f be3e e7e2 a43d 55a1 163e
00000290: 93b5 ccbb d15c d2bd 81f8 fb3c 2c8c 1dbf
000002a0: 0308 1fbe a48b 5a3e 20f7 f03d 4263 0d3e
000002b0: 80f5 ee3d 86cd 963d 6557 ebbd f606 56be
000002c0: 0f49 11bd 4074 d03d a2b8 ca3d fa57 163e
000002d0: aa17 603d db75 263d 6304 3bbe d64c 0ac0
000002e0: d908 a1bd 4c58 083e 68d6 e03d 0601 013e
000002f0: eb5f 1a3e b9c2 d93d 39f3 7bbe df7d 68c0
00000300: 1211 a2be a482 d83e 7ebd 93be c5af 4abd
00000310: 3754 7bbd 62db 14be cd5f fa3d f2d0 cb3d
00000320: 0da7 cdbf a135 0dc0 3df5 203e a048 debd
00000330: e43b b43d 3871 353e bbaf c3be b648 023f
00000340: f633 6b3e bd51 dcbc 23a9 453e 2193 5d3d
00000350: 25d8 c83d a01a ef3d 4167 283e 3c0d f6bd
00000360: 911f a0bf 6a18 91bf 2d97 b8bd fcba c2bd
00000370: cba0 30be a574 4e3d 0e15 163d 64e6 33bf
00000380: 4642 403f ef41 53bf 9d5b 22be 7ef3 b5bd
00000390: e9b4 9bbe 527a 13be 1742 7a3d a819 a03d
000003a0: dee8 b5bd 98dc 183e 572c 8d3c 3552 8d3c
000003b0: cde8 613d 79d2 f63d 2915 76bd af5c 0abf
000003c0: 88bc fe3d c051 973e b865 13be 3046 52be
000003d0: b020 68be a85a 9bbf f71e 0fbf aa02 98c0
000003e0: 21c2 64bf e4aa 08be 8de1 8a3d 515a 693c
000003f0: c223 943e 3a56 c13d 0e4c 22be c41d bfc0
0.19713494 0.4367369 -0.024247535 -0.28244796 -0.14477281 -0.21120557 -3.6305168 0.38566127
0.053357173 0.02667555 0.061258726 -0.14527892 -0.13233438 0.039671276 0.115906425 -0.07013199
0.103576146 0.013823468 -0.1539756 -0.108710185 -0.060323592 -0.024355032 -0.16584946 -0.07473618
0.120736614 -0.01719377 -0.065010235 -0.20059894 -0.44857746 -0.12367227 -0.26915962 -0.018315261
0.594918 0.25782657 0.05799801 -0.020783866 -0.22547899 -0.2305071 -0.06727987 0.01171663
0.63763356 0.4016447 0.072144836 0.32639423 0.22272788 0.34246475 0.0035530254 0.09682698
0.5963259 0.2869094 0.123844534 0.19799164 0.07915993 0.15800008 -0.030546475 -0.018796992
0.54882514 0.37948224 0.2675298 0.31416062 0.42316228 0.3875842 0.16530058 0.034231257
-0.03062169 -0.039917868 -0.043740246 0.002112588 0.022965724 0.1761606 0.31586367 0.06458135
-0.029138865 -0.3399594 -0.06566716 -0.022111824 0.07409509 0.013223587 -0.025137164 0.06901768
0.43499428 2.1483057 0.16820788 -0.24856806 0.02404331 0.041390788 0.37515914 1.4721913
0.32986715 -2.3158128 -0.26891372 0.22912873 0.08757449 -0.07162873 0.40101925 -0.021859823
0.02990258 -0.4032696 -0.30186707 0.09080897 -0.0021581163 -0.024783012 -0.01958765 -0.06825411
-0.69056386 -0.85492164 0.08253487 -0.6406361 -0.12342565 -0.07624852 -0.14414975 0.105759464
0.12501313 -0.06658488 0.041477628 -0.022494048 -0.13960364 -0.16029924 -0.08690242 0.5614997
-0.38394335 -0.90490633 0.07283317 -0.20332062 -0.22809257 0.010726073 0.15807402 -0.079755336
-0.330658 -0.048417144 -0.34020305 -0.25163984 -0.11099268 -0.24327162 -0.27990454 0.02926476
-3.380286 -0.82060856 -0.91056305 -0.836186 -0.03983423 0.037967656 -0.14417239 -0.14107291
-0.593057 -0.21955875 -0.54429305 -0.51393557 -0.46889815 0.03329814 -0.03242299 -0.8268927
-0.5387397 0.12112322 0.022144403 -0.13584527 -0.16022895 0.086870365 -0.07332468 -0.5391019
-0.036118057 0.37207025 0.08051091 0.14709981 -0.0062472313 -0.102716096 0.030758144 -0.6154201
-0.155304 0.21342331 0.11765885 0.13807395 0.11667919 0.07363419 -0.114912786 -0.20901093
-0.035470065 0.10178423 0.09898497 0.14681998 0.054710068 0.04063974 -0.18263392 -2.1609397
-0.07863016 0.13314933 0.10978395 0.12598047 0.15075652 0.106328435 -0.24604501 -3.6326826
-0.3165365 0.4228717 -0.2885551 -0.049484033 -0.06135961 -0.14536813 0.12225304 0.099519625
-1.6066605 -2.2063982 0.15718551 -0.10853696 0.08800486 0.17718971 -0.3822001 0.508922
0.2296904 -0.026894445 0.19302802 0.05409539 0.09806851 0.11675 0.16445638 -0.12014243
-1.2509633 -1.1335576 -0.090132095 -0.09508321 -0.17248838 0.05040421 0.036641173 -0.70273423
0.75101125 -0.8252248 -0.1585526 -0.08884333 -0.3041146 -0.1440213 0.061098184 0.078173935
-0.088823065 0.149279 0.017233057 0.017251113 0.055153657 0.12051863 -0.060078774 -0.54047674
0.12438303 0.29554558 -0.14394271 -0.20534587 -0.2266872 -1.2137041 -0.55906624 -4.750325
-0.8935872 -0.1334644 0.06781302 0.0142427245 0.2893353 0.094402745 -0.15849325 -5.9723835

bias f4 [29]
00000000: fda8 eabd d46f 99bc 94b8 19bf b24b df3d
00000010: b1f3 bcbe 777c f7be 956b e23e 6271 3fbd
00000020: 6256 163f 5b92 d63e 3c99 653f b5ae a2bf
00000030: 2ec5 3abf 04d6 adbe 9da1 e8be 103a da3d
00000040: 598d 193f 55b9 6f3f 3340 4f3e befb 3b3f
00000050: 423e 19be 7f9e 80be 96aa 613e c78e fd3e
00000060: 82fc f8be 9992 753e 2d18 2bbe 74e5 a53f
00000070: 707c 70bf
-0.11458013 -0.018730082 -0.6004727 0.109031096 -0.36904672 -0.48337147 0.44222704 -0.04673899
0.5872556 0.41908535 0.8968694 -1.2709566 -0.7295712 -0.33952343 -0.454358 0.10655606
0.59981304 0.9364217 0.20239334 0.73431003 -0.14965156 -0.25120923 0.2203773 0.49522993
-0.48630148 0.23981704 -0.16708441 1.2960649 -0.93939877
