checkpoints/checkpoint_96.36.pth (torch, 63568 bytes, 3 tensors)

weight f4 [4, 1, 3, 3]
000000 53 4d 0c bf 2c b2 2f 3e 36 77 6a 3f e4 8a 19 bf
       -0.5480549 0.17157811 0.9158815 -0.59977555
000010 4e 84 a6 3e 67 6a 22 3f ae 89 1c bf d3 c2 07 bf
       0.32522815 0.6344361 -0.6114758 -0.53031653
000020 01 f4 ae 3e 31 65 df bd 6a 36 47 be b0 ee a4 3d
       0.34170535 -0.109079726 -0.19454351 0.080533385
000030 6e 4d a7 be 5b 5d f0 bd 04 ff 9b be 67 1c 87 3d
       -0.32676262 -0.11736556 -0.30468 0.06597214
000040 16 aa 6a 3d 71 4b 11 be 56 8c aa 3f 9a 11 f1 3e
       0.057291113 -0.14188935 1.3324077 0.4708374
000050 e7 89 a6 3d e5 f9 67 40 a5 83 46 40 ae 79 3d 40
       0.081317715 3.6246274 3.101785 2.9605517
000060 41 8c 10 40 34 2e 16 40 04 b8 54 40 03 67 c5 be
       2.2585604 2.34657 3.3237314 -0.38555154
000070 3c 8c 85 bf 6f e7 46 bf 82 33 0e bf 1d 2d d3 bd
       -1.0433421 -0.7769689 -0.55547345 -0.10311339
000080 49 8d 29 3f 38 fb db 3e 84 e8 80 3f e9 ea 5b 3f
       0.6623121 0.42965102 1.0070958 0.8590532

weight f4 [8, 4, 3, 3]
000000 8c c0 11 40 35 cb 61 40 84 5f 6b 3f f8 7d ec be
       2.2773771 3.5280278 0.9194262 -0.46189857
000010 3c 5f 35 40 82 74 1f 40 ef f3 00 bf 51 f2 02 3f
       2.8339376 2.491486 -0.50372213 0.51150995
000020 0a c3 4e 40 12 ea b7 3d 79 6b 9f 3d a0 4e 81 3d
       3.2306542 0.08980192 0.07784171 0.06313825
000030 c0 09 1b bd 86 ec 06 bd 2b 57 f1 bc 4b 62 20 3d
       -0.037851095 -0.03294041 -0.02946051 0.03915624
000040 84 9d cb 3c ec 3e e3 3d 1f 78 29 3e 48 03 68 3e
       0.024855383 0.11095986 0.16549729 0.22657502
000050 a3 d7 c5 3d e1 58 08 be cc 36 e0 be f1 8c a5 3b
       0.0966027 -0.13315155 -0.43791807 0.005052202
000060 99 3c d0 3e 01 a9 6a bd 1c 96 61 be 2d e0 8a 3f
       0.40671232 -0.05729008 -0.22029918 1.0849663
000070 a0 07 ad 3f ca 9f d5 3e 02 53 a4 bf 53 28 5b c0
       1.3517952 0.41723472 -1.2837832 -3.4243362
000080 b6 8c 5f c0 80 0c e0 be a5 86 a8 bf 3b 9f 8d c0
       -3.4929633 -0.43759537 -1.316609 -4.4256873
000090 c0 39 ff 3e 70 af b2 3f 6a 2b bf 3e 88 30 bb be
       0.49848747 1.3959789 0.3733781 -0.36560464
0000a0 51 3c ac 3f 32 de 88 3f 70 33 c6 3f 4b 63 55 3f
       1.3455907 1.0692809 1.5484447 0.83354634
0000b0 bf 66 d2 be 11 c6 61 bd 60 31 91 bd 00 87 a4 3c
       -0.41094014 -0.05512053 -0.07089496 0.020083904
0000c0 93 b9 4d 3d 02 75 ae bb 1c 1e d1 3d 38 8c 15 be
       0.050225805 -0.005324007 0.10210821 -0.1460427
0000d0 ee c5 36 be 97 3c 9e 3d 29 a3 86 3e 6b b2 a1 be
       -0.17848942 0.077264 0.26296356 -0.31581435
0000e0 10 0f 6d be 96 e5 62 3e b3 6d d6 be 12 4c 22 bf
       -0.23150277 0.22157893 -0.4188057 -0.63397324
0000f0 62 ea 13 3f 62 9e db 3e 40 ea 9f bc 99 3a 70 3f
       0.57779515 0.42894274 -0.019520879 0.9383941
000100 d7 24 98 3c 81 8d da 3b 5b 48 39 3f 82 0b 74 bf
       0.018572254 0.0066697006 0.7237603 -0.9533006
000110 2d 30 44 c0 6a a2 22 3f 68 e3 b0 3f 8e 59 69 3d
       -3.0654404 0.63529074 1.3819399 0.05697017
000120 95 d0 ca 3e ef ef 83 bf a5 b7 61 3f bb 4b af 3f
       0.3961226 -1.0307597 0.88170844 1.3694986
000130 19 58 19 be 20 50 f9 bd 6a 53 1e 40 84 29 10 3f
       -0.14975013 -0.12173486 2.4738412 0.5631335
000140 24 f4 16 3c bc 0c 09 3e 56 87 b8 3c 03 45 a2 bc
       0.009213481 0.13383764 0.02252547 -0.019808298
000150 45 2b 18 be eb 66 a1 3c 69 26 21 be 8f 8b cd 3d
       -0.14860256 0.019702395 -0.15737309 0.10036384
000160 de 57 27 3e 1d 98 eb 3d 75 95 b3 be b3 b2 9d be
       0.16342112 0.11503623 -0.35074964 -0.308004
000170 4a 12 85 3e 4c e9 13 bf c9 59 10 be 8a e6 7b 3e
       0.25990516 -0.5777786 -0.1409675 0.24599662
000180 49 38 34 be 19 96 d5 3e 1d 18 f6 3e 13 f1 43 3f
       -0.17599596 0.41716078 0.48065272 0.76539725
000190 4a 22 c3 3f a6 13 01 40 b6 ed eb be 15 ff 81 3e
       1.5244839 2.0168242 -0.46079797 0.25389925
0001a0 f7 48 48 bf 16 5c 86 3f 63 d9 cb 3e e7 cb 86 bf
       -0.78236336 1.0496852 0.3981429 -1.0530976
0001b0 cb 4f 62 3f cd ee 0b bf 0c 15 01 3f 8e 52 39 bf
       0.88403004 -0.54661256 0.5042274 -0.72391593
0001c0 f9 0e f9 bf 52 61 07 c0 3a 38 6b 3f de f5 a7 3e
       -1.9457694 -2.115315 0.9188267 0.3280477
0001d0 83 5b 27 bf 0b d7 ac 3d 75 a1 03 be a3 32 db bd
       -0.6537401 0.08439454 -0.1285456 -0.107030176
0001e0 8e 56 c7 3c e7 cc 0d be 95 b7 e6 bd d9 48 c6 3d
       0.024333265 -0.13847695 -0.11265484 0.09681863
0001f0 eb ee 0b be 5b 1d a5 ba fd 6f d1 bd f4 55 9f bd
       -0.13665359 -0.001259725 -0.10226438 -0.07780066
000200 3d cc 3a be 5d 99 78 be 3e 32 a8 be 59 f6 4d be
       -0.18241973 -0.24277253 -0.32850832 -0.20113505
000210 66 08 ca 3e 2a b5 83 3e 75 c6 79 3e 97 53 4a bd
       0.39459532 0.25724155 0.24392112 -0.049396124
000220 45 c9 49 3f 35 8f d3 3f 21 91 d9 3f f7 73 1a 40
       0.7882274 1.6528078 1.6997415 2.413328
000230 03 a3 0b 40 11 d8 74 40 14 7d 44 40 27 08 09 3f
       2.1818244 3.8256876 3.0701342 0.53528064
000240 1a 59 c4 3f 5f e3 23 3d 00 3a c4 be 59 7c 06 40
       1.5339692 0.04001176 -0.383255 2.1013396
000250 f6 0c 66 3f 7e d0 42 3f f4 8f 86 bf 5e 90 4a bf
       0.89863527 0.76099384 -1.0512681 -0.79126537
000260 ea e5 8e 3f 20 8f 3b bd 71 b8 8d 3d 57 27 90 bd
       1.1163914 -0.04579079 0.06919945 -0.070387535
000270 54 d8 be 3d 8e d7 86 bd cb 24 10 be c0 e5 23 be
       0.09318605 -0.065840825 -0.14076535 -0.16005611
000280 1e 18 c1 3c eb 1b 97 3d 6e 3d 9f 3e 1f 38 c6 3e
       0.02357107 0.07378372 0.31101555 0.38714692
000290 b6 84 24 3e 17 75 dc be a2 ed 23 be 85 81 69 be
       0.1606625 -0.43058082 -0.16008618 -0.22803314
0002a0 57 fd 76 3d f5 4d 84 be c3 df 58 be 35 5b 21 40
       0.060300197 -0.25840726 -0.21179108 2.5211918
0002b0 41 b1 2c 40 d5 94 14 40 1b 93 50 3f 42 98 05 3f
       2.6983187 2.321584 0.81474465 0.5218545
0002c0 81 16 14 40 34 d7 fe 3f c3 44 56 40 5d 74 2c 40
       2.3138735 1.9909425 3.347947 2.6946023
0002d0 36 6a 84 be d1 7f 2a c0 c1 89 6e c0 37 86 8f bf
       -0.25862283 -2.6640513 -3.7271578 -1.1212834
0002e0 c8 df e3 bf 8b b4 a2 bf ef 47 e3 bf aa 84 34 c0
       -1.7802668 -1.2711347 -1.7756327 -2.8205972
0002f0 e7 2b fd bf 21 ed ad bd 97 2c fe bb e0 98 f2 bd
       -1.9779023 -0.084924944 -0.0077567804 -0.11845565
000300 28 c8 cb bd 2e f8 bb 3d 24 a0 29 3e ac d5 ad bc
       -0.09950286 0.09178196 0.16564995 -0.02122005
000310 bb 3d 01 3c 21 73 46 bd 00 06 4c 3e d2 8f 38 3f
       0.007888253 -0.04844964 0.19924164 0.7209445
000320 de c4 f6 3e be 2a 03 bf 9a 4a 72 bd ad e5 8b 3e
       0.48197073 -0.51237094 -0.059153177 0.27323666
000330 5a c9 d6 be 83 98 66 be 5e e6 a1 be 28 03 06 40
       -0.41950494 -0.22519116 -0.3162107 2.0939426
000340 bd 43 60 40 63 43 7e 40 5c 11 1d c0 e2 be 04 c0
       3.5041344 3.972863 -2.4541845 -2.0741506
000350 62 22 fa be cf 06 2a bf 9d 31 9a be c6 e5 75 3b
       -0.48854357 -0.6641664 -0.30115977 0.003752099
000360 a9 35 ee 3d 51 72 10 bd 00 f8 55 bd c7 b0 0c be
       0.116313286 -0.03526527 -0.052238464 -0.1373931
000370 7a 85 0d be 4b c0 73 3d 05 13 6e 3d 33 f0 af 3d
       -0.13820449 0.059509557 0.058123607 0.08590736
000380 c8 5b 87 bd fe 77 96 bd 00 30 3d bc d3 ca 8f bd
       -0.06609303 -0.073471054 -0.011547089 -0.070211075
000390 8b db 5c bd da f6 0a be 53 21 f7 bd bb d0 38 3d
       -0.05392031 -0.13570729 -0.12066903 0.045120936
0003a0 8d 21 b5 bd d6 c0 a8 3d 96 a4 fa bd 83 51 26 be
       -0.0884429 0.082399055 -0.122384235 -0.16242032
0003b0 c0 3c fa bd b8 f8 d1 bc 51 b0 e5 bd 87 f5 29 be
       -0.122186184 -0.025631294 -0.1121527 -0.16597567
0003c0 10 fb d5 3c 36 93 cb bd 60 e0 1c be d6 ce 91 3c
       0.026120692 -0.09940188 -0.15319967 0.017798822
0003d0 0b e3 bf 3c 8b 54 fe bc e0 4f d4 bc 88 b5 f4 3a
       0.023423692 -0.031046173 -0.025916994 0.0018669823
0003e0 a0 01 6a bd a1 c7 13 3e 7a fa bb 3d 70 b6 a8 3d
       -0.057130456 0.14431621 0.09178634 0.08237922
0003f0 63 5c a4 bf 95 64 82 c0 bf 3f 03 c0 35 37 36 bf
       -1.2840694 -4.074778 -2.0507658 -0.7117799

weight f4 [29, 512]
000000 49 9b 91 c0 9d 45 27 40 51 97 f2 bd b0 a9 a9 3e
       -4.5502057 2.6136239 -0.118452676 0.33137274
000010 c8 22 c8 3e 6e 06 a1 3e 53 fa 2f 3f ab 5b 0d bf
       0.39089036 0.31450218 0.6874134 -0.55218
000020 5e 8d 38 3e e7 07 bb bf e6 31 24 bf 1a ae dc be
       0.18022677 -1.4611787 -0.6413864 -0.4310158
000030 83 4a fc 3c 61 da da be 7c fb 09 bf a0 7a 76 bf
       0.030797249 -0.42744735 -0.5389936 -0.9628086
000040 79 0f ef 3e fb db fd be a3 ef c3 be df 0c 6f 3c
       0.46691492 -0.49581894 -0.38268766 0.014590471
000050 57 4c c3 be 81 48 9e 3e 36 55 34 be 68 60 e7 be
       -0.3814418 0.3091469 -0.1761063 -0.4519074
000060 26 a4 9d 3e bf 68 b6 3d c7 2d ac bd 1d 59 fe bd
       0.30789298 0.089066975 -0.08407169 -0.12419341
000070 41 fa c7 be ae d9 41 bf 5c bd 70 bf 6b a6 bd bd
       -0.39058116 -0.7572278 -0.9403894 -0.09260257
000080 3b 8c 88 bd 23 f1 7e bf 14 4a 27 bf 01 cc 04 bf
       -0.06667372 -0.99586695 -0.6534741 -0.51873785
000090 6c b8 bc be b1 59 2e bf f6 6f d8 be dc 12 57 3e
       -0.36859453 -0.6810561 -0.4227292 0.21003288
0000a0 34 a4 21 bd 22 fc 85 bc eb 29 9c bd 17 a3 2c 3e
       -0.039463237 -0.016355578 -0.07625183 0.16859089
0000b0 81 d5 1c 3e d9 ae 8c 3d e2 ce 97 bd c7 c5 a3 3e
       0.1531582 0.06869287 -0.07412507 0.3198683
0000c0 a7 07 5a 3f b6 d4 e4 3d 9d ba b5 3e 53 03 24 3e
       0.85167927 0.11173384 0.35493937 0.16016893
0000d0 33 c5 81 3e 97 b0 cb bd 30 2f 0b 3e 80 cf ae bd
       0.25345764 -0.09945791 0.1359222 -0.08535671
0000e0 d5 95 bd 3d c4 90 bd 3d 06 87 97 3d 23 e0 83 be
       0.09257094 0.092561275 0.073988006 -0.2575694
0000f0 ea d8 9d bd 75 cf bd bc 16 7e 99 bd ab e6 85 be
       -0.07707389 -0.023170212 -0.07494752 -0.26152548
000100 24 08 b0 be 30 db b7 3e 77 fc fe 3e 89 91 65 3e
       -0.3438121 0.35909414 0.4980199 0.22418799
000110 93 4c 44 3f 2e 23 cc 3e 17 60 28 3f e4 95 1a be
       0.76679343 0.3987059 0.6577162 -0.15096241
000120 56 33 b6 be 18 da 35 3d 39 65 0a bd be d7 bc be
       -0.3558604 0.044397444 -0.03378794 -0.36883348
000130 89 d8 31 bd ad f7 60 be 99 91 90 bf 83 bf 78 be
       -0.043419395 -0.21969481 -1.1294433 -0.24291806
000140 c8 6f 02 3e 29 a7 e5 3e 4e 1f d8 be 27 b7 3f bf
       0.12737954 0.44854096 -0.42211384 -0.74888843
000150 88 af 70 bf 99 d9 88 be 37 67 1c c0 71 14 47 be
       -0.9401784 -0.26728514 -2.4437997 -0.19441392
000160 13 56 0f 3f 6d 65 8e be 34 58 a4 be b3 07 4d bd
       0.55990714 -0.27811757 -0.32098544 -0.05005617
000170 fe 59 f3 be 44 31 db 3c b4 ae 65 bf ec 33 89 be
       -0.47529596 0.02675689 -0.897197 -0.26797426
000180 25 48 14 3d 57 4c c4 3d da ef 8d ba 2b 40 bf bd
       0.036201615 0.09584873 -0.0010828928 -0.09338411
000190 8d 16 02 be 23 89 e2 be 38 ef e9 3d 65 3e ef bd
       -0.12703915 -0.44245252 0.114225805 -0.11681823
0001a0 ce 27 ff 3e e5 64 6b 3e 50 72 88 bd ec d6 c1 bc
       0.49835056 0.22987707 -0.066624284 -0.023662053
0001b0 6c 70 22 be 14 a9 b6 bc ed 13 8d 3e fa 23 36 bd
       -0.15863198 -0.02229742 0.27554265 -0.044467904
0001c0 50 c3 03 3f 96 10 bd bd cd 86 12 be e4 35 f0 bd
       0.514699 -0.09231679 -0.14309235 -0.11729029
0001d0 29 2b 97 3d 50 45 c5 3e 59 7b cb be fb 14 14 be
       0.07381279 0.38529444 -0.39742544 -0.14461128
0001e0 fc c3 dc be 67 db 4c be 8d 29 d9 3e c2 19 20 3e
       -0.43118274 -0.2000557 0.42414513 0.15634826
0001f0 61 83 3b 3e 77 18 d8 3d 01 99 11 bf 99 74 88 3c
       0.18311836 0.10551541 -0.5687409 0.01665716
000200 5e bb a6 3e 15 97 57 bf c6 0a c0 be d6 53 17 bf
       0.32564825 -0.8421491 -0.3750822 -0.591123
000210 6d 50 c4 be f3 e7 5b be df 37 31 bd ce e9 88 be
       -0.3834261 -0.214752 -0.043266173 -0.2674088
000220 d2 47 24 3e 04 b7 1a bf d6 d0 e6 be a1 2a 5e be
       0.16043022 -0.6043551 -0.45081204 -0.21695949
000230 9a 4a f0 3d ea 61 04 3e f4 11 8f 3e b5 91 8e be
       0.11732979 0.12927976 0.27943385 -0.2784554
000240 08 b2 45 3e 7b d3 bd bf d0 64 ac be fb a6 a3 3e
       0.19306195 -1.4830164 -0.33670664 0.31963333
000250 4f 4f 15 3f 44 09 16 3f b9 29 d9 3e fe ba 18 3f
       0.5832414 0.5860789 0.42414644 0.5966033
000260 82 09 65 3e 4b f2 ca bf d4 78 f0 3e f4 83 82 3e
       0.22366908 -1.5855192 0.46967185 0.25491297
000270 b7 a5 ba bd fd df d4 3e 84 f7 82 3e 66 2d 3d bd
       -0.09113639 0.4157714 0.25579464 -0.046185873
000280 32 58 33 3d 42 8b 8d bf 78 d1 82 be 04 36 03 3e
       0.04378528 -1.1058123 -0.25550437 0.12813574
000290 68 8b fc 3c 42 38 b2 3e 19 a9 95 3e 2f 33 1b be
       0.030828193 0.34808546 0.29230574 -0.15156244
0002a0 8b 2a 78 3e c6 61 ab bf a5 52 22 bf 67 2f a7 3d
       0.24234979 -1.3389213 -0.63407356 0.08163338
0002b0 b6 f8 80 3e c6 88 6f 3e 72 7a 1a 3f 58 5a 14 3f
       0.2518975 0.23392019 0.60343087 0.57950354
0002c0 eb 24 f7 3d ba cc c9 bf 99 5a 00 3f 44 48 c4 3d
       0.120675884 -1.5765603 0.5013824 0.09584096
0002d0 dc bc 22 3e 9e 78 66 3e f6 21 8b 3e 5f 61 97 3e
       0.15892357 0.2250695 0.27174348 0.29566476
0002e0 24 a0 06 3e f9 14 af be 9e 0f b6 3e a5 29 97 3e
       0.13147026 -0.34195688 0.3555879 0.2952396
0002f0 19 19 4a 3e 9e 68 24 3e f8 9e 0a 3e a8 6a ec be
       0.19736136 0.16055533 0.13537204 -0.46175122
000300 03 b9 ad 3d dd 5f 27 3d d3 04 0f 3e 9f 67 fd 3e
       0.08482554 0.040862907 0.13966684 0.4949312
000310 e7 e1 7c 3d e8 45 91 3c 21 37 a2 be 04 4d cb be
       0.061738875 0.01773353 -0.31682685 -0.39707196
000320 a7 18 7b be dd 86 e3 be bb 4a 97 be d3 00 64 3d
       -0.24521123 -0.4443883 -0.29549202 0.05566485
000330 88 37 28 3e 5b ce 95 3d d2 71 a8 be fe 56 1a 3d
       0.16427433 0.0731475 -0.32899338 0.03768062
000340 17 59 b9 bd f6 2d 83 be 52 36 01 3e 95 42 44 3e
       -0.09050196 -0.25621003 0.12618378 0.19166024
000350 66 ae 0d be 3e 11 25 3f 5b fc 0d 3f 95 e0 b6 3e
       -0.13836059 0.64479434 0.5546319 0.35718217
000360 68 93 c2 3e 36 27 f2 be 5c 3a 1b be 3f 3a ca bc
       0.38003087 -0.4729554 -0.15158981 -0.024685977
000370 32 e4 56 3e 9b dc 17 be 05 6d 5c 3d a6 7a 17 3e
       0.20985487 -0.14830248 0.053814907 0.1479288
000380 a2 30 17 bd 24 0f 80 bf 5b 41 28 be 4f 1a 00 bf
       -0.036911614 -1.000462 -0.16431181 -0.50040144
000390 93 32 96 be 02 1b ef be 21 0a ad bc d7 49 51 be
       -0.2933546 -0.46700293 -0.021122994 -0.20438324
0003a0 ca 39 68 3e 64 3b 35 be 65 90 4b 3e 75 21 44 be
       0.22678295 -0.17698437 0.19879301 -0.19153388
0003b0 3f e2 43 bd 4f 37 23 3d 3a a0 aa 3e 60 5c e4 3e
       -0.047823187 0.03984767 0.33325368 0.44601727
0003c0 94 d8 3f be da 34 41 bf 6c 70 22 3e 75 e5 a6 3e
       -0.18734962 -0.7547127 0.15863198 0.32596937
0003d0 45 ba dc 3c bd 83 46 be bb f2 28 3e 00 3d e5 3e
       0.026944289 -0.19386192 0.16498844 0.44773102
0003e0 d9 2a 10 c0 13 7b 41 bd 57 ee 85 bf 2d 38 fb 3e
       -2.2526152 -0.047236513 -1.046336 0.49066296
0003f0 e9 c6 e9 bd f4 de a8 be a3 2f d7 3e fe 62 c0 3e
       -0.11414892 -0.329826 0.4202853 0.37575525
