checkpoints/checkpoint_94.24.pth (torch, 63568 bytes, 3 tensors)

weight f4 [4, 1, 3, 3]
-0.5481917 0.16481978 0.90887755 -0.5865937 0.3258636 0.6235939 -0.6016555 -0.5265435
0.33429718 -0.109079726 -0.19454351 0.080533385 -0.32676262 -0.11736556 -0.30468 0.06597214
0.057291113 -0.14188935 1.3519821 0.47066006 0.07491468 3.6311395 3.0928578 2.9659534
2.2757459 2.34032 3.2951357 -0.38382828 -1.0223234 -0.76145095 -0.548903 -0.10510957
0.6501671 0.42467386 0.99065846 0.84830755
00000000: 4b56 0cbf 84c6 283e 33ac 683f 012b 16bf
00000010: 98d7 a63e daa3 1f3f 1806 1abf 8ecb 06bf
00000020: 0029 ab3e 3165 dfbd 6a36 47be b0ee a43d
00000030: 6e4d a7be 5b5d f0bd 04ff 9bbe 671c 873d
00000040: 16aa 6a3d 714b 11be c00d ad3f 5bfa f03e
00000050: de6c 993d 9764 6840 62f1 4540 2ed2 3d40
00000060: d2a5 1140 cec7 1540 81e3 5240 2485 c4be
00000070: 7edb 82bf 73ee 42bf e884 0cbf b043 d7bd
00000080: 5a71 263f da6e d93e cb9b 7d3f af2a 593f

weight f4 [8, 4, 3, 3]
2.245193 3.5120187 0.9100458 -0.45471162 2.8314505 2.463176 -0.47327515 0.5371051
3.222203 0.08980192 0.07784171 0.06313825 -0.037851095 -0.03294041 -0.02946051 0.03915624
0.024855383 0.11095986 0.16164528 0.22587104 0.09472006 -0.1359734 -0.43267006 0.006037135
0.40031415 -0.06162905 -0.22132863 1.0699507 1.3364742 0.41609442 -1.2591169 -3.360027
-3.4318848 -0.43432945 -1.2913666 -4.3243637 0.47748297 1.3550597 0.3889595 -0.34130877
1.2957188 1.0821587 1.5309721 0.7987005 -0.41618064 -0.05512053 -0.07089496 0.020083904
0.050225805 -0.005324007 0.10210821 -0.1460427 -0.17848942 0.077264 0.25957376 -0.30300996
-0.2296478 0.21720362 -0.4094793 -0.6279265 0.5647528 0.42329314 -0.02276548 0.93427855
0.037956093 0.008910802 0.68360394 -0.9193038 -2.9989903 0.6530446 1.3753892 0.075930804
0.40302 -0.9991355 0.881308 1.3557823 -0.13439985 -0.13793968 2.4396956 0.5929075
-0.0066648894 0.13383764 0.02252547 -0.019808298 -0.14860256 0.019702395 -0.15737309 0.10036384
0.16342112 0.11503623 -0.3450656 -0.29888502 0.25975186 -0.57100135 -0.13690342 0.24077663
-0.18137227 0.41467977 0.47450516 0.78936404 1.5424159 2.0130975 -0.4580529 0.2675798
-0.7572421 1.0416995 0.42834914 -1.0040036 0.85048276 -0.5543533 0.50487214 -0.71159154
-1.8853993 -2.049746 0.93340886 0.3470702 -0.6791307 0.08439454 -0.1285456 -0.107030176
0.024333265 -0.13847695 -0.11265484 0.09681863 -0.13665359 -0.001259725 -0.103700235 -0.08089159
-0.18164822 -0.23763521 -0.3277441 -0.19743249 0.3919612 0.2546913 0.24654667 -0.04732988
0.79114336 1.6380385 1.6972545 2.4065685 2.1596124 3.7792854 3.0401936 0.547919
1.5387914 0.026830064 -0.3680144 2.088196 0.91312444 0.7576152 -1.0250344 -0.759648
1.1032232 -0.04579079 0.06919945 -0.070387535 0.09318605 -0.065840825 -0.14076535 -0.16005611
0.02357107 0.07378372 0.30388778 0.37748682 0.15589413 -0.42372447 -0.15135697 -0.22177164
0.05953752 -0.25380003 -0.2042341 2.5224705 2.6624703 2.300678 0.7965478 0.51075536
2.2950351 2.0098133 3.3097448 2.674889 -0.26195157 -2.62552 -3.6774118 -1.0937526
-1.7515894 -1.2499073 -1.751392 -2.7934835 -1.9339305 -0.084924944 -0.0077567804 -0.11845565
-0.09950286 0.09178196 0.16564995 -0.02122005 0.007888253 -0.04844964 0.19949748 0.70720917
0.47889632 -0.5023269 -0.062984824 0.27420217 -0.41133365 -0.22564138 -0.31171155 2.1063066
3.4541948 3.922526 -2.386777 -2.0502007 -0.4722903 -0.62912935 -0.25555977 0.05181125
0.116313286 -0.03526527 -0.052238464 -0.1373931 -0.13820449 0.059509557 0.058123607 0.08590736
-0.06609303 -0.073471054 -0.011547089 -0.070211075 -0.05392031 -0.13570729 -0.12066903 0.045120936
-0.0884429 0.082399055 -0.122384235 -0.16242032 -0.122186184 -0.025631294 -0.1121527 -0.16597567
0.026120692 -0.09940188 -0.15319967 0.017798822 0.023423692 -0.031046173 -0.025916994 0.0018669823
-0.057130456 0.14431621 0.09178634 0.08237922 -1.2716967 -4.010723 -2.0367494 -0.7442031
00000000: 3eb1 0f40 eac4 6040 c3f8 683f f6cf e8be
00000010: 7c36 3540 ada4 1d40 1f51 f2be b87f 093f
00000020: 9338 4e40 12ea b73d 796b 9f3d a04e 813d
00000030: c009 1bbd 86ec 06bd 2b57 f1bc 4b62 203d
00000040: 849d cb3c ec3e e33d 5786 253e bd4a 673e
00000050: 97fc c13d 9c3c 0bbe ee86 ddbe 29d3 c53b
00000060: faf5 cc3e be6e 7cbd f9a3 62be 25f4 883f
00000070: 9611 ab3f 540a d53e be2a a1bf af0a 57c0
00000080: 00a4 5bc0 6e60 debe 804b a5bf 3061 8ac0
00000090: a678 f43e 9972 ad3f b325 c73e 06c0 aebe
000000a0: 1dda a53f 2d84 8a3f e5f6 c33f a377 4c3f
000000b0: a115 d5be 11c6 61bd 6031 91bd 0087 a43c
000000c0: 93b9 4d3d 0275 aebb 1c1e d13d 388c 15be
000000d0: eec5 36be 973c 9e3d dae6 843e 1f24 9bbe
000000e0: cb28 6bbe a06a 5e3e 45a7 d1be cbbf 20bf
000000f0: a493 103f e1b9 d83e ac7e babc e12c 6f3f
00000100: d977 1b3d 9dfe 113c ab00 2f3f 7e57 6bbf
00000110: 75ef 3fc0 ee2d 273f c10c b03f 9c81 9b3d
00000120: a358 ce3e 58c7 7fbf 679d 613f 468a ad3f
00000130: 1da0 09be 0f40 0dbe f923 1c40 c9c8 173f
00000140: 2565 dabb bc0c 093e 5687 b83c 0345 a2bc
00000150: 452b 18be eb66 a13c 6926 21be 8f8b cd3d
00000160: de57 273e 1d98 eb3d 70ac b0be 7507 99be
00000170: 32fe 843e 252d 12bf 6930 0cbe 268e 763e
00000180: a7b9 39be e850 d43e 57f2 f23e c313 4a3f
00000190: e26d c53f 97d6 0040 e985 eabe 3800 893e
000001a0: 9eda 41bf 6956 853f 9450 db3e 3183 80bf
000001b0: 3db9 593f 19ea 0dbf 4d3f 013f dd2a 36bf
000001c0: c454 f1bf 0a2f 03c0 e2f3 6e3f 2fb3 b13e
000001d0: 82db 2dbf 0bd7 ac3d 75a1 03be a332 dbbd
000001e0: 8e56 c73c e7cc 0dbe 95b7 e6bd d948 c63d
000001f0: ebee 0bbe 5b1d a5ba ca60 d4bd 7daa a5bd
00000200: fe01 3abe a556 73be 13ce a7be be2b 4abe
00000210: 23af c83e e666 823e bb76 7c3e fadc 41bd
00000220: 5f88 4a3f 3fab d13f a33f d93f 3805 1a40
00000230: 1737 0a40 d0df 7140 8892 4240 6b44 0c3f
00000240: 1ef7 c43f b9ca db3c 626c bcbe 01a5 0540
00000250: 86c2 693f 12f3 413f 5434 83bf 4b78 42bf
00000260: 6b36 8d3f 208f 3bbd 71b8 8d3d 5727 90bd
00000270: 54d8 be3d 8ed7 86bd cb24 10be c0e5 23be
00000280: 1e18 c13c eb1b 973d 2e97 9b3e f445 c13e
00000290: b6a2 1f3e 6af2 d8be 52fd 1abe 1b18 63be
000002a0: 9ddd 733d 14f2 81be be22 51be 2870 2140
000002b0: ea65 2a40 4f3e 1340 8eea 4b3f ddc0 023f
000002c0: dbe1 1240 c8a0 0040 dcd2 5340 6231 2b40
000002d0: 841e 86be 8508 28c0 b75a 6bc0 1600 8cbf
000002e0: 1534 e0bf f6fc 9fbf 9d2d e0bf 6fc8 32c0
000002f0: 098b f7bf 21ed adbd 972c febb e098 f2bd
00000300: 28c8 cbbd 2ef8 bb3d 24a0 293e acd5 adbc
00000310: bb3d 013c 2173 46bd 1149 4c3e a90b 353f
00000320: e631 f53e 7f98 00bf 30fe 80bd 3a64 8c3e
00000330: 539a d2be 890e 67be a898 9fbe bacd 0640
00000340: 8711 5d40 aa0a 7b40 f4c0 18c0 7d36 03c0
00000350: 09d0 f1be 9f0e 21bf bbd8 82be 0938 543d
00000360: a935 ee3d 5172 10bd 00f8 55bd c7b0 0cbe
00000370: 7a85 0dbe 4bc0 733d 0513 6e3d 33f0 af3d
00000380: c85b 87bd fe77 96bd 0030 3dbc d3ca 8fbd
00000390: 8bdb 5cbd daf6 0abe 5321 f7bd bbd0 383d
000003a0: 8d21 b5bd d6c0 a83d 96a4 fabd 8351 26be
000003b0: c03c fabd b8f8 d1bc 51b0 e5bd 87f5 29be
000003c0: 10fb d53c 3693 cbbd 60e0 1cbe d6ce 913c
000003d0: 0be3 bf3c 8b54 febc e04f d4bc 88b5 f43a
000003e0: a001 6abd a1c7 133e 7afa bb3d 70b6 a83d
000003f0: f5c6 a2bf d857 80c0 1a5a 02c0 1884 3ebf

weight f4 [29, 512]
-4.364202 2.5494835 -0.12920463 0.3153969 0.371004 0.31799316 0.67259884 -0.5305044
0.18282342 -1.4172301 -0.6446136 -0.4255473 0.030606888 -0.42633855 -0.5682306 -0.93428665
0.45436564 -0.48553997 -0.37731716 -0.008474102 -0.3799488 0.28470623 -0.17218426 -0.4602806
0.3068692 0.06626291 -0.09671431 -0.12119421 -0.38192272 -0.74950415 -0.9481021 -0.10450479
-0.062030844 -0.9651695 -0.6473324 -0.5223041 -0.35729727 -0.65378404 -0.44737294 0.18606345
-0.036448255 -0.021558372 -0.09470932 0.17528297 0.14899941 0.062462725 -0.097735845 0.32456142
0.8226955 0.11072231 0.32929 0.16407138 0.26412192 -0.09599108 0.116336845 -0.09244875
0.08870458 0.08218998 0.06859995 -0.24899015 -0.08423913 -0.033165496 -0.08591383 -0.2419786
-0.32477814 0.35160604 0.48922536 0.22822846 0.7478002 0.38276073 0.63105243 -0.15347168
-0.36752233 0.04161712 -0.034712166 -0.3649451 -0.05164043 -0.2178388 -1.0817511 -0.24038453
0.10407346 0.45182738 -0.4039845 -0.7288452 -0.9214976 -0.2501226 -2.3893642 -0.19327183
0.53967905 -0.27757576 -0.32005584 -0.06692525 -0.46504357 0.028654557 -0.8752491 -0.2704036
0.04139469 0.07083273 0.00977211 -0.10440316 -0.1252643 -0.4473242 0.11029725 -0.12144252
0.49972907 0.2112658 -0.06167467 -0.0278735 -0.14867304 -0.019887261 0.21431494 -0.04371129
0.49649134 -0.10159012 -0.15558583 -0.10142738 0.070048355 0.38210592 -0.42581823 -0.14189272
-0.39660665 -0.19508909 0.39302337 0.17298742 0.1916459 0.1137807 -0.55535907 0.012512297
0.31785652 -0.81519777 -0.36673665 -0.57281816 -0.35973716 -0.20303382 -0.056841988 -0.2703232
0.15917663 -0.5905722 -0.4585479 -0.22556767 0.11005827 0.10832594 0.24793254 -0.28253177
0.18435708 -1.4290284 -0.3007665 0.3483939 0.545808 0.5494529 0.39761016 0.5825346
0.21682973 -1.5811367 0.48213783 0.2666085 -0.08463784 0.40382525 0.23638959 -0.055088144
0.04416771 -1.0714458 -0.25087354 0.13048556 0.03370583 0.33115935 0.28380904 -0.14551793
0.23499593 -1.307763 -0.6099397 0.084831975 0.25324282 0.22930226 0.60397774 0.57561946
0.11729854 -1.5287641 0.49763784 0.11199615 0.15283774 0.22730052 0.26577145 0.27478737
0.12832539 -0.35231242 0.34412047 0.28883657 0.18445832 0.15355353 0.124662116 -0.4701066
0.08849284 0.042927112 0.14065489 0.48117766 0.05621039 0.022071568 -0.31552228 -0.39450034
-0.2484487 -0.4391268 -0.27837947 0.067858085 0.16620798 0.066449605 -0.32740194 0.03145541
-0.09689363 -0.25199404 0.1195648 0.21647504 -0.13015346 0.6331488 0.56810945 0.34078673
0.38096735 -0.4645089 -0.16932578 -0.0032416265 0.23642707 -0.14303817 0.05424203 0.1389067
-0.038680468 -0.9626925 -0.14639504 -0.49521562 -0.26943707 -0.47013578 -0.011133103 -0.21292669
0.21392673 -0.18667789 0.1898804 -0.18224035 -0.053400476 0.02003744 0.35602146 0.44503647
-0.19406387 -0.76345265 0.15248325 0.31595117 0.034230664 -0.17089348 0.16266374 0.42928025
-2.219884 -0.058729928 -1.0068403 0.4945413 -0.10807295 -0.3016425 0.44256878 0.3525676
00000000: 8ba7 8bc0 bd2a 2340 384e 04be b47b a13e
00000010: 3cf4 bd3e 00d0 a23e 702f 2c3f 23cf 07bf
00000020: 1036 3b3e cc67 b5bf 6605 25bf 56e1 d9be
00000030: 4cbb fa3c 0c49 dabe 9077 11bf 692d 6fbf
00000040: 9da2 e83e b298 f8be b72f c1be f6d6 0abc
00000050: a688 c2be 04c5 913e 1251 30be e6a9 ebbe
00000060: f61d 9d3e d9b4 873d 2712 c6bd ac34 f8bd
00000070: 608b c3be 81df 3fbf d2b6 72bf 9b06 d6bd
00000080: 0e14 7ebd 5915 77bf 93b7 25bf b9b5 05bf
00000090: abef b6be 645e 27bf 110e e5be 6b87 3e3e
000000a0: c44a 15bd 2f9b b0bc f6f6 c1bd 617d 333e
000000b0: 4d93 183e ead8 7f3d bb29 c8bd ea2c a63e
000000c0: 2c9c 523f 61c2 e23d b398 a83e 5402 283e
000000d0: fd3a 873e f996 c4bd 0342 ee3d c555 bdbd
000000e0: bfaa b53d 3853 a83d 217e 8c3d 46f7 7ebe
000000f0: 9185 acbd 8bd8 07bd 97f3 afbd 3dc9 77be
00000100: 5249 a6be b505 b43e bf7b fa3e b9b4 693e
00000110: d56f 3f3f 37f9 c33e a78c 213f ae27 1dbe
00000120: e32b bcbe b776 2a3d 582e 0ebd 16da babe
00000130: ea84 53bd 2211 5fbe d276 8abf 5d27 76be
00000140: 7724 d53d eb55 e73e 0ed7 cebe 9995 3abf
00000150: 44e7 6bbf 1210 80be 58eb 18c0 0de9 45be
00000160: 6828 0a3f 691e 8ebe 5cde a3be 1b10 89bd
00000170: 311a eebe f6bc ea3c 5310 60bf 5772 8abe
00000180: 7a8d 293d c010 913d 331b 203c 53d1 d5bd
00000190: 4945 00be ad07 e5be 86e3 e13d dbb6 f8bd
000001a0: 7ddc ff3e 1056 583e 949e 7cbd f756 e4bc
000001b0: bf3d 18be 9cea a2bc 6075 5b3e 9c0a 33bd
000001c0: 1d34 fe3e 7b0e d0bd e451 1fbe 29b9 cfbd
000001d0: 8375 8f3d 63a3 c33e d904 dabe 534c 11be
000001e0: 0710 cbbe 6fc5 47be 5c3a c93e 9d23 313e
000001f0: d33e 443e db05 e93d 032c 0ebf 6100 4d3c
00000200: 17be a23e cdb0 50bf e8c4 bbbe 36a4 12bf
00000210: 782f b8be 19e8 4fbe 25d3 68bd cd67 8abe
00000220: 33ff 223e bd2f 17bf cac6 eabe 36fb 66be
00000230: 3b66 e13d fed9 dd3d 07e2 7d3e 01a8 90be
00000240: 1ac8 3c3e 67ea b6bf 11fe 99be af60 b23e
00000250: 13ba 0b3f f2a8 0c3f 8f93 cb3e fd20 153f
00000260: 9d08 5e3e b062 cabf c5da f63e e980 883e
00000270: 9b56 adbd 2fc2 ce3e 1d10 723e 1ba4 61bd
00000280: 33e9 343d 2325 89bf 7f72 80be 029e 053e
00000290: 200f 0a3d b88d a93e 6b4f 913e a702 15be
000002a0: c6a2 703e c764 a7bf 0225 1cbf 63bc ad3d
000002b0: 0ba9 813e 36ce 6a3e 499e 1a3f cc5b 133f
000002c0: 383a f03d 8bae c3bf 63ca fe3e 3d5e e53d
000002d0: 7f81 1c3e 78c1 683e 3213 883e eeb0 8c3e
000002e0: bb67 033e 4b62 b4be 8f30 b03e 63e2 933e
000002f0: a4e2 3c3e 233d 1d3e da4e ff3d d0b1 f0be
00000300: bc3b b53d 57d4 2f3d d607 103e eb5c f63e
00000310: de3c 663d 6fcf b43c 238c a1be f3fb c9be
00000320: 5669 7ebe 3ad5 e0be c187 8ebe 2ef9 8a3d
00000330: 6d32 2a3e bb16 883d 3aa1 a7be 63d7 003d
00000340: 2b70 c6bd 5d05 81be 64de f43d a2ab 5d3e
00000350: f346 05be 0a16 223f 9f6f 113f 997b ae3e
00000360: 270e c33e 1cd4 edbe bd63 2dbe 7871 54bb
00000370: f019 723e 9978 12be e42c 5e3d 8f3d 0e3e
00000380: 696f 1ebd 0473 76bf 95e8 15be e78c fdbe
00000390: a8f3 89be a3b5 f0be 9e67 36bc 7409 5abe
000003a0: 9c0f 5b3e 7d28 3fbe 0270 423e 379d 3abe
000003b0: 75ba 5abd 8f25 a43c 7248 b63e d2db e33e
000003c0: aeb8 46be a271 43bf 9224 1c3e 5ac4 a13e
000003d0: 7435 0c3d b3fe 2ebe 5391 263e 9fca db3e
000003e0: 9412 0ec0 cb8e 70bd 25e0 80bf 8434 fd3e
000003f0: 5a55 ddbd e370 9abe 6098 e23e be83 b43e
