checkpoints/checkpoint_81.06.pth (torch, 63568 bytes, 3 tensors)

weight f4 [4, 1, 3, 3]
00000000: 692a f6be 0624 703d a88e 2e3f e151 9cbe
00000010: 72ed a93e 84a3 ba3e 5fe6 b3be 6f35 d0be
00000020: a2dc 463e 3165 dfbd 6a36 47be b0ee a43d
00000030: 6e4d a7be 5b5d f0bd 04ff 9bbe 671c 873d
00000040: 16aa 6a3d 714b 11be a277 943f 1b7c 363f
00000050: fabe eb3e 586f 1b40 4914 1540 feb2 1a40
00000060: 7339 f93f cba6 f33f 23fc 1340 a3d0 39be
00000070: ed51 0fbf 6ac1 edbe b0c8 b6be 1da8 27be
00000080: 779d cd3e c91f b03e d97b 0f3f a263 003f
-0.4807923 0.058628105 0.68186426 -0.3053122 0.3318897 0.36452878 -0.35136697 -0.40665767
0.19420102 -0.109079726 -0.19454351 0.080533385 -0.32676262 -0.11736556 -0.30468 0.06597214
0.057291113 -0.14188935 1.1599009 0.7128312 0.4604414 2.428671 2.329363 2.4171748
1.9470657 1.9035276 2.3122642 -0.18145995 -0.55984384 -0.46436626 -0.35699987 -0.16372724
0.401592 0.3439925 0.5604835 0.5015203

weight f4 [8, 4, 3, 3]
00000000: 6479 833f 56b4 0940 44d7 3a3f ce3b 2bbd
00000010: b180 0440 c849 cd3f 07a5 52bd 538c 563f
00000020: 045a ea3f 12ea b73d 796b 9f3d a04e 813d
00000030: c009 1bbd 86ec 06bd 2b57 f1bc 4b62 203d
00000040: 849d cb3c ec3e e33d 9b2c 2b3e b8be 553e
00000050: b822 8a3d e5af c9bc 665e 5cbe 2bd4 3e3d
00000060: e8e8 513e 13b7 2abe 87c0 6ebe 357a 153f
00000070: c46e 363f cffe c03e 3faf 5ebf 0e5f 9fbf
00000080: cb09 b5bf 48ca 4dbe fb3e 01bf e3bd cdbf
00000090: 510e 333e 306e 533f b531 803f 0cfa 4b3c
000000a0: 1788 2c3e 175c 8b3f 6dfd 6d3f 4ae6 2c3e
000000b0: 7e59 dcbe 11c6 61bd 6031 91bd 0087 a43c
000000c0: 93b9 4d3d 0275 aebb 1c1e d13d 388c 15be
000000d0: eec5 36be 973c 9e3d 0fa5 5f3e 3da6 f1bd
000000e0: 4cdf 74be 47fe 1a3e 4a46 31be 8b8f e9be
000000f0: 5a88 aa3e 65cf a13e 5a3b b5bd bc57 1f3f
00000100: a70d a53e 059c 0dbe 5866 9a3e 1e5c 95bd
00000110: a878 99bf bf9d 503f 2cf8 6c3f 06fe ae3e
00000120: 3dc4 9d3d 1dd9 9c3e fb34 d03e 39a7 443f
00000130: c1af 123f 4d4b bfbd ff44 983f 2c5b 813f
00000140: 65b3 5bba bc0c 093e 5687 b83c 0345 a2bc
00000150: 452b 18be eb66 a13c 6926 21be 8f8b cd3d
00000160: de57 273e 1d98 eb3d 121e 96be 7597 e3bd
00000170: a4f2 753e 4bea d3be ebf1 80bd 1ee9 313e
00000180: e159 a0be 3082 9c3e 2f99 bc3e cbcb 563f
00000190: ac0e b43f d6be ae3f 14e0 4ebd 648f 293f
000001a0: 7e22 13be a416 ff3e 683c 493f 3393 443d
000001b0: 2525 b23e 5d55 a53d aaca 083f 0d07 ebbe
000001c0: de8e 38bf 8c3f 5cbf e16f 473f 71bd 8a3e
000001d0: 1ca8 0ebf 0bd7 ac3d 75a1 03be a332 dbbd
000001e0: 8e56 c73c e7cc 0dbe 95b7 e6bd d948 c63d
000001f0: ebee 0bbe 5b1d a5ba 22c4 1cbe db38 00bd
00000200: 73bf 37be 5fc2 f9bd 113d 74be dec2 30be
00000210: b328 963e 38fa 523e 426e 8d3e 22d2 033f
00000220: 857f 813f bafe 833f e75b b03f bfa9 db3f
00000230: 46f4 b53f f82e fa3f 5582 e93f ca68 743f
00000240: 1366 993f 11b9 9fbe 835d e83e 1a64 c03f
00000250: 15d9 2c3f 2eef 663f d6a1 6abe 977a 883d
00000260: 89a5 2e3f 208f 3bbd 71b8 8d3d 5727 90bd
00000270: 54d8 be3d 8ed7 86bd cb24 10be c0e5 23be
00000280: 1e18 c13c eb1b 973d 39f8 573e baf7 083e
00000290: 0628 a73d 5a34 7dbe b293 bdbc c9b4 05be
000002a0: debe 723d a0c9 3abe 29e8 bdbd 3942 f23f
000002b0: 73df b33f f530 c93f 4d0a e63e 1a77 1d3f
000002c0: c627 cb3f 973f da3f 7288 f93f edaa ec3f
000002d0: a618 b0bd 0c7b 72bf d553 f9bf 8e2a e9be
000002e0: 26b9 f4be bf6d 0abf b866 bfbf 06bf adbf
000002f0: 6c6a 88bf 21ed adbd 972c febb e098 f2bd
00000300: 28c8 cbbd 2ef8 bb3d 24a0 293e acd5 adbc
00000310: bb3d 013c 2173 46bd b08a 403e 5a56 d23e
00000320: 3468 d63e ffe9 6ebe aa64 85bd 8c83 7f3e
00000330: 7b2c 7dbe 8645 37be 8210 90be a5f8 b83f
00000340: 1de9 f93f c421 0540 63c8 56bf 37e6 afbf
00000350: c23c 2dbf f5a0 6cbe 6d41 d03d 5cd2 d33e
00000360: a935 ee3d 5172 10bd 00f8 55bd c7b0 0cbe
00000370: 7a85 0dbe 4bc0 733d 0513 6e3d 33f0 af3d
00000380: c85b 87bd fe77 96bd 0030 3dbc d3ca 8fbd
00000390: 8bdb 5cbd daf6 0abe 5321 f7bd bbd0 383d
000003a0: 8d21 b5bd d6c0 a83d 96a4 fabd 8351 26be
000003b0: c03c fabd b8f8 d1bc 51b0 e5bd 87f5 29be
000003c0: 10fb d53c 3693 cbbd 60e0 1cbe d6ce 913c
000003d0: 0be3 bf3c 8b54 febc e04f d4bc 88b5 f43a
000003e0: a001 6abd a1c7 133e 7afa bb3d 70b6 a83d
000003f0: 3b11 23bf 4f39 c7bf e15a 82bf 977f 5fbf
1.027142 2.1516318 0.7298472 -0.04180508 2.0703547 1.6038141 -0.051426914 0.8380787
1.830872 0.08980192 0.07784171 0.06313825 -0.037851095 -0.03294041 -0.02946051 0.03915624
0.024855383 0.11095986 0.16716234 0.20873535 0.06744903 -0.024620006 -0.21520385 0.046589058
0.20499003 -0.166714 -0.23315631 0.583896 0.71262765 0.37694404 -0.86986154 -1.2450883
-1.4143614 -0.20096695 -0.50486726 -1.6073574 0.1748593 0.8259001 1.0015169 0.012449753
0.16848789 1.0887479 0.9296482 0.16884723 -0.43037027 -0.05512053 -0.07089496 0.020083904
0.050225805 -0.005324007 0.10210821 -0.1460427 -0.17848942 0.077264 0.21840309 -0.117992856
-0.23913306 0.15136062 -0.1731197 -0.45617327 0.33307153 0.31603542 -0.08849211 0.6224325
0.32236978 -0.13829048 0.30156207 -0.072929606 -1.1989946 0.814907 0.9256618 0.3417818
0.07703445 0.30634394 0.4066542 0.7681766 0.5729943 -0.09340534 1.1896056 1.0105948
-0.0008380919 0.13383764 0.02252547 -0.019808298 -0.14860256 0.019702395 -0.15737309 0.10036384
0.16342112 0.11503623 -0.29319817 -0.111128725 0.24018341 -0.4138969 -0.06296142 0.17374083
-0.31318572 0.30568075 0.3683562 0.83904713 1.4066978 1.3651989 -0.050506666 0.6623442
-0.14368626 0.4982196 0.786078 0.047991943 0.34793964 0.080729224 0.5343424 -0.45903817
-0.72093 -0.86034465 0.7790509 0.27097657 -0.55725265 0.08439454 -0.1285456 -0.107030176
0.024333265 -0.13847695 -0.11265484 0.09681863 -0.13665359 -0.001259725 -0.15309194 -0.03130422
-0.17944126 -0.121952765 -0.2385142 -0.17261836 0.29327926 0.20603263 0.27623183 0.5149251
1.0117041 1.0312111 1.3778046 1.7161177 1.4215171 1.9545584 1.8242899 0.95472395
1.1984276 -0.31195882 0.45383844 1.5030549 0.6751874 0.9020871 -0.22913298 0.06664007
0.68221337 -0.04579079 0.06919945 -0.070387535 0.09318605 -0.065840825 -0.14076535 -0.16005611
0.02357107 0.07378372 0.21090783 0.1337575 0.08161931 -0.24727002 -0.023141716 -0.13057245
0.059264056 -0.18240976 -0.09272797 1.892646 1.4052566 1.5718066 0.44929734 0.6150986
1.5871513 1.7050656 1.9494765 1.8489662 -0.08598451 -0.94719005 -1.9478709 -0.4554028
-0.47797507 -0.5407371 -1.4953222 -1.3573921 -1.0657477 -0.084924944 -0.0077567804 -0.11845565
-0.09950286 0.09178196 0.16564995 -0.02122005 0.007888253 -0.04844964 0.18802905 0.41081506
0.41876376 -0.2333145 -0.06513341 0.24952525 -0.24723999 -0.17897615 -0.28137594 1.445088
1.9524266 2.080186 -0.83899516 -1.3742131 -0.67670834 -0.23108275 0.10168729 0.4137143
0.116313286 -0.03526527 -0.052238464 -0.1373931 -0.13820449 0.059509557 0.058123607 0.08590736
-0.06609303 -0.073471054 -0.011547089 -0.070211075 -0.05392031 -0.13570729 -0.12066903 0.045120936
-0.0884429 0.082399055 -0.122384235 -0.16242032 -0.122186184 -0.025631294 -0.1121527 -0.16597567
0.026120692 -0.09940188 -0.15319967 0.017798822 0.023423692 -0.031046173 -0.025916994 0.0018669823
-0.057130456 0.14431621 0.09178634 0.08237922 -0.63698167 -1.5564364 -1.0183984 -0.8730406

weight f4 [29, 512]
00000000: c5d1 fcbf 345d d33c 9592 80be 3776 e53b
00000010: be3b e43d 41f4 9f3e beb5 f33e 0acb ef3d
00000020: 7782 4ebc 2655 3a3a da08 98be 4071 69be
00000030: 1e9c 5bbd f90b 493d 8ff0 a03c 9acd b7be
00000040: 7ce2 be3d dae5 babd 0549 ecbd f4ef 42be
00000050: a4ae 09be f17b 8f3d cfda ecbb 3172 2bbe
00000060: c401 823b 25b0 65bc 298b 8fbd ebad 1bbe
00000070: 545e 70be 3bc1 93be 8fa4 55be 4149 93bd
00000080: 76af 083d 2957 46be ac29 9bbe 36cb 3fbe
00000090: be50 79be 41c0 c2be 3b08 e6be c37a 09be
000000a0: 61d9 08be 4cf8 66be 4c46 00be a1e9 9a3d
000000b0: 7e84 9bbd 51f0 16be 9376 92be 58d2 b3bc
000000c0: 67de 733e 1389 4ebd 802e 1e3d 6fec 373d
000000d0: 7161 6f3d 954f e5bc f879 3ebe 86ea e6bd
000000e0: 3f98 603c 73d2 403c 61d4 a33b c847 fdbd
000000f0: 36c2 27bc fdff fe3c 199d 31bd 9599 95bd
00000100: 8b5b 03bc cf72 213e 36ac 603e f426 4a3e
00000110: 5a84 983e 683d a13d 4a27 fe3d a4fd 87bd
00000120: e866 edbe 076d ffbd beb7 1bbe 3dc8 82be
00000130: b014 493d 17e6 193b 2597 a8be 0c9e dbbd
00000140: 2273 243e 023f 1f3d 7ff5 d7be e205 08bf
00000150: adfa 15bf 57ce 94be 84e7 84bf fb20 05be
00000160: 0512 ae3e 2ed0 2abc b568 f3bd 1bdd 0cbe
00000170: d480 15bf 3a01 88be dc9d 34bf 5461 3dbe
00000180: 0b70 363e 8e4f 663d 33ca 6b3d 568d 4c3d
00000190: 0cf2 dabd 2922 a7be 5a7b 2ebd ae80 0ebe
000001a0: cdd9 d23e 14ff 003e 247c 0b3e 6c60 923d
000001b0: e83e 253e cc4f f43d 3aca 073e 265e 66bc
000001c0: d2da 2e3e 1bb4 a23c e0f6 81bc e26d c73b
000001d0: 09e6 fc3d 1797 b43e b939 0fbe 11b1 c8bd
000001e0: 9edb 2fbd 1b5f 5a3d b517 6a3e b339 1b3e
000001f0: d111 0e3e 2063 9d3e 014a a23c 09b9 6dbd
00000200: db5d 073e 9ad5 b9be e340 8fbe 9295 67be
00000210: 8e51 ed3c be65 44bd 3bfc c7bc d0f7 f5bd
00000220: 282b c03d 343b 0dbf 99d0 06bf 615a b5be
00000230: fb98 d23c 9fd9 66bc 23d7 0bbd e1af 97bd
00000240: 5dab 153d 1e0f 6dbf 2afc 77be bf8d e3bb
00000250: 6022 243e 7e1c 96bd 7016 983d 77f8 2a3e
00000260: 59cb 7c3d b691 37bf 4dba b03d 4341 fa3d
00000270: c890 333c 33c0 3d3e 4eef be3c 6139 72bd
00000280: 33d5 9fbc 7a18 ebbe 5609 debd e42d 503d
00000290: ae28 353d c3f5 3e3e 3b0a 763e d38f 09bd
000002a0: 2085 9d3d d167 25bf 41f3 93be c695 563d
000002b0: b890 423e 3652 633e 4d57 b53e 06d9 953e
000002c0: 83b6 623d 728c 69bf 7207 803e fe27 8b3d
000002d0: 6103 263e be37 533e 8b6e ef3d 1a4e 223e
000002e0: 7816 a53d 9a55 06bf 46a9 583e 0b57 1b3e
000002f0: 412a 0a3e 999e 4c3e 5c90 0b3e dba7 cabe
00000300: 1740 0d3e 651b 983d 8a73 073e 4e68 503e
00000310: 0785 fbba a4c6 223c 26ff 2fbe 49f9 85be
00000320: 33aa 38be 0bd7 9bbe aa44 05be 5dcc 113e
00000330: c2f9 1b3e 1289 fc3c 740d 0fbe 6d75 883d
00000340: fe48 79be 5f4c f0be 93b0 2b3e 4a17 a73e
00000350: c70b 97bb c737 983e 78ec a13e 9bbc 7f3c
00000360: fe99 cb3d 7791 afbe d2ba 22be 6a2a 4a3e
00000370: dd8c 953e 6dda 4b3e e39d dc3d 8594 12be
00000380: b7bd 47be ac61 aabe 31b9 133d fee6 c1bd
00000390: 3976 013e 6fc3 84bd f207 8a3c 8be6 acbe
000003a0: 683a 2e3e 511d 133c 8175 e3bd 7621 d6bd
000003b0: 9879 2dbe 3780 27be 3438 6e3d ba88 dc3d
000003c0: 096d 84bd 330c 9ebe 2e42 233c bf89 e63c
000003d0: 75b2 e23d c90a 39bd 79b5 643b e3b9 b93e
000003e0: 45e2 f4be 374d 86be 0533 d4be 61b4 92be
000003f0: ae0a 99be c64a 25be f519 bc3e edb2 183d
-1.9751517 0.025801279 -0.25111833 0.0070026177 0.111442074 0.31241038 0.47599596 0.117086485
-0.012604347 0.0007108025 -0.29694253 -0.22797108 -0.05361568 0.049083684 0.019645957 -0.3589905
0.09320542 -0.09125872 -0.11537365 -0.19036847 -0.13445526 0.07006062 -0.0072282325 -0.1674278
0.0039674956 -0.014019047 -0.070089646 -0.15203063 -0.23473483 -0.2885836 -0.20863555 -0.071917064
0.033370458 -0.19369186 -0.3030523 -0.18729863 -0.24347207 -0.38037303 -0.44928154 -0.13425736
-0.13364173 -0.22555655 -0.12526816 0.075640924 -0.0759363 -0.14740111 -0.2860609 -0.021950886
0.23815309 -0.050423693 0.038618565 0.044903215 0.058442537 -0.02799205 -0.18601215 -0.112752005
0.013708173 0.011768925 0.004999683 -0.12367207 -0.010239175 0.031127924 -0.04336271 -0.07304684
-0.008017431 0.15766452 0.21940693 0.19741422 0.29788476 0.078730404 0.124098375 -0.06640175
-0.46367574 -0.12471967 -0.15206811 -0.25543395 0.049091995 0.0023483091 -0.32927814 -0.107235044
0.16059545 0.03887845 -0.42179486 -0.53133976 -0.58585626 -0.29063675 -1.0383153 -0.13000862
0.33998123 -0.0104256105 -0.11885206 -0.1375622 -0.583997 -0.26563436 -0.70553374 -0.18494159
0.17816179 0.056228213 0.05756588 0.049939476 -0.10690698 -0.3264325 -0.042598106 -0.13916275
0.41181794 0.12597305 0.13621575 0.07147297 0.16137278 0.119292825 0.13260737 -0.014060533
0.17075661 0.019861272 -0.01586479 0.006086097 0.12348563 0.35271522 -0.13986863 -0.09799398
-0.042934053 0.053313356 0.22860606 0.1515873 0.13873984 0.3073969 0.019810678 -0.05803779
0.13219397 -0.36295778 -0.27979192 -0.2261565 0.028969552 -0.04794859 -0.024412265 -0.12010157
0.093832314 -0.5516846 -0.52662045 -0.35420516 0.025707712 -0.014089971 -0.034140717 -0.07406593
0.036540378 -0.9260119 -0.24217287 -0.0069443877 0.16028738 -0.07329653 0.074261546 0.16696344
0.061717365 -0.7170671 0.08629284 0.12219479 0.0109598115 0.1853035 0.023307469 -0.059136752
-0.019510841 -0.45917112 -0.108416244 0.050825015 0.04422825 0.18648438 0.2402734 -0.033584427
0.07691407 -0.64611536 -0.28896526 0.05238893 0.19000518 0.2219933 0.35418168 0.29267138
0.055349838 -0.9122993 0.2500568 0.06794737 0.16212226 0.20626733 0.11691006 0.15850106
0.08060926 -0.5247437 0.21158323 0.15169923 0.13492681 0.19982375 0.13629287 -0.3958119
0.1379398 0.074271 0.13227668 0.20352289 -0.0019189426 0.009935055 -0.17187175 -0.26166752
-0.18033676 -0.30437502 -0.13014475 0.14238115 0.15231994 0.030827079 -0.13969976 0.06663022
-0.2434425 -0.46933267 0.16766576 0.32634956 -0.0046095583 0.29730055 0.31625724 0.015608932
0.09941481 -0.34290668 -0.15891579 0.19742742 0.29209033 0.19907542 0.10772302 -0.14314468
-0.19505964 -0.33277643 0.036065284 -0.094678864 0.12642755 -0.064825885 0.016849492 -0.3376964
0.17014468 0.008979158 -0.111063965 -0.10455601 -0.16940916 -0.16357504 0.05815907 0.10768266
-0.06466109 -0.30868682 0.009964509 0.028141854 0.11069194 -0.0451763 0.0034898205 0.36274633
-0.4782888 -0.26230785 -0.41445175 -0.28653243 -0.2989096 -0.16141805 0.36738554 0.037280012
