checkpoints/checkpoint_79.93.pth (torch, 63568 bytes, 3 tensors)

weight f4 [4, 1, 3, 3]
00000000: abc1 f3be 4957 613d 1bc3 2b3f 613c 96be
00000010: e542 a93e 2b56 b43e 35aa adbe ae63 cebe
00000020: c2c4 403e 3165 dfbd 6a36 47be b0ee a43d
00000030: 6e4d a7be 5b5d f0bd 04ff 9bbe 671c 873d
00000040: 16aa 6a3d 714b 11be 715b 8f3f 01aa 333f
00000050: 3cee ea3e 00be 1440 0852 0f40 858a 1440
00000060: c303 f33f 6ff5 ec3f acb0 0e40 9ac2 2dbe
00000070: dec1 0abf ae6f e7be 7180 b3be 0d06 2bbe
00000080: 101a c93e c83a ad3e 01c6 0a3f 7e76 f83e
-0.47608694 0.055014882 0.6709458 -0.2934294 0.3305885 0.3522199 -0.3391892 -0.40310425
0.18825057 -0.109079726 -0.19454351 0.080533385 -0.32676262 -0.11736556 -0.30468 0.06597214
0.057291113 -0.14188935 1.1199781 0.7018128 0.45884883 2.3240967 2.2393818 2.3209546
1.8985523 1.85124 2.2295332 -0.16968766 -0.5420207 -0.45202392 -0.3505893 -0.16701527
0.39277697 0.3383391 0.5420838 0.48527902

weight f4 [8, 4, 3, 3]
00000000: 094c 773f 59a0 0340 ef7d 393f 5017 3ebd
00000010: 461c ff3f 00be c43f fd67 65bd bd42 543f
00000020: 71d8 dd3f 12ea b73d 796b 9f3d a04e 813d
00000030: c009 1bbd 86ec 06bd 2b57 f1bc 4b62 203d
00000040: 849d cb3c ec3e e33d 97ac 263e e10d 523e
00000050: 1b4d 843d 0bce b6bc f440 56be 316f 393d
00000060: 1481 473e 1818 2dbe db8d 6cbe 26bb 0a3f
00000070: e587 2b3f 9011 b63e 5841 58bf 15a7 91bf
00000080: 2277 abbf e513 38be 9dad e5be 2322 bebf
00000090: 6ce6 283e e07c 4e3f 4459 7e3f 9394 9a3c
000000a0: 7c2e 383e 3453 883f 3f33 643f 6320 193e
000000b0: 6d9c d4be 11c6 61bd 6031 91bd 0087 a43c
000000c0: 93b9 4d3d 0275 aebb 1c1e d13d 388c 15be
000000d0: eec5 36be 973c 9e3d c85f 5e3e bd62 e7bd
000000e0: 83af 76be 984e 173e c123 2bbe 57f9 e5be
000000f0: d7c9 a53e 68ae 9e3e 856c b7bd 9db5 1b3f
00000100: e333 a23e eaa1 08be f876 9b3e 775d 39bd
00000110: 9da7 8fbf 0c17 4e3f 113c 633f a399 ac3e
00000120: d814 b73d 4946 b33e 7af4 bf3e 2ff0 423f
00000130: e601 183f 4569 8cbd 7f95 913f 2406 803f
00000140: e8c4 843c bc0c 093e 5687 b83c 0345 a2bc
00000150: 452b 18be eb66 a13c 6926 21be 8f8b cd3d
00000160: de57 273e 1d98 eb3d 2e15 94be e6a6 d3bd
00000170: 58e6 753e 66ff cfbe e5e0 76bd ed1a 313e
00000180: d089 a2be f7d3 983e 2eca ba3e cbe4 503f
00000190: b19e ae3f 0fdd a73f 3f74 22bd 2416 293f
000001a0: d1c1 edbd 2e8d f43e e8b4 493f 689b ba3d
000001b0: 6e4e b23e 49c2 bd3d b9d7 093f 0a14 e4be
000001c0: 15c9 2dbf 9692 50bf 7f62 3f3f 7246 873e
000001d0: 1df9 02bf 0bd7 ac3d 75a1 03be a332 dbbd
000001e0: 8e56 c73c e7cc 0dbe 95b7 e6bd d948 c63d
000001f0: ebee 0bbe 5b1d a5ba 5bd6 1cbe 0fe6 ddbc
00000200: 9174 37be d075 f5bd 880b 70be c80c 2ebe
00000210: 5fd4 933e 1b1a 503e b876 8d3e 938f 053f
00000220: 36f2 803f 1fe7 823f c999 ac3f 1aca d53f
00000230: 38c4 b23f d971 f13f a977 e23f d171 743f
00000240: 10c5 933f 39b6 96be dcc7 f43e 0467 ba3f
00000250: fab8 2b3f 8528 663f 7b1c 4abe 1d5c db3d
00000260: 6321 2c3f 208f 3bbd 71b8 8d3d 5727 90bd
00000270: 54d8 be3d 8ed7 86bd cb24 10be c0e5 23be
00000280: 1e18 c13c eb1b 973d 81e6 543e 2e22 033e
00000290: 0e24 ab3d d9e9 77be 83af 94bc 6d06 01be
000002a0: e416 6d3d 4d04 39be f33a b9bd b98b e93f
000002b0: d5c6 ab3f 7634 c23f 3df1 da3e 7f83 1c3f
000002c0: 3334 c43f 956c d43f 3402 ef3f ca5d e33f
000002d0: c83d 81bd b57d 5bbf 8e20 eabf 49b7 cdbe
000002e0: c08b cabe a010 f8be 2e22 b9bf 530f a2bf
000002f0: b7d0 82bf 21ed adbd 972c febb e098 f2bd
00000300: 28c8 cbbd 2ef8 bb3d 24a0 293e acd5 adbc
00000310: bb3d 013c 2173 46bd ba4a 3e3e cae4 cb3e
00000320: cfbb d33e c010 63be 8456 77bd c42b 7b3e
00000330: b457 75be b7e4 32be c502 91be 9d2a b33f
00000340: b1a9 f03f 5e17 ff3f b8c9 4dbf f7eb abbf
00000350: a157 2fbf 6e0f 77be fcb3 b73d 8f10 c63e
00000360: a935 ee3d 5172 10bd 00f8 55bd c7b0 0cbe
00000370: 7a85 0dbe 4bc0 733d 0513 6e3d 33f0 af3d
00000380: c85b 87bd fe77 96bd 0030 3dbc d3ca 8fbd
00000390: 8bdb 5cbd daf6 0abe 5321 f7bd bbd0 383d
000003a0: 8d21 b5bd d6c0 a83d 96a4 fabd 8351 26be
000003b0: c03c fabd b8f8 d1bc 51b0 e5bd 87f5 29be
000003c0: 10fb d53c 3693 cbbd 60e0 1cbe d6ce 913c
000003d0: 0be3 bf3c 8b54 febc e04f d4bc 88b5 f43a
000003e0: a001 6abd a1c7 133e 7afa bb3d 70b6 a83d
000003f0: 202f 1cbf b1dd b7bf 658a 70bf 8513 5bbf
0.96600395 2.0566618 0.72457784 -0.04640895 1.9930503 1.5370483 -0.056007374 0.82914335
1.7331678 0.08980192 0.07784171 0.06313825 -0.037851095 -0.03294041 -0.02946051 0.03915624
0.024855383 0.11095986 0.16276775 0.20513107 0.06460019 -0.022315046 -0.20923215 0.045272056
0.19482833 -0.16903722 -0.23100989 0.54191816 0.67004234 0.35560274 -0.84474707 -1.1379114
-1.3395731 -0.17976339 -0.4485902 -1.4854168 0.16494149 0.80659294 0.9935496 0.018869674
0.17986482 1.0650392 0.89140695 0.14953761 -0.41525593 -0.05512053 -0.07089496 0.020083904
0.050225805 -0.005324007 0.10210821 -0.1460427 -0.17848942 0.077264 0.21716225 -0.1129813
-0.2409039 0.14776075 -0.16712858 -0.44916794 0.32380554 0.30992436 -0.08956245 0.60823995
0.3168021 -0.13343015 0.30364203 -0.04525515 -1.1223027 0.80503917 0.8876353 0.33710966
0.089395225 0.3501456 0.37491208 0.7614774 0.59377897 -0.06856016 1.1373748 1.0001874
0.016207173 0.13383764 0.02252547 -0.019808298 -0.14860256 0.019702395 -0.15737309 0.10036384
0.16342112 0.11503623 -0.2892241 -0.10334568 0.2401365 -0.4062454 -0.06027307 0.17295428
-0.31745768 0.29849216 0.36482376 0.8159911 1.3642179 1.3114337 -0.039661642 0.6604941
-0.11609233 0.47763962 0.78791666 0.09111673 0.34825462 0.092655726 0.5384479 -0.4454654
-0.6788495 -0.8147367 0.7475967 0.26420933 -0.51161367 0.08439454 -0.1285456 -0.107030176
0.024333265 -0.13847695 -0.11265484 0.09681863 -0.13665359 -0.001259725 -0.15316145 -0.02708724
-0.1791556 -0.119853616 -0.23441899 -0.16997063 0.28872964 0.20322458 0.27629638 0.521722
1.0073917 1.0226783 1.3484432 1.6702302 1.3966131 1.8862869 1.7692767 0.9548617
1.1544514 -0.294359 0.4780873 1.4562688 0.67079127 0.8990558 -0.19737427 0.107109286
0.67238444 -0.04579079 0.06919945 -0.070387535 0.09318605 -0.065840825 -0.14076535 -0.16005611
0.02357107 0.07378372 0.20791055 0.12806007 0.08356486 -0.242103 -0.018150097 -0.12600107
0.05788316 -0.18068047 -0.09044447 1.8245765 1.3420054 1.517226 0.42762175 0.6113815
1.532843 1.6595637 1.8672547 1.7762997 -0.06310612 -0.8573869 -1.8291185 -0.40178898
-0.39559746 -0.48450184 -1.4463556 -1.2660927 -1.0219945 -0.084924944 -0.0077567804 -0.11845565
-0.09950286 0.09178196 0.16564995 -0.02122005 0.007888253 -0.04844964 0.18583193 0.3982299
0.41354224 -0.22174358 -0.060385242 0.24528414 -0.23959237 -0.1747006 -0.28322425 1.399738
1.8801786 1.9929006 -0.80385923 -1.3431386 -0.68493086 -0.2412698 0.08969876 0.38684508
0.116313286 -0.03526527 -0.052238464 -0.1373931 -0.13820449 0.059509557 0.058123607 0.08590736
-0.06609303 -0.073471054 -0.011547089 -0.070211075 -0.05392031 -0.13570729 -0.12066903 0.045120936
-0.0884429 0.082399055 -0.122384235 -0.16242032 -0.122186184 -0.025631294 -0.1121527 -0.16597567
0.026120692 -0.09940188 -0.15319967 0.017798822 0.023423692 -0.031046173 -0.025916994 0.0018669823
-0.057130456 0.14431621 0.09178634 0.08237922 -0.6100941 -1.436453 -0.93961173 -0.8557666

weight f4 [29, 512]
00000000: 3ecd f7bf 3c48 a1bd 1f23 7cbe 9c7b 0b3c
00000010: 1543 e93d f188 9d3e decc f03e 3dbb 0b3e
00000020: a33a 71bc 50ef 123d a12e 8abe 1305 4abe
00000030: 2dd2 1bbd 31a5 8d3d 4f3e 063d 066e abbe
00000040: d930 a73d 7bd0 89bd bb43 d0bd f71a 46be
00000050: dcd8 f7bd 2283 763d b8e6 a33a 34cc 21be
00000060: b9ca e2bb de28 84bc 0215 8ebd f6ab 2ebe
00000070: 66f3 7ebe d9c9 98be 798a 40be cc27 97bd
00000080: ed82 193d e939 30be 9890 92be ec47 30be
00000090: a737 7cbe 4a28 bdbe 11b8 e0be d05f 0abe
000000a0: 842b 0dbe cffa 67be d4db 06be a316 a33d
000000b0: 0a05 96bd 734e 1cbe 73f2 98be 4c2c f4bc
000000c0: 6f48 613e b9f7 4abd 5bae 9d3c 553e 223d
000000d0: 8a1d 4a3d 583e 08bd 58fc 50be 5912 e8bd
000000e0: 8af7 753c a675 2e3c 0a97 173c 5a97 eabd
000000f0: b91a 38bb 960d 0a3d 6eb9 2cbd d192 90bd
00000100: b0af 65ba 19c5 1b3e 4acc 583e 8b64 463e
00000110: c87e 8f3e 6c84 963d 6e04 e53d af87 84bd
00000120: 8c26 e8be 7088 06be e7f7 1dbe 7d8f 68be
00000130: c44c 893d e413 733c 2b7f 96be 5730 d7bd
00000140: e865 3d3e d657 3e3d f477 d5be 3cfc ffbe
00000150: d9fd 0bbf 87d4 8ebe 51aa 77bf 18c7 03be
00000160: 93d2 ac3e ad24 f63b 0ab6 dcbd 72eb 0bbe
00000170: 0d24 14bf f99b 8ebe b3b3 2cbf ec70 37be
00000180: e06d 3d3e 1445 883d ed25 643d 185c 3a3d
00000190: 15cb c6bd e8f1 a4be f097 2dbd b55e 0bbe
000001a0: 0562 d53e cec7 003e e74a fa3d 7383 b13d
000001b0: 1a88 3a3e 1bc1 f13d 3836 d93d e5ea 43bc
000001c0: c5cf 353e 17c2 f43c 77b9 b9bc 16c4 9e3c
000001d0: 682d 0e3e 6ff5 b43e 85c9 0cbe 1b70 c3bd
000001e0: 0a9c a4bc f71c 8f3d 1209 493e 9e0f 143e
000001f0: 2497 0c3e 05e0 a33e 0fe1 453a 5071 6abd
00000200: ac62 023e aea4 b0be 48b1 8abe 2aae 5bbe
00000210: 67ba 073d b650 4cbd 471e a0bc a388 dfbd
00000220: dfe6 bd3d ec9b 0ebf 6ba5 0abf f574 bbbe
00000230: 2c4f 843c 8a1f 4abc 4c18 06bd 2c12 80bd
00000240: 8d0d 0e3d 8ca1 6dbf ed6c 8cbe 30b9 62bd
00000250: 302b 083e ae45 b0bd 2a8d 963d a051 213e
00000260: c10a 743d b69e 34bf 1cea 773d 4acf cf3d
00000270: e211 cdba 1f2f 313e 2cf2 983c 93d2 6abd
00000280: 523d 9dbc a04f e7be b892 debd 61d0 5e3d
00000290: de07 403d 9761 3e3e 038b 683e 9dcc b3bc
000002a0: 08d4 993d 5c3f 20bf 58d0 8abe 1d0e 893d
000002b0: f637 463e b0c9 5c3e c763 ac3e 9b7a 8b3e
000002c0: 9304 693d 4709 5fbf 5a82 7e3e 4c38 9f3d
000002d0: 8d50 253e 75b2 4e3e b4b2 f13d 71aa 123e
000002e0: 5d63 a93d 6509 06bf 7dd4 673e 78c2 163e
000002f0: 9fd1 003e cac1 523e d1d6 133e c639 c5be
00000300: 6cd6 0e3e 0418 9b3d 2db3 053e adc1 423e
00000310: 6a5b 0abc b823 ee3a cb67 30be 294e 85be
00000320: 2130 2ebe 57c0 95be dafd ffbd 127e 0a3e
00000330: 7e42 153e 4e29 093d c22d 03be 5aed 893d
00000340: 1c93 7ebe a3d2 f5be d5e5 1b3e f2ab a13e
00000350: 229e 9cbb f43d 8a3e 3024 9d3e c729 a73c
00000360: 8d2f 9e3d b9c7 abbe a28f 18be 26bb 4f3e
00000370: dfc8 8f3e 922b 553e ff3b e93d cb04 17be
00000380: 86a4 50be 7055 a5be 5bf5 e03c c236 a3bd
00000390: 4607 103e d130 2abd 721c 993c 5cdb a5be
000003a0: fe9a 2f3e e546 223c 043d dbbd 36df d5bd
000003b0: 45df 2abe e0fe 2dbe fa9c 333d 16e9 d93d
000003c0: da91 48bd 3c42 91be ee2b 503c 6898 233d
000003d0: b76a cf3d 4272 38bd 4b3d 123c 01b2 b33e
000003e0: 95ce cdbe 8f63 6ebe 2b79 c7be e917 9bbe
000003f0: 8f76 a0be adeb 12be ee12 ad3e dc93 0b3d
-1.935951 -0.07875106 -0.24622773 0.0085133575 0.11389748 0.3076854 0.470313 0.13645644
-0.014723453 0.035872757 -0.269887 -0.19728498 -0.038042236 0.069162734 0.032774266 -0.3348238
0.08163614 -0.067292176 -0.101691686 -0.19346224 -0.121019095 0.06018365 0.0012504673 -0.15800554
-0.006921139 -0.016132768 -0.06937601 -0.17057785 -0.24897537 -0.29841498 -0.18802823 -0.073806375
0.037478376 -0.17209591 -0.2862594 -0.17214936 -0.24630605 -0.369448 -0.43890432 -0.13513112
-0.13786131 -0.2265427 -0.13169795 0.07963302 -0.0732518 -0.15264301 -0.29872474 -0.029806279
0.22000287 -0.049552653 0.019248178 0.039610226 0.049344577 -0.03326258 -0.20408762 -0.113316245
0.015012631 0.010648167 0.009252319 -0.11454649 -0.00280921 0.033704363 -0.042169027 -0.07059253
-0.0008761836 0.15211906 0.2117168 0.19374292 0.28026414 0.07349476 0.111824855 -0.06471192
-0.4534191 -0.13137984 -0.15426598 -0.22710986 0.06704095 0.014836285 -0.29393896 -0.10507267
0.18495905 0.046470486 -0.4169308 -0.49997127 -0.54684216 -0.2789652 -0.9674426 -0.12868917
0.33754405 0.0075116963 -0.10776909 -0.13664034 -0.5786751 -0.27853373 -0.674617 -0.1791417
0.18498945 0.066538006 0.05570023 0.045497984 -0.097067036 -0.3221581 -0.042381227 -0.13610347
0.41676345 0.1257622 0.12221318 0.0866765 0.18215981 0.1180441 0.106060445 -0.011957859
0.17755039 0.029877705 -0.022671444 0.01938061 0.13884509 0.353435 -0.13748749 -0.09542867
-0.020093936 0.069879465 0.19632366 0.14459082 0.1372953 0.3200685 0.000754849 -0.05723697
0.12732953 -0.3450064 -0.2708838 -0.21453157 0.03313675 -0.04988166 -0.019545687 -0.10914733
0.09272551 -0.5570667 -0.5415866 -0.3661267 0.016151033 -0.012336621 -0.032738015 -0.06253466
0.03468089 -0.92824626 -0.27426854 -0.05535239 0.13297725 -0.0860704 0.07351144 0.15753794
0.05958057 -0.70554674 0.060526 0.10146959 -0.0015645588 0.17303132 0.018670164 -0.057329725
-0.019194279 -0.45177937 -0.10867828 0.054397944 0.046882503 0.18591915 0.22709279 -0.021948153
0.07511145 -0.6259668 -0.2711208 0.06692145 0.19357285 0.21561313 0.33669874 0.27241978
0.056889128 -0.8712353 0.24854413 0.0777441 0.16144009 0.20185263 0.11801663 0.1432283
0.08270905 -0.52358085 0.22639652 0.14722621 0.12579964 0.20581737 0.14437415 -0.3852064
0.13948983 0.0757294 0.13056631 0.19019194 -0.008444646 0.0018168604 -0.17227094 -0.26036194
-0.17010547 -0.29248306 -0.1249959 0.13524655 0.14576146 0.033486657 -0.12810424 0.06734724
-0.24860805 -0.48012266 0.15224393 0.31576496 -0.004779593 0.2700039 0.3069167 0.020405663
0.07723913 -0.33550814 -0.14898542 0.20286235 0.2808294 0.20817402 0.113883965 -0.14747922
-0.2037526 -0.32291746 0.027460745 -0.079694286 0.14065275 -0.04155046 0.018690322 -0.3239392
0.17148969 0.009904598 -0.10704997 -0.10442965 -0.16686733 -0.16991758 0.043850876 0.10640161
-0.04896722 -0.28370845 0.012705786 0.039940268 0.10127776 -0.04503084 0.008925746 0.35096744
-0.40196672 -0.23280166 -0.3895963 -0.3029168 -0.31340453 -0.14347716 0.33803505 0.034076557
