checkpoints/checkpoint_94.40.pth (torch, 63568 bytes, 3 tensors)

weight f4 [4, 1, 3, 3]
0	0xbf0b8368	-0.54497385
1	0x3e1b0b78	0.15141094
2	0x3f641608	0.89096117
3	0xbf0dc43b	-0.5537755
4	0x3ea8d7d1	0.32977155
5	0x3f194829	0.5987573
6	0xbf13fef0	-0.5781088
7	0xbf03d962	-0.51503575
8	0x3ea2f186	0.31824893
9	0xbddf6531	-0.109079726
10	0xbe47366a	-0.19454351
11	0x3da4eeb0	0.080533385
12	0xbea74d6e	-0.32676262
13	0xbdf05d5b	-0.11736556
14	0xbe9bff04	-0.30468
15	0x3d871c67	0.06597214
16	0x3d6aaa16	0.057291113
17	0xbe114b71	-0.14188935
18	0x3faf4367	1.3692445
19	0x3ef5cb86	0.4800684
20	0x3d9942e3	0.07483461
21	0x4069024a	3.6407647
22	0x40469a35	3.103162
23	0x403f9ebe	2.9940639
24	0x40143c11	2.3161662
25	0x4015bf2d	2.3397934
26	0x404fc474	3.2463655
27	0xbebf08bd	-0.37311354
28	0xbf7a0adc	-0.9767282
29	0xbf3b291c	-0.731096
30	0xbf0844a2	-0.53229725
31	0xbde79846	-0.11308341
32	0x3f1e97fa	0.6195065
33	0x3ed41abe	0.41426653
34	0x3f73a11d	0.95167714
35	0x3f51a823	0.8189718

weight f4 [8, 4, 3, 3]
0	0x40094447	2.1447923
1	0x405ccb41	3.4499056
2	0x3f62e113	0.88624686
3	0xbee244ea	-0.44193202
4	0x40339a1c	2.806281
5	0x401b066a	2.4222665
6	0xbedaa37d	-0.42702857
7	0x3f157e6f	0.5839605
8	0x404ac455	3.1682332
9	0x3db7ea12	0.08980192
10	0x3d9f6b79	0.07784171
11	0x3d814ea0	0.06313825
12	0xbd1b09c0	-0.037851095
13	0xbd06ec86	-0.03294041
14	0xbcf1572b	-0.02946051
15	0x3d20624b	0.03915624
16	0x3ccb9d84	0.024855383
17	0x3de33eec	0.11095986
18	0x3e29d8ac	0.1658656
19	0x3e6a4b13	0.22880201
20	0x3dbea3a6	0.09308557
21	0xbdfe7387	-0.12424379
22	0xbed4e4b2	-0.4158073
23	0x3beb7113	0.0071851104
24	0x3ec4532c	0.38344705
25	0xbd9bc89f	-0.07606625
26	0xbe67cb2b	-0.22636096
27	0x3f84a7ba	1.0363686
28	0x3fa47509	1.2848216
29	0x3ed04ea7	0.40685007
30	0xbf99b2c8	-1.2007685
31	0xc04d2f1c	-3.2060003
32	0xc04f5304	-3.2394419
33	0xbeec4f4d	-0.46154252
34	0xbf9dca33	-1.2327331
35	0xc081ad5e	-4.052413
36	0x3ed2f629	0.4120343
37	0x3fa29bcc	1.2703795
38	0x3f02fe67	0.5116944
39	0xbe991077	-0.29895374
40	0x3f8ffb23	1.1248516
41	0x3f8ea49f	1.1143988
42	0x3fbdeb9f	1.4837531
43	0x3f38348c	0.7195518
44	0xbeedacf6	-0.4642102
45	0xbd61c611	-0.05512053
46	0xbd913160	-0.07089496
47	0x3ca48700	0.020083904
48	0x3d4db993	0.050225805
49	0xbbae7502	-0.005324007
50	0x3dd11e1c	0.10210821
51	0xbe158c38	-0.1460427
52	0xbe36c5ee	-0.17848942
53	0x3d9e3c97	0.077264
54	0x3e8303ef	0.2558894
55	0xbe8ee361	-0.2790785
56	0xbe6a96c5	-0.22909077
57	0x3e5b5363	0.21418528
58	0xbec3d5b8	-0.38248992
59	0xbf1c3894	-0.6102383
60	0x3f0a1662	0.53940403
61	0x3ed018a6	0.40643805
62	0xbcfd89ff	-0.03094959
63	0x3f6da076	0.9282297
64	0x3d8cfe6d	0.06884465
65	0xbcfbb8c7	-0.030727757
66	0x3f1d6cb1	0.61493975
67	0xbf50f24b	-0.8161971
68	0xc035fa38	-2.8433971
69	0x3f32075f	0.695425
70	0x3fab33eb	1.3375219
71	0x3de4ba05	0.11168293
72	0x3eb8a831	0.3606582
73	0xbf67ce74	-0.905494
74	0x3f6c1871	0.92224795
75	0x3fa54992	1.2913077
76	0xbdbc1d5f	-0.091852896
77	0xbdf1d969	-0.11809046
78	0x4017007e	2.359405
79	0x3f27a820	0.65490913
80	0xbc491d7b	-0.012275095
81	0x3e090cbc	0.13383764
82	0x3cb88756	0.02252547
83	0xbca24503	-0.019808298
84	0xbe182b45	-0.14860256
85	0x3ca166eb	0.019702395
86	0xbe212669	-0.15737309
87	0x3dcd8b8f	0.10036384
88	0x3e2757de	0.16342112
89	0x3deb981d	0.11503623
90	0xbeaf6ebe	-0.34264177
91	0xbe913343	-0.28359422
92	0x3e84469a	0.25835115
93	0xbf0e5134	-0.55592656
94	0xbe04ec4f	-0.1298077
95	0x3e6a74cc	0.22896117
96	0xbe43be98	-0.19115674
97	0x3ed10701	0.40825656
98	0x3eeb582d	0.4596571
99	0x3f4fbdb1	0.8114882
100	0x3fc7ed19	1.5619231
101	0x3ffec088	1.9902506
102	0xbee0bf62	-0.43896013
103	0x3e999011	0.29992726
104	0xbf373a30	-0.7157316
105	0x3f7e08ea	0.9923235
106	0x3eec0c1f	0.46102998
107	0xbf6b15d3	-0.91830176
108	0x3f49e8ba	0.7887074
109	0xbf011c9e	-0.5043429
110	0x3ef5c0ff	0.47998807
111	0xbf2ed97c	-0.68300605
112	0xbfe30add	-1.773769
113	0xbff38ed7	-1.9027966
114	0x3f797fdf	0.9746074
115	0x3ec4cd07	0.38437673
116	0xbf3498fe	-0.7054595
117	0x3dacd70b	0.08439454
118	0xbe03a175	-0.1285456
119	0xbddb32a3	-0.107030176
120	0x3cc7568e	0.024333265
121	0xbe0dcce7	-0.13847695
122	0xbde6b795	-0.11265484
123	0x3dc648d9	0.09681863
124	0xbe0beeeb	-0.13665359
125	0xbaa51d5b	-0.001259725
126	0xbdd9da07	-0.106372885
127	0xbd97a84c	-0.07405147
128	0xbe38b26c	-0.18036813
129	0xbe69002a	-0.22753969
130	0xbea54b4d	-0.32284012
131	0xbe4a4498	-0.19752729
132	0x3ec37785	0.38177124
133	0x3e80aff7	0.2513425
134	0x3e80380c	0.2504276
135	0xbc5e77d8	-0.013578378
136	0x3f4bedc5	0.7965968
137	0x3fc705ef	1.5548686
138	0x3fd88583	1.6915745
139	0x40178366	2.367395
140	0x4005da2b	2.091441
141	0x4069292f	3.6431386
142	0x403d7533	2.9602783
143	0x3f19b47a	0.6004101
144	0x3fc1d811	1.5144063
145	0xbd2f4211	-0.042787615
146	0xbea8afa3	-0.329465
147	0x4001e1cf	2.0294073
148	0x3f6ade77	0.91745704
149	0x3f41dfd5	0.75732166
150	0xbf7dc71e	-0.99131954
151	0xbf39e900	-0.72621155
152	0x3f8867cf	1.065668
153	0xbd3b8f20	-0.04579079
154	0x3d8db871	0.06919945
155	0xbd902757	-0.070387535
156	0x3dbed854	0.09318605
157	0xbd86d78e	-0.065840825
158	0xbe1024cb	-0.14076535
159	0xbe23e5c0	-0.16005611
160	0x3cc1181e	0.02357107
161	0x3d971beb	0.07378372
162	0x3e9729ba	0.29524022
163	0x3eb43a9c	0.35200965
164	0x3e1479b7	0.14499556
165	0xbeceeba4	-0.40414155
166	0xbe0bff8c	-0.13671702
167	0xbe5c1e15	-0.2149585
168	0x3d76f5ba	0.060292937
169	0xbe7f5287	-0.24933825
170	0xbe4357e5	-0.19076498
171	0x40222830	2.5337029
172	0x4024e9a6	2.5767608
173	0x4010c1e9	2.2618353
174	0x3f448f43	0.767811
175	0x3f00ad0d	0.50264055
176	0x4010902a	2.258799
177	0x400286c2	2.039475
178	0x404df840	3.218277
179	0x402a9701	2.6654665
180	0xbea8d40d	-0.32974282
181	0xc021d598	-2.5286617
182	0xc065a93b	-3.588454
183	0xbf8a36e7	-1.0798005
184	0xbfd5e86b	-1.6711553
185	0xbf9de3fc	-1.23352
186	0xbfe3beae	-1.7792566
187	0xc02dded0	-2.7167244
188	0xbff05c95	-1.8778254
189	0xbdaded21	-0.084924944
190	0xbbfe2c97	-0.0077567804
191	0xbdf298e0	-0.11845565
192	0xbdcbc828	-0.09950286
193	0x3dbbf82e	0.09178196
194	0x3e29a024	0.16564995
195	0xbcadd5ac	-0.02122005
196	0x3c013dbb	0.007888253
197	0xbd467321	-0.04844964
198	0x3e48c449	0.19606127
199	0x3f2c611b	0.6733567
200	0x3ef1ce7f	0.47227857
201	0xbef4c406	-0.47805804
202	0xbd8cda92	-0.068776265
203	0x3e8e0dca	0.27744895
204	0xbec8a1c4	-0.39185917
205	0xbe66c39d	-0.22535558
206	0xbe99c2e6	-0.30031508
207	0x40073f54	2.1132402
208	0x4056e84a	3.3579278
209	0x40736a43	3.8033607
210	0xc00d6952	-2.2095532
211	0xc0002054	-2.0019732
212	0xbefe8d05	-0.49716964
213	0xbf10d311	-0.5657206
214	0xbe363ee6	-0.17797431
215	0x3dfbe68a	0.12299831
216	0x3dee35a9	0.116313286
217	0xbd107251	-0.03526527
218	0xbd55f800	-0.052238464
219	0xbe0cb0c7	-0.1373931
220	0xbe0d857a	-0.13820449
221	0x3d73c04b	0.059509557
222	0x3d6e1305	0.058123607
223	0x3daff033	0.08590736
224	0xbd875bc8	-0.06609303
225	0xbd9677fe	-0.073471054
226	0xbc3d3000	-0.011547089
227	0xbd8fcad3	-0.070211075
228	0xbd5cdb8b	-0.05392031
229	0xbe0af6da	-0.13570729
230	0xbdf72153	-0.12066903
231	0x3d38d0bb	0.045120936
232	0xbdb5218d	-0.0884429
233	0x3da8c0d6	0.082399055
234	0xbdfaa496	-0.122384235
235	0xbe265183	-0.16242032
236	0xbdfa3cc0	-0.122186184
237	0xbcd1f8b8	-0.025631294
238	0xbde5b051	-0.1121527
239	0xbe29f587	-0.16597567
240	0x3cd5fb10	0.026120692
241	0xbdcb9336	-0.09940188
242	0xbe1ce060	-0.15319967
243	0x3c91ced6	0.017798822
244	0x3cbfe30b	0.023423692
245	0xbcfe548b	-0.031046173
246	0xbcd44fe0	-0.025916994
247	0x3af4b588	0.0018669823
248	0xbd6a01a0	-0.057130456
249	0x3e13c7a1	0.14431621
250	0x3dbbfa7a	0.09178634
251	0x3da8b670	0.08237922
252	0xbf9b3c32	-1.2127745
253	0xc0746b85	-3.8190625
254	0xc002e0c1	-2.044968
255	0xbf4af923	-0.792864

weight f4 [29, 512]
0	0xc082ff7e	-4.093688
1	0x40192b33	2.3932617
2	0xbe177ae5	-0.14792974
3	0x3e8acdc0	0.271101
4	0x3ea81f50	0.3283639
5	0x3eaba043	0.33520707
6	0x3f1dbb76	0.6161417
7	0xbef828d6	-0.48468655
8	0x3e24de3a	0.16100398
9	0xbfa766e0	-1.307827
10	0xbf1a5899	-0.6029144
11	0xbec10128	-0.37696195
12	0x3d436448	0.047703058
13	0xbedfbe1d	-0.43699732
14	0xbf08115f	-0.53151506
15	0xbf5e3f96	-0.86815774
16	0x3ee1de8d	0.44115105
17	0xbee49c15	-0.4465033
18	0xbeb4dda5	-0.3532535
19	0xbca5cce3	-0.0202393
20	0xbec415ba	-0.38297826
21	0x3e814836	0.25250405
22	0xbe123b87	-0.1428052
23	0xbedb09a4	-0.42780793
24	0x3e95c5a4	0.2925235
25	0x3d8f9755	0.07011286
26	0xbdeeaa84	-0.11653617
27	0xbdde1524	-0.10843876
28	0xbebb67b9	-0.36602572
29	0xbf2e329e	-0.68045986
30	0xbf66701e	-0.9001483
31	0xbd8ecdee	-0.06972872
32	0xbd27ac90	-0.040936053
33	0xbf6139d7	-0.8797888
34	0xbf20d6c9	-0.62827736
35	0xbefe7d21	-0.4970484
36	0xbea8ef99	-0.32995299
37	0xbf1f6b04	-0.6227267
38	0xbee85757	-0.45379135
39	0x3e1f00bf	0.15527628
40	0xbd2023f1	-0.039096776
41	0xbca9db15	-0.02073435
42	0xbdbe319f	-0.09286808
43	0x3e266f07	0.16253291
44	0x3dd38358	0.10327786
45	0x3d8a903c	0.06765792
46	0xbde376c4	-0.11106637
47	0x3e9ea55b	0.3098553
48	0x3f4649d4	0.774564
49	0x3dd05f10	0.10174382
50	0x3e9fdce0	0.31223202
51	0x3e06bc11	0.13157679
52	0x3e7f4eaa	0.24932352
53	0xbd4ceef8	-0.050032586
54	0x3dee6df2	0.11642064
55	0xbda7b9fc	-0.081897706
56	0x3db022ee	0.08600412
57	0x3da23fb4	0.07922307
58	0x3d65c435	0.05609532
59	0xbe7cbaf6	-0.24680695
60	0xbdb91454	-0.090370804
61	0xbccc77e7	-0.024959518
62	0xbd919c57	-0.071098976
63	0xbe48a613	-0.19594602
64	0xbe8d8f2e	-0.276483
65	0x3ead1545	0.3380529
66	0x3eeb4e2d	0.4595808
67	0x3e67f890	0.22653413
68	0x3f352566	0.7076019
69	0x3eb08f72	0.3448444
70	0x3f13b0fd	0.5769194
71	0xbe0ce1de	-0.13758036
72	0xbec771a2	-0.38953882
73	0x3debaaff	0.11507224
74	0xbc5db9f7	-0.013533107
75	0xbebd74a2	-0.37003046
76	0xbd4f42cd	-0.050600816
77	0xbe4a5fef	-0.19763158
78	0xbf85a6e4	-1.0441556
79	0xbe5b5155	-0.21417744
80	0x3d6cc731	0.05780715
81	0x3ed922ea	0.4240945
82	0xbecfa474	-0.40555155
83	0xbf2fc9d2	-0.6866733
84	0xbf6ed9e7	-0.9330124
85	0xbe69ccf5	-0.22832091
86	0xc00f3f01	-2.2382205
87	0xbe341630	-0.17586589
88	0x3f04ffad	0.5195263
89	0xbe83b013	-0.2572027
90	0xbea9724b	-0.3309501
91	0xbdc577ec	-0.09642014
92	0xbef34d5c	-0.47519958
93	0x3b8f73b4	0.0043778066
94	0xbf564ca7	-0.8371071
95	0xbe86cb3b	-0.26326928
96	0x3d8b87f6	0.06813042
97	0x3d8e468f	0.06947052
98	0x3cb24f1c	0.021766238
99	0xbd87eb62	-0.066366926
100	0xbe09343e	-0.13398835
101	0xbee4c195	-0.4467894
102	0x3df6ff7b	0.12060448
103	0xbe05557a	-0.13020888
104	0x3f04d45e	0.51886547
105	0x3e757310	0.23969674
106	0xbc7eef63	-0.015560004
107	0xbcc42d44	-0.023947366
108	0xbe0b5918	-0.13608205
109	0x3bbc21c6	0.005741331
110	0x3e58f907	0.21188746
111	0xbd1ca415	-0.03824242
112	0x3ee39da0	0.44456196
113	0xbd854552	-0.065073624
114	0xbe076f8b	-0.13226144
115	0xbdb3d35a	-0.087805465
116	0x3d8cef15	0.06881539
117	0x3ec8ab48	0.39193177
118	0xbee3a666	-0.4446289
119	0xbe07886a	-0.13235632
120	0xbebc2fce	-0.36755222
121	0xbe389179	-0.18024243
122	0x3ec924bf	0.39285848
123	0x3e2177b4	0.1576832
124	0x3e42e0e2	0.19031098
125	0x3df3c281	0.11902333
126	0xbed142dc	-0.40871322
127	0x3c2375bc	0.0099768005
128	0x3e997e41	0.29979137
129	0xbf43b840	-0.7645302
130	0xbeb5e7b7	-0.35528347
131	0xbf092104	-0.53566
132	0xbe992c6f	-0.29916713
133	0xbe272a57	-0.16324745
134	0xbd71ce45	-0.059034605
135	0xbe83fda2	-0.25779444
136	0x3e20c24e	0.15699121
137	0xbf144db1	-0.5793105
138	0xbee8c69f	-0.45464036
139	0xbe669108	-0.22516263
140	0x3e08f62d	0.13375159
141	0x3dd0e8ce	0.10200654
142	0x3e594aae	0.21219894
143	0xbe7f8bd3	-0.24955682
144	0x3e2bd4b4	0.16780359
145	0xbfb2f5a5	-1.3981215
146	0xbe9550d8	-0.2916324
147	0x3ea85e7f	0.32884595
148	0x3f044d24	0.5168021
149	0x3f01386e	0.5047673
150	0x3ebd1c83	0.36935815
151	0x3f0c9346	0.5491222
152	0x3e4eedb4	0.20207864
153	0xbfc2e40d	-1.5225846
154	0x3ee3c1d8	0.4448383
155	0x3e808f22	0.25109202
156	0xbda24cf4	-0.07924834
157	0x3ec1c3f8	0.37844825
158	0x3e5aa2c9	0.2135116
159	0xbd8b7b8a	-0.068106726
160	0x3d334aca	0.043772496
161	0xbf7816d8	-0.96909857
162	0xbe6d768d	-0.23189755
163	0x3de67468	0.112526715
164	0x3d35640e	0.044284873
165	0x3ea17ec7	0.31542036
166	0x3e9065a4	0.28202546
167	0xbe246a40	-0.16056156
168	0x3e645b04	0.22300345
169	0xbf9e58b2	-1.2370818
170	0xbf0c3c84	-0.5477984
171	0x3d9124a8	0.0708707
172	0x3e7329b3	0.23746376
173	0x3e77ba60	0.2419219
174	0x3f16c985	0.58901244
175	0x3f08956b	0.53352994
176	0x3dece6cd	0.11567459
177	0xbfb71890	-1.4304371
178	0x3ef9aa9e	0.48762983
179	0x3dfc73bc	0.12326762
180	0x3e120339	0.14259042
181	0x3e6b5c12	0.22984341
182	0x3e80bec0	0.2514553
183	0x3e824a6e	0.2544741
184	0x3e023d5a	0.12718716
185	0xbecaae43	-0.39586076
186	0x3ea373e7	0.31924364
187	0x3e8c5275	0.2740666
188	0x3e317c73	0.1733263
189	0x3e194792	0.14968708
190	0x3e012ca6	0.12614688
191	0xbedafec7	-0.42772505
192	0x3dc8bc55	0.098015465
193	0x3d46cb31	0.048533622
194	0x3e1071d8	0.14105928
195	0x3ee67557	0.45011398
196	0x3d54cda0	0.05195391
197	0x3cfba00d	0.030715967
198	0xbe93c17b	-0.2885855
199	0xbebaf6b1	-0.36516336
200	0xbe7c898a	-0.24661842
201	0xbed7638a	-0.4206813
202	0xbe78eda3	-0.24309401
203	0x3dbf6c36	0.093468115
204	0x3e2ff04d	0.17181511
205	0x3d7e3d55	0.06207021
206	0xbea14e41	-0.31505015
207	0x3d23a63d	0.03995346
208	0xbdc4b219	-0.09604282
209	0xbe8803d7	-0.2656543
210	0x3df81b44	0.121145755
211	0x3e7b19de	0.24521586
212	0xbe0a6d5a	-0.13518277
213	0x3f1e7445	0.61896163
214	0x3f09c5df	0.5381755
215	0x3e958817	0.2920539
216	0x3ec6a4e6	0.38797683
217	0xbeeac5cf	-0.4585404
218	0xbe4b8d13	-0.19878034
219	0xbc32bfde	-0.0109100025
220	0x3e748bbe	0.23881432
221	0xbe13cf22	-0.14434484
222	0x3d93ade5	0.07210902
223	0x3de9a369	0.11408121
224	0xbd54c4ff	-0.051945683
225	0xbf67aae7	-0.9049515
226	0xbdf34858	-0.11879033
227	0xbef3fe4d	-0.47654954
228	0xbe66ced2	-0.22539833
229	0xbee0fb65	-0.439418
230	0xbb08835b	-0.0020830247
231	0xbe8803cb	-0.26565394
232	0x3e5a7469	0.2133347
233	0xbe23bb74	-0.15989476
234	0x3e38c979	0.18045606
235	0xbe10c0e7	-0.14136086
236	0xbdb58f5d	-0.08865235
237	0xbc7fc69c	-0.015611317
238	0x3eae1fc9	0.34008625
239	0x3ecf7ca4	0.4052478
240	0xbe4e4d36	-0.20146641
241	0xbf2e6f07	-0.68138164
242	0x3e385994	0.18002921
243	0x3e8a2c20	0.2698679
244	0x3d092241	0.033479933
245	0xbe07ea2e	-0.13272926
246	0x3df18d0d	0.117944814
247	0x3ecb5642	0.39714247
248	0xc006bc35	-2.1052372
249	0xbdea79ae	-0.1144899
250	0xbf69d3a6	-0.91338575
251	0x3eccf913	0.4003378
252	0xbe133777	-0.14376627
253	0xbe9ceedc	-0.30650985
254	0x3ee214cc	0.44156492
255	0x3e9c26af	0.30498263
