checkpoints/checkpoint_93.21.pth (torch, 63568 bytes, 3 tensors)

weight f4 [4, 1, 3, 3]
000000 f7 e2 0b bf 48 1b 21 3e 4b 60 66 3f b0 9a 11 bf
       -0.54643196 0.15733063 0.8999068 -0.5687666
000010 e0 c4 a7 3e 25 2a 1c 3f 3a d9 16 bf ef 57 05 bf
       0.3276739 0.6100181 -0.5892521 -0.520873
000020 4f 80 a6 3e 31 65 df bd 6a 36 47 be b0 ee a4 3d
       0.32519767 -0.109079726 -0.19454351 0.080533385
000030 6e 4d a7 be 5b 5d f0 bd 04 ff 9b be 67 1c 87 3d
       -0.32676262 -0.11736556 -0.30468 0.06597214
000040 16 aa 6a 3d 71 4b 11 be 5f 84 ae 3f 03 5a f3 3e
       0.057291113 -0.14188935 1.3634146 0.4752961
000050 51 95 9a 3d 76 b9 68 40 df 1c 46 40 c3 82 3e 40
       0.07548011 3.6363196 3.0955122 2.976731
000060 ae 00 13 40 44 91 15 40 35 b7 50 40 dc 97 c0 be
       2.2969165 2.3369913 3.261182 -0.3761586
000070 51 67 7f bf f7 ae 3e bf 02 85 09 bf 67 c4 de bd
       -0.99767023 -0.74485725 -0.5371858 -0.108773045
000080 9b 3b 22 3f 06 60 d7 3e 11 52 78 3f 62 4b 55 3f
       0.633722 0.42065448 0.97000223 0.8331815

weight f4 [8, 4, 3, 3]
000000 43 55 0c 40 4d 67 5e 40 49 de 65 3f 58 e5 e5 be
       2.192704 3.475055 0.89792305 -0.44901538
000010 d0 3f 34 40 d0 48 1c 40 84 e4 de be 55 30 10 3f
       2.8163948 2.4419441 -0.4353372 0.5632375
000020 d2 59 4d 40 12 ea b7 3d 79 6b 9f 3d a0 4e 81 3d
       3.2086072 0.08980192 0.07784171 0.06313825
000030 c0 09 1b bd 86 ec 06 bd 2b 57 f1 bc 4b 62 20 3d
       -0.037851095 -0.03294041 -0.02946051 0.03915624
000040 84 9d cb 3c ec 3e e3 3d 0e bc 27 3e 0e c4 66 3e
       0.024855383 0.11095986 0.16380331 0.22535726
000050 60 51 bd 3d af 35 05 be 9c 40 d9 be b6 99 d1 3b
       0.09244037 -0.1300876 -0.42432106 0.0063964976
000060 67 ae c9 3e fc f3 8b bd 0b da 63 be fd df 85 3f
       0.3939087 -0.06833646 -0.22251146 1.0458981
000070 5c 4e a6 3f 0e 26 d2 3e aa 9a 9c bf ca 9f 51 c0
       1.2992663 0.41044658 -1.22347 -3.2753778
000080 0f df 54 c0 72 75 e8 be b8 95 a2 bf 7b ea 85 c0
       -3.3261144 -0.45402104 -1.270194 -4.184873
000090 a5 3f e1 3e f1 2f a9 3f f3 78 e4 3e 8e 88 a3 be
       0.4399387 1.3217756 0.44623527 -0.3194012
0000a0 16 d1 99 3f a4 fd 8a 3f bc 33 c1 3f 7f 2c 43 3f
       1.2016933 1.0858655 1.5093913 0.7623977
0000b0 92 e5 e2 be 11 c6 61 bd 60 31 91 bd 00 87 a4 3c
       -0.44315773 -0.05512053 -0.07089496 0.020083904
0000c0 93 b9 4d 3d 02 75 ae bb 1c 1e d1 3d 38 8c 15 be
       0.050225805 -0.005324007 0.10210821 -0.1460427
0000d0 ee c5 36 be 97 3c 9e 3d 05 d9 83 3e af c9 94 be
       -0.17848942 0.077264 0.2575151 -0.29060122
0000e0 27 db 6b be 2f af 5c 3e 4a 27 ca be 1c c1 1e bf
       -0.23032819 0.21551202 -0.394831 -0.6201341
0000f0 f5 da 0c 3f 40 a1 d3 3e 1d 2c de bc b9 5f 6a 3f
       0.550216 0.4133396 -0.027120644 0.9155231
000100 1e 0d 44 3d 5d 84 a7 bc 37 eb 25 3f 43 27 5a bf
       0.047864072 -0.020448858 0.64812034 -0.8521616
000110 71 42 3a c0 3e 7c 2e 3f 6d 38 ae 3f 73 b9 df 3d
       -2.9103053 0.6815833 1.361097 0.109240435
000120 71 d2 c0 3e 1a c7 74 bf 5f 6f 65 3f 99 30 a9 3f
       0.37660554 -0.95616305 0.89623064 1.3217956
000130 f5 49 eb bd 37 28 0c be c1 43 19 40 20 63 20 3f
       -0.114887156 -0.13687216 2.3947604 0.6265125
000140 25 27 94 bc bc 0c 09 3e 56 87 b8 3c 03 45 a2 bc
       -0.018085072 0.13383764 0.02252547 -0.019808298
000150 45 2b 18 be eb 66 a1 3c 69 26 21 be 8f 8b cd 3d
       -0.14860256 0.019702395 -0.15737309 0.10036384
000160 de 57 27 3e 1d 98 eb 3d 47 f9 af be 37 ba 94 be
       0.16342112 0.11503623 -0.3436987 -0.2904832
000170 5c 62 84 3e c7 02 10 bf b5 0b 08 be 76 0c 6f 3e
       0.25856292 -0.5625424 -0.13285716 0.23344597
000180 07 2f 3e be ed 26 d3 3e dc b4 ee 3e fe 6f 4d 3f
       -0.18572627 0.41240636 0.4662236 0.8024901
000190 c4 90 c6 3f af 31 00 40 3f 1d e6 be 55 d8 91 3e
       1.5512929 2.0030324 -0.44944188 0.2848536
0001a0 28 71 3c bf 09 91 82 3f a1 e6 e5 3e 7c eb 74 bf
       -0.7361016 1.0200511 0.44902518 -0.9567182
0001b0 6a c8 4f 3f 60 a8 01 bf 36 03 f1 3e 9c 6f 33 bf
       0.8116518 -0.50647545 0.47072762 -0.7009218
0001c0 d1 56 e7 bf 8a 09 ff bf e9 c5 72 3f da 1d bc 3e
       -1.8073369 -1.9924786 0.94833237 0.36741525
0001d0 b5 f6 37 bf 0b d7 ac 3d 75 a1 03 be a3 32 db bd
       -0.7186082 0.08439454 -0.1285456 -0.107030176
0001e0 8e 56 c7 3c e7 cc 0d be 95 b7 e6 bd d9 48 c6 3d
       0.024333265 -0.13847695 -0.11265484 0.09681863
0001f0 eb ee 0b be 5b 1d a5 ba 34 0c d7 bd a6 92 95 bd
       -0.13665359 -0.001259725 -0.105003744 -0.073033616
000200 e2 e9 37 be 92 44 6f be cd e6 a5 be 4c cf 4b be
       -0.17960313 -0.23366001 -0.3240265 -0.19903296
000210 e6 2a c5 3e 31 7e 82 3e af d0 7c 3e 39 9f bb bc
       0.3850929 0.254869 0.24688981 -0.022903072
000220 02 93 4e 3f ee cd ca 3f 7d 76 d8 3f e8 34 18 40
       0.80693066 1.5844095 1.691116 2.3782291
000230 d7 e8 06 40 3b 13 6d 40 fd fa 3f 40 04 7e 12 3f
       2.1079614 3.7042987 2.999694 0.57223535
000240 75 53 c3 3f cb 70 82 bb da 4d b3 be 15 61 03 40
       1.5259844 -0.003980731 -0.35020334 2.0528004
000250 bd 32 6b 3f 61 ed 42 3f 76 72 81 bf 48 4d 3f bf
       0.91874295 0.7614346 -1.0113056 -0.74727297
000260 d3 7e 8b 3f 20 8f 3b bd 71 b8 8d 3d 57 27 90 bd
       1.0898079 -0.04579079 0.06919945 -0.070387535
000270 54 d8 be 3d 8e d7 86 bd cb 24 10 be c0 e5 23 be
       0.09318605 -0.065840825 -0.14076535 -0.16005611
000280 1e 18 c1 3c eb 1b 97 3d ea a9 98 3e 6d db b9 3e
       0.02357107 0.07378372 0.29817134 0.3630022
000290 72 72 18 3e 9d 41 d4 be cc 0e 15 be 5d 9f 60 be
       0.14887407 -0.4145631 -0.14556426 -0.21935792
0002a0 82 31 73 3d f2 60 81 be 1c a6 49 be 6e d0 21 40
       0.059373386 -0.25269276 -0.19692272 2.5283465
0002b0 b4 8a 27 40 00 97 12 40 3d 38 49 3f 2f dd 01 3f
       2.6178408 2.2904663 0.7860144 0.50728124
0002c0 41 1a 12 40 e6 7e 02 40 ad 00 51 40 a0 ee 2a 40
       2.2828524 2.0389953 3.2656662 2.6708145
0002d0 fa 85 99 be 15 ed 24 c0 a9 87 6a c0 7b 11 8c bf
       -0.29985029 -2.5769703 -3.66453 -1.0942835
0002e0 87 c8 db bf 2b 68 a2 bf 61 84 e2 bf 8b b1 30 c0
       -1.7170571 -1.268804 -1.7696649 -2.7608364
0002f0 90 66 f6 bf 21 ed ad bd 97 2c fe bb e0 98 f2 bd
       -1.925005 -0.084924944 -0.0077567804 -0.11845565
000300 28 c8 cb bd 2e f8 bb 3d 24 a0 29 3e ac d5 ad bc
       -0.09950286 0.09178196 0.16564995 -0.02122005
000310 bb 3d 01 3c 21 73 46 bd 9a 32 49 3e 65 05 30 3f
       0.007888253 -0.04844964 0.19648209 0.6875823
000320 c4 d7 f1 3e 9e 35 fa be 4e 1c 86 bd ed 22 8c 3e
       0.4723493 -0.48869032 -0.065483674 0.27370396
000330 f5 86 cc be 87 42 67 be ce 52 9d be 6a 2f 07 40
       -0.39946714 -0.22583972 -0.30727237 2.112269
000340 8a a9 59 40 5b dc 76 40 8a 99 12 c0 cd b5 01 c0
       3.4009728 3.8571994 -2.2906213 -2.0267212
000350 76 83 fc be cd 3c 1b bf c4 9f 67 be da 76 ad 3d
       -0.49319047 -0.6063965 -0.2261954 0.08469935
000360 a9 35 ee 3d 51 72 10 bd 00 f8 55 bd c7 b0 0c be
       0.116313286 -0.03526527 -0.052238464 -0.1373931
000370 7a 85 0d be 4b c0 73 3d 05 13 6e 3d 33 f0 af 3d
       -0.13820449 0.059509557 0.058123607 0.08590736
000380 c8 5b 87 bd fe 77 96 bd 00 30 3d bc d3 ca 8f bd
       -0.06609303 -0.073471054 -0.011547089 -0.070211075
000390 8b db 5c bd da f6 0a be 53 21 f7 bd bb d0 38 3d
       -0.05392031 -0.13570729 -0.12066903 0.045120936
0003a0 8d 21 b5 bd d6 c0 a8 3d 96 a4 fa bd 83 51 26 be
       -0.0884429 0.082399055 -0.122384235 -0.16242032
0003b0 c0 3c fa bd b8 f8 d1 bc 51 b0 e5 bd 87 f5 29 be
       -0.122186184 -0.025631294 -0.1121527 -0.16597567
0003c0 10 fb d5 3c 36 93 cb bd 60 e0 1c be d6 ce 91 3c
       0.026120692 -0.09940188 -0.15319967 0.017798822
0003d0 0b e3 bf 3c 8b 54 fe bc e0 4f d4 bc 88 b5 f4 3a
       0.023423692 -0.031046173 -0.025916994 0.0018669823
0003e0 a0 01 6a bd a1 c7 13 3e 7a fa bb 3d 70 b6 a8 3d
       -0.057130456 0.14431621 0.09178634 0.08237922
0003f0 70 21 9e bf 4b 53 78 c0 d9 ac 02 c0 ae 89 44 bf
       -1.2353954 -3.8800838 -2.0417998 -0.7677258

weight f4 [29, 512]
000000 d0 38 86 c0 ca 23 1c 40 3e 41 1a be 0a 97 92 3e
       -4.194435 2.4396844 -0.1506395 0.2863086
000010 15 1e b2 3e 08 cf a9 3e e2 b4 21 3f 83 a1 02 bf
       0.34788576 0.33165765 0.6316663 -0.510277
000020 a2 a0 2a 3e 21 fa af bf eb 67 1e bf 03 5f c5 be
       0.16662839 -1.3748208 -0.61877316 -0.3854905
000030 f4 7b 06 3d 86 c1 d7 be 7a 06 0a bf bb 9c 67 bf
       0.032833055 -0.42139834 -0.5391613 -0.90473527
000040 cf 92 de 3e 4e e4 ef be 98 65 b9 be 8a 31 f1 bb
       0.4347138 -0.4685387 -0.36210322 -0.007360642
000050 ab 18 c5 be 1b 78 93 3e fb d8 14 be 98 9b e4 be
       -0.38495383 0.2880257 -0.14535896 -0.4464996
000060 c8 76 95 3e 28 b7 96 3d 1b 7a d3 bd 31 59 d2 bd
       0.29192185 0.07359153 -0.10326024 -0.10270918
000070 01 7f be be e2 08 32 bf 36 f6 66 bf 96 8f d4 bd
       -0.3720627 -0.69544804 -0.9021944 -0.10378949
000080 05 68 5d bd 5e a5 6c bf 89 08 23 bf 30 cf 03 bf
       -0.05405428 -0.9243983 -0.636849 -0.5148802
000090 5a 66 b2 be 43 7e 23 bf 82 87 e2 be 7c 09 2e 3e
       -0.34843713 -0.63864535 -0.4424401 0.16995806
0000a0 3a 0b 40 bd f5 4b 0a 3c d1 71 ad bd 2f 45 2d 3e
       -0.046885706 0.008440961 -0.084689744 0.16920923
0000b0 c3 2f ff 3d 87 a6 61 3d 86 46 cb bd 28 66 a2 3e
       0.12460282 0.055090453 -0.09925561 0.31718564
0000c0 64 bc 4e 3f 43 de f2 3d b9 e3 a9 3e ec b5 10 3e
       0.8075621 0.11858799 0.3318155 0.14131898
0000d0 a6 d3 78 3e a7 7e a3 bd 54 e1 cd 3d c3 31 a3 bd
       0.24299487 -0.079831414 0.100527436 -0.07968476
0000e0 72 57 ad 3d 31 40 a6 3d a8 47 75 3d 14 ac 81 be
       0.084639445 0.08117712 0.05988279 -0.25326598
0000f0 cd 06 a8 bd 40 1a f9 bc 07 dc a7 bd b7 02 5f be
       -0.08204422 -0.030408025 -0.08196264 -0.2177838
000100 19 83 99 be 20 dc ae 3e 96 0d f1 3e a7 9e 6c 3e
       -0.29982832 0.34152317 0.47080678 0.23107396
000110 ff 84 3b 3f 9b aa b6 3e fc 1d 19 3f e7 a7 13 be
       0.7324981 0.35677037 0.5981138 -0.14419518
000120 ab b1 c6 be ac 83 cc 3d c3 14 95 bc 34 11 ba be
       -0.38807425 0.09986052 -0.018198377 -0.3634125
000130 25 54 47 bd 21 09 53 be 26 82 89 bf 9d 4d 67 be
       -0.04866423 -0.20608951 -1.0742843 -0.22588201
000140 98 15 63 3d a1 a7 da 3e 0f c1 d1 be 03 c8 2f bf
       0.055440515 0.42706016 -0.40967605 -0.6866457
000150 88 d6 70 bf 3f 95 83 be 71 33 13 c0 e0 76 3f be
       -0.9407735 -0.25699803 -2.3000147 -0.18697691
000160 29 d7 02 3f 91 a3 89 be b9 7b a6 be d7 90 5a bd
       0.5110956 -0.26882604 -0.32516268 -0.053360786
000170 c0 8b f0 be 3d 3a d0 3b ee 49 54 bf 96 81 89 be
       -0.4698162 0.006354599 -0.8292531 -0.2685668
000180 15 a8 5b 3d d5 ad 69 3d a3 71 bc 3c 98 b0 80 bd
       0.053627092 0.057050545 0.023003405 -0.062836826
000190 82 e1 04 be ec 5f e8 be 71 09 e0 3d 00 24 04 be
       -0.1297665 -0.45385683 0.10939301 -0.12904358
0001a0 2b 79 01 3f 60 1b 68 3e f3 5e 2d bd 16 34 c9 bc
       0.5057551 0.22666693 -0.04232688 -0.02456097
0001b0 f7 95 14 be bc 88 04 3b bb 40 6c 3e cd a3 2a bd
       -0.14510332 0.0020223102 0.23071568 -0.04166012
0001c0 ef 6a ea 3e 29 e5 88 bd 93 4e 18 be 18 3b d0 bd
       0.4578471 -0.06684334 -0.14873724 -0.10167521
0001d0 f9 3e 88 3d 52 25 c9 3e f4 9c e3 be ef d7 0b be
       0.06652636 0.39286286 -0.44455683 -0.13656591
0001e0 a6 f4 c2 be 17 53 33 be 3e 94 c8 3e a9 3c 1a 3e
       -0.38077277 -0.17512165 0.391756 0.15062203
0001f0 c6 40 3c 3e e3 03 f2 3d 4b fa f2 be db 87 33 3c
       0.18384084 0.118171476 -0.47456583 0.010957683
000200 d7 89 9b 3e c2 1d 4a bf 98 c1 b8 be 8c 3a 0d bf
       0.303786 -0.78951657 -0.360852 -0.5516746
000210 dc 1d ab be a1 11 3b be 9e 99 4b bd 92 70 86 be
       -0.33421218 -0.18268444 -0.049707048 -0.2625776
000220 2f 82 1e 3e 32 da 14 bf e3 dc e8 be 3e a8 65 be
       0.15479349 -0.5814544 -0.45481023 -0.2242746
000230 30 3f e7 3d 05 9c ef 3d e7 63 7d 3e 96 09 86 be
       0.11291349 0.1169968 0.24745141 -0.26179188
000240 5a 89 31 3e 35 f9 b4 bf 8b c6 a1 be 3b b2 a7 3e
       0.17337552 -1.4138552 -0.3159679 0.32753167
000250 06 3a 0a 3f 0b 7d 08 3f 4d fa ca 3e e8 b5 0b 3f
       0.53994787 0.533158 0.3964409 0.5457444
000260 37 2f 54 3e b2 36 c6 bf b9 e7 e7 3e 08 04 8d 3e
       0.20721136 -1.5485442 0.45293978 0.27542138
000270 97 a7 99 bd ef cb c9 3e fd d0 67 3e 07 8c 8d bd
       -0.07502668 0.394134 0.22638316 -0.06911474
000280 de 11 2c 3d 29 db 81 bf 41 b1 6b be d6 82 00 3e
       0.042009227 -1.0145007 -0.23016836 0.1254991
000290 8e e6 2f 3d d2 bb a6 3e 76 ad 91 3e 52 32 22 be
       0.042944483 0.3256517 0.28452653 -0.15839508
0002a0 44 bc 68 3e 5e d0 a3 bf 7d 56 0f bf f4 9a 91 3d
       0.22728068 -1.2797964 -0.55991346 0.07109633
0002b0 cb 47 78 3e ac fc 6e 3e 31 8d 17 3f 77 cc 0d 3f
       0.24246137 0.23338574 0.59199816 0.55390114
0002c0 b4 cb e9 3d 96 44 bb bf 17 97 03 3f b7 8e ef 3d
       0.114158064 -1.4630306 0.5140242 0.116971426
0002d0 b8 8d 20 3e 57 6d 5d 3e 43 f2 80 3e ec 96 8c 3e
       0.15679061 0.21623741 0.2518483 0.27458894
0002e0 e8 16 ff 3d 77 6a b5 be de 8b aa 3e 5d 8f 92 3e
       0.12455541 -0.3543279 0.33309835 0.28625003
0002f0 ca 28 3a 3e cb 08 0c 3e 5d 68 00 3e 76 d7 e3 be
       0.18179622 0.13675229 0.12539811 -0.4450032
000300 9f d5 b8 3d 88 98 2d 3d e6 b6 0d 3e c4 c1 ed 3e
       0.0902512 0.042381793 0.13839301 0.46436894
000310 22 d2 4e 3d c0 71 81 3c d9 a6 9b be 5b ac c1 be
       0.050493367 0.01580131 -0.30400732 -0.3782681
000320 e6 0e 80 be d2 e7 db be ef 35 86 be c9 70 9c 3d
       -0.25011367 -0.42950302 -0.26213023 0.076386996
000330 be ea 25 3e 07 c0 87 3d 43 64 a0 be ba a9 13 3d
       0.16202828 0.06628423 -0.31326494 0.036050536
000340 77 c7 cf bd 3c cb 7a be 5c d3 05 3e 7d d5 5f 3e
       -0.10145467 -0.2449159 0.13068908 0.21858783
000350 8a fa 0e be d7 29 1d 3f f8 3b 05 3f 98 e9 9a 3e
       -0.1396276 0.6139197 0.5204463 0.30256343
000360 d2 0f bc 3e 59 a4 f3 be 4e 28 47 be 8b d8 65 bc
       0.3673082 -0.47586325 -0.19448969 -0.014028679
000370 ed 92 74 3e a6 d3 12 be 8e da 8f 3d ba 7f f5 3d
       0.23884173 -0.1433855 0.07024108 0.119872525
000380 7f 19 4c bd 7e b8 6f bf 46 aa 1b be e0 85 fe be
       -0.049829002 -0.9364089 -0.15201673 -0.49711514
000390 91 79 84 be 7b 3c e8 be 72 09 2a bc 59 92 7c be
       -0.25873998 -0.45358643 -0.0103782285 -0.24665202
0003a0 82 93 55 3e 27 48 4c be 6c 89 34 3e 11 cd 1f be
       0.20857051 -0.19949399 0.17630547 -0.1560557
0003b0 13 f9 ad bd 1f 84 de 3a 86 1c b2 3e 6c c4 de 3e
       -0.08494773 0.0016976631 0.34787387 0.43509233
0003c0 44 02 5b be d8 5c 37 bf 09 02 39 3e 7e 70 90 3e
       -0.21387583 -0.71626043 0.18067183 0.28210825
0003d0 65 51 3d 3d 13 48 18 be 45 b3 14 3e 34 42 d9 3e
       0.046220202 -0.14871244 0.14521511 0.4243332
0003e0 79 1c 0d c0 12 fe ec bd 51 ea 77 bf 54 b8 dc 3e
       -2.2048628 -0.115718976 -0.96841913 0.4310938
0003f0 52 90 e4 bd 07 3c a3 be c9 54 e0 3e d1 cc a5 3e
       -0.111603394 -0.31881735 0.43814686 0.32382825
