checkpoints/checkpoint_93.80.pth (torch, 63568 bytes, 3 tensors)

weight f4 [4, 1, 3, 3]
0	0xbf0b1a79	-0.5433727
1	0x3e14fcdc	0.14549583
2	0x3f62027d	0.88285047
3	0xbf09cf45	-0.53831893
4	0x3eaa03d0	0.33206034
5	0x3f16c922	0.58900654
6	0xbf113b37	-0.5673098
7	0xbf02bf5a	-0.5107323
8	0x3e9f0cae	0.3106436
9	0xbddf6531	-0.109079726
10	0xbe47366a	-0.19454351
11	0x3da4eeb0	0.080533385
12	0xbea74d6e	-0.32676262
13	0xbdf05d5b	-0.11736556
14	0xbe9bff04	-0.30468
15	0x3d871c67	0.06597214
16	0x3d6aaa16	0.057291113
17	0xbe114b71	-0.14188935
18	0x3fafca01	1.3733522
19	0x3ef02af0	0.4690776
20	0x3d8dd106	0.06924634
21	0x4068a2fc	3.6349478
22	0x4045133e	3.0792994
23	0x403f6c96	2.9910026
24	0x40152dbd	2.3309166
25	0x4014ecda	2.3269563
26	0x404d6dac	3.2098188
27	0xbebb8e86	-0.36632174
28	0xbf74911a	-0.9553391
29	0xbf375e48	-0.71628237
30	0xbf05b5fe	-0.52230823
31	0xbdec56bc	-0.11539981
32	0x3f1bfe6f	0.6093511
33	0x3ed27fa4	0.41113007
34	0x3f6eab44	0.9323008
35	0x3f4e8dc1	0.8068505

weight f4 [8, 4, 3, 3]
0	0x40059f40	2.0878448
1	0x405ac8ed	3.4185135
2	0x3f5fba39	0.8739353
3	0xbedc05cc	-0.42973173
4	0x4032fb9f	2.7966077
5	0x4019570a	2.3959374
6	0xbed0b90d	-0.40766183
7	0x3f1b8819	0.60754544
8	0x4048560a	3.1302514
9	0x3db7ea12	0.08980192
10	0x3d9f6b79	0.07784171
11	0x3d814ea0	0.06313825
12	0xbd1b09c0	-0.037851095
13	0xbd06ec86	-0.03294041
14	0xbcf1572b	-0.02946051
15	0x3d20624b	0.03915624
16	0x3ccb9d84	0.024855383
17	0x3de33eec	0.11095986
18	0x3e2bc105	0.1677285
19	0x3e6c0f58	0.23052728
20	0x3dbedb51	0.09319175
21	0xbdf26f34	-0.118376166
22	0xbecea272	-0.4035831
23	0x3c248718	0.0100419745
24	0x3ebee435	0.37283483
25	0xbdaa1210	-0.083042264
26	0xbe6b38cc	-0.22970885
27	0x3f82c108	1.0215158
28	0x3fa2e7be	1.2726972
29	0x3ed374ee	0.41300148
30	0xbf95546c	-1.1666389
31	0xc048882c	-3.1333113
32	0xc04a1a97	-3.157873
33	0xbefdefb8	-0.49596953
34	0xbf9bca0b	-1.2171034
35	0xc07bb802	-3.933106
36	0x3ec8ac1a	0.39193803
37	0x3f9d0ce4	1.2269559
38	0x3f0b1037	0.54321617
39	0xbe8def3e	-0.2772159
40	0x3f83ab31	1.0286618
41	0x3f90f967	1.1326112
42	0x3fbb5e5a	1.4638169
43	0x3f2ff45d	0.68732244
44	0xbefa3b5e	-0.4887342
45	0xbd61c611	-0.05512053
46	0xbd913160	-0.07089496
47	0x3ca48700	0.020083904
48	0x3d4db993	0.050225805
49	0xbbae7502	-0.005324007
50	0x3dd11e1c	0.10210821
51	0xbe158c38	-0.1460427
52	0xbe36c5ee	-0.17848942
53	0x3d9e3c97	0.077264
54	0x3e824fb3	0.2545143
55	0xbe88d4ec	-0.26724946
56	0xbe6ad2fe	-0.2293205
57	0x3e57ef3c	0.21087354
58	0xbebd2623	-0.36943159
59	0xbf1a01c8	-0.6015897
60	0x3f06a5da	0.5259682
61	0x3ecca42e	0.3996901
62	0xbd12da08	-0.035852462
63	0x3f6c1c90	0.9223108
64	0x3d94975d	0.07255433
65	0xbd5fde22	-0.0546552
66	0x3f16996d	0.5882786
67	0xbf450a27	-0.76968616
68	0xc03129d0	-2.768177
69	0x3f301ae3	0.68791026
70	0x3fa8a990	1.3176746
71	0x3e00b5e3	0.12569384
72	0x3eb12228	0.34596372
73	0xbf5cee0b	-0.86300725
74	0x3f6b5fda	0.9194313
75	0x3fa0baf5	1.2557055
76	0xbd989a5a	-0.07451315
77	0xbe0122a0	-0.12610865
78	0x4013edf3	2.3113983
79	0x3f2f2211	0.68411356
80	0xbcba9b28	-0.022779062
81	0x3e090cbc	0.13383764
82	0x3cb88756	0.02252547
83	0xbca24503	-0.019808298
84	0xbe182b45	-0.14860256
85	0x3ca166eb	0.019702395
86	0xbe212669	-0.15737309
87	0x3dcd8b8f	0.10036384
88	0x3e2757de	0.16342112
89	0x3deb981d	0.11503623
90	0xbeae511e	-0.34046263
91	0xbe8ca38f	-0.27468535
92	0x3e830961	0.25593093
93	0xbf0c6685	-0.5484393
94	0xbe014e02	-0.12627414
95	0x3e6374c1	0.22212507
96	0xbe49a60a	-0.19692245
97	0x3ecfae9a	0.40562898
98	0x3ee7adb2	0.45249707
99	0x3f56bf72	0.8388587
100	0x3fca1d5d	1.5790211
101	0x3ffd8d8d	1.9808823
102	0xbedcfaa4	-0.43159974
103	0x3ea33d0c	0.31882513
104	0xbf2f4cec	-0.6847675
105	0x3f79e1a7	0.97609943
106	0x3ef89fd4	0.4855944
107	0xbf5d8e0c	-0.8654487
108	0x3f3eaec1	0.74485403
109	0xbef51847	-0.47870085
110	0x3ef84ef5	0.4849774
111	0xbf301a28	-0.6878991
112	0xbfdba7ac	-1.7160544
113	0xbfeb812a	-1.8398793
114	0x3f7a1b3e	0.9769782
115	0x3ece6da4	0.40318024
116	0xbf3d4c89	-0.7394491
117	0x3dacd70b	0.08439454
118	0xbe03a175	-0.1285456
119	0xbddb32a3	-0.107030176
120	0x3cc7568e	0.024333265
121	0xbe0dcce7	-0.13847695
122	0xbde6b795	-0.11265484
123	0x3dc648d9	0.09681863
124	0xbe0beeeb	-0.13665359
125	0xbaa51d5b	-0.001259725
126	0xbddaacaf	-0.10677468
127	0xbd92daeb	-0.071706615
128	0xbe37a853	-0.17935304
129	0xbe6494d1	-0.22322394
130	0xbea3d482	-0.31998068
131	0xbe4901db	-0.19629614
132	0x3ec1fbb7	0.37887356
133	0x3e8025f1	0.25028947
134	0x3e820d0e	0.25400585
135	0x3bb99147	0.0056630704
136	0x3f50a1dd	0.81496984
137	0x3fc4dac6	1.5379264
138	0x3fd76916	1.6828945
139	0x40172447	2.3615892
140	0x4003d268	2.0597172
141	0x40650760	3.5785751
142	0x403abd35	2.9177983
143	0x3f202854	0.62561536
144	0x3fc411e9	1.5317966
145	0xbd8a3cab	-0.06749853
146	0xbea020ec	-0.31275117
147	0x4000bae0	2.011406
148	0x3f6cf2a4	0.9255774
149	0x3f444b8a	0.76677763
150	0xbf78f1d3	-0.97243994
151	0xbf3134c6	-0.6922115
152	0x3f887a17	1.0662259
153	0xbd3b8f20	-0.04579079
154	0x3d8db871	0.06919945
155	0xbd902757	-0.070387535
156	0x3dbed854	0.09318605
157	0xbd86d78e	-0.065840825
158	0xbe1024cb	-0.14076535
159	0xbe23e5c0	-0.16005611
160	0x3cc1181e	0.02357107
161	0x3d971beb	0.07378372
162	0x3e94c3fb	0.2905577
163	0x3ead6f77	0.33874103
164	0x3e0e9411	0.1392367
165	0xbecb574a	-0.39715034
166	0xbe065187	-0.13117038
167	0xbe536461	-0.2064376
168	0x3d77a4d9	0.060459945
169	0xbe7dbe06	-0.2477952
170	0xbe3b6fd6	-0.18304381
171	0x402188f7	2.5239847
172	0x4021fa7b	2.530913
173	0x400f72c3	2.2413795
174	0x3f448f56	0.76781213
175	0x3f024713	0.508897
176	0x40100e14	2.2508593
177	0x40032dbf	2.0496671
178	0x404ade17	3.1698053
179	0x402951d4	2.6456194
180	0xbeacca6e	-0.33748192
181	0xc01fa6ef	-2.4945638
182	0xc0636bd7	-3.553457
183	0xbf864867	-1.0490845
184	0xbfd2810c	-1.6445632
185	0xbf9f1d54	-1.2430825
186	0xbfe09b03	-1.7547306
187	0xc02b8260	-2.6798325
188	0xbfefb6cf	-1.8727664
189	0xbdaded21	-0.084924944
190	0xbbfe2c97	-0.0077567804
191	0xbdf298e0	-0.11845565
192	0xbdcbc828	-0.09950286
193	0x3dbbf82e	0.09178196
194	0x3e29a024	0.16564995
195	0xbcadd5ac	-0.02122005
196	0x3c013dbb	0.007888253
197	0xbd467321	-0.04844964
198	0x3e485cbe	0.19566628
199	0x3f279130	0.65455914
200	0x3eee7b92	0.46578652
201	0xbeef08a3	-0.46686277
202	0xbd96cf12	-0.07363714
203	0x3e8d9131	0.27649835
204	0xbec568ef	-0.3855662
205	0xbe670819	-0.22561683
206	0xbe97a376	-0.29616898
207	0x400725fb	2.1116931
208	0x405374ec	3.3040113
209	0x406fb3f3	3.7453582
210	0xc0088de8	-2.1336613
211	0xbffe167e	-1.9850614
212	0xbefd4ee9	-0.49474266
213	0xbf04dd17	-0.51899856
214	0xbe0c2fd0	-0.13690114
215	0x3e1ab32a	0.15107408
216	0x3dee35a9	0.116313286
217	0xbd107251	-0.03526527
218	0xbd55f800	-0.052238464
219	0xbe0cb0c7	-0.1373931
220	0xbe0d857a	-0.13820449
221	0x3d73c04b	0.059509557
222	0x3d6e1305	0.058123607
223	0x3daff033	0.08590736
224	0xbd875bc8	-0.06609303
225	0xbd9677fe	-0.073471054
226	0xbc3d3000	-0.011547089
227	0xbd8fcad3	-0.070211075
228	0xbd5cdb8b	-0.05392031
229	0xbe0af6da	-0.13570729
230	0xbdf72153	-0.12066903
231	0x3d38d0bb	0.045120936
232	0xbdb5218d	-0.0884429
233	0x3da8c0d6	0.082399055
234	0xbdfaa496	-0.122384235
235	0xbe265183	-0.16242032
236	0xbdfa3cc0	-0.122186184
237	0xbcd1f8b8	-0.025631294
238	0xbde5b051	-0.1121527
239	0xbe29f587	-0.16597567
240	0x3cd5fb10	0.026120692
241	0xbdcb9336	-0.09940188
242	0xbe1ce060	-0.15319967
243	0x3c91ced6	0.017798822
244	0x3cbfe30b	0.023423692
245	0xbcfe548b	-0.031046173
246	0xbcd44fe0	-0.025916994
247	0x3af4b588	0.0018669823
248	0xbd6a01a0	-0.057130456
249	0x3e13c7a1	0.14431621
250	0x3dbbfa7a	0.09178634
251	0x3da8b670	0.08237922
252	0xbf97f8df	-1.1872824
253	0xc06f6b85	-3.7409375
254	0xc001e8f4	-2.0298433
255	0xbf5186cb	-0.818463

weight f4 [29, 512]
0	0xc07f1efa	-3.9862657
1	0x40117eb4	2.2733583
2	0xbe29e73d	-0.16592117
3	0x3e84f6d1	0.25969556
4	0x3ea4ff32	0.3222595
5	0x3eaff2ef	0.3436503
6	0x3f193f30	0.5986204
7	0xbeeac227	-0.4585125
8	0x3e1e211b	0.15442316
9	0xbf9f48b6	-1.2444065
10	0xbf1a53e1	-0.6028424
11	0xbebc9231	-0.36830285
12	0x3d126a2b	0.03574578
13	0xbec8de16	-0.39231938
14	0xbefffd1d	-0.49997798
15	0xbf539155	-0.82643634
16	0x3edd250e	0.43192333
17	0xbedfb874	-0.43695414
18	0xbeb34838	-0.35016036
19	0xbbfc845c	-0.007706208
20	0xbeba19e9	-0.36347893
21	0x3e81aedb	0.25328717
22	0xbe06cf66	-0.13165054
23	0xbed6d25a	-0.4195736
24	0x3e8ffca6	0.28122443
25	0x3d80475d	0.062636115
26	0xbddd291c	-0.107988566
27	0xbdbd77fe	-0.09251402
28	0xbebc70a6	-0.36804694
29	0xbf2ae654	-0.667577
30	0xbf631e9c	-0.8871858
31	0xbd76e8c6	-0.060280584
32	0xbced5a85	-0.028973827
33	0xbf589337	-0.8459963
34	0xbf21559b	-0.6302125
35	0xbf00df75	-0.5034097
36	0xbea3cf01	-0.3199387
37	0xbf1ccf23	-0.61253566
38	0xbee424fb	-0.44559464
39	0x3dfcf607	0.123516135
40	0xbd3a80ff	-0.045533177
41	0xbd4a998b	-0.049462836
42	0xbdcebc06	-0.100944564
43	0x3e188a7f	0.14896582
44	0x3dce8751	0.10084403
45	0x3cffcf20	0.031226695
46	0xbe053799	-0.1300949
47	0x3e9d191c	0.3068322
48	0x3f3f269a	0.74668276
49	0x3de82c96	0.11336629
50	0x3e9d1df1	0.30686906
51	0x3df2d84d	0.11857662
52	0x3e6e2161	0.2325492
53	0xbd904fb4	-0.07046452
54	0x3dab48ee	0.083635196
55	0xbdb1422b	-0.08655199
56	0x3da496f3	0.08036604
57	0x3d9de741	0.07710124
58	0x3d43fd15	0.04784878
59	0xbe76d637	-0.24105154
60	0xbdade538	-0.08490986
61	0xbcef0061	-0.029174985
62	0xbda72ffb	-0.081634484
63	0xbe3bcf69	-0.1834084
64	0xbe84549b	-0.258458
65	0x3ea7f1ee	0.32801765
66	0x3ee52b94	0.4475981
67	0x3e6d08df	0.23147915
68	0x3f2c5fe9	0.6733385
69	0x3e9d66df	0.30742547
70	0x3f084d29	0.5324274
71	0xbe0f2e73	-0.13982563
72	0xbecfaf73	-0.40563545
73	0x3e0545fb	0.13014977
74	0xbc965838	-0.018352613
75	0xbeb5a31b	-0.35476002
76	0xbd22aee0	-0.039717555
77	0xbe512e6f	-0.2042787
78	0xbf82c2bc	-1.0215678
79	0xbe59a632	-0.21254805
80	0x3d0e4324	0.034732
81	0x3ecc159f	0.39860246
82	0xbed272d2	-0.41103226
83	0xbf2b6308	-0.66947985
84	0xbf668b03	-0.90055865
85	0xbe5db54b	-0.21651189
86	0xc00c8d28	-2.1961155
87	0xbe346d3b	-0.17619793
88	0x3f017cb9	0.50580937
89	0xbe838eda	-0.25694925
90	0xbea95ba1	-0.3307772
91	0xbdc3ab23	-0.09554126
92	0xbee6a8d2	-0.45050675
93	0x3c921b57	0.017835302
94	0xbf54d989	-0.8314443
95	0xbe880763	-0.26568136
96	0x3d8a3ac9	0.06749494
97	0x3d8172ec	0.06320748
98	0x3c9ad4ce	0.018900301
99	0xbd8edea7	-0.06976061
100	0xbe1794dc	-0.14802879
101	0xbeeded01	-0.46469882
102	0x3db3e53c	0.08783957
103	0xbe0ee2e9	-0.13953747
104	0x3f023769	0.508658
105	0x3e73fa88	0.23826039
106	0xbb77b86a	-0.0037799128
107	0xbccd2611	-0.025042566
108	0xbde3c9a1	-0.11122442
109	0x3c91b006	0.01778413
110	0x3e48a204	0.19593054
111	0xbd30e444	-0.04318644
112	0x3ed2f28e	0.4120068
113	0xbd812fb9	-0.063079305
114	0xbe0d7c5c	-0.1381697
115	0xbdaf19ff	-0.0854988
116	0x3daf2221	0.085514314
117	0x3ecd042a	0.4004224
118	0xbeddaadd	-0.4329442
119	0xbe0a31fd	-0.13495632
120	0xbebcf61f	-0.36906525
121	0xbe21445a	-0.1574873
122	0x3ec5b375	0.38613477
123	0x3e1babb0	0.15202212
124	0x3e3cb544	0.18428522
125	0x3e05e7be	0.13076684
126	0xbeaf39e6	-0.3422386
127	0x3a3bd1fb	0.00071647734
128	0x3e933c7d	0.28757086
129	0xbf3de4bd	-0.7417715
130	0xbeb15637	-0.3463609
131	0xbf05fcd6	-0.5233892
132	0xbe922b46	-0.2854864
133	0xbe2a3a71	-0.16623856
134	0xbd8b2157	-0.067934684
135	0xbe841f98	-0.25805354
136	0x3e1acd49	0.15117373
137	0xbf13fdfa	-0.5780941
138	0xbeece489	-0.46268108
139	0xbe828e08	-0.25498986
140	0x3de977c1	0.11399794
141	0x3dd1f3fe	0.10251616
142	0x3e4fc3ce	0.20289537
143	0xbe7a6eda	-0.24456349
144	0x3e1e63bf	0.15467738
145	0xbfb653d9	-1.4244338
146	0xbe9b89ea	-0.30378658
147	0x3ea7aae1	0.32747558
148	0x3efacdcd	0.4898514
149	0x3eff2281	0.49831012
150	0x3ec059a5	0.37568393
151	0x3f09f88e	0.5389489
152	0x3e437e11	0.1909106
153	0xbfc2dec5	-1.5224234
154	0x3edb4500	0.4282608
155	0x3e82bf58	0.2553661
156	0xbdb0a09a	-0.08624382
157	0x3ec4085f	0.38287637
158	0x3e536f5b	0.20647947
159	0xbd9b9279	-0.07596297
160	0x3d19489a	0.037422754
161	0xbf6d3bb4	-0.92669225
162	0xbe5d7bad	-0.2162921
163	0x3debfbcd	0.115226366
164	0x3d386e55	0.045027096
165	0x3e9710a9	0.29504898
166	0x3e8d1fef	0.27563426
167	0xbe2918e9	-0.16513409
168	0x3e59d288	0.21271718
169	0xbf9a54a4	-1.205708
170	0xbf032d97	-0.5124144
171	0x3d7ffdad	0.062497783
172	0x3e684670	0.2268312
173	0x3e6d7f90	0.23193192
174	0x3f108c6c	0.56464267
175	0x3f0ae125	0.54249793
176	0x3de2e785	0.11079315
177	0xbfaf2a1b	-1.3684725
178	0x3efa9c43	0.48947343
179	0x3e020bb8	0.12699783
180	0x3e1744b3	0.147723
181	0x3e6d872a	0.23196092
182	0x3e70ace7	0.23503457
183	0x3e75ec81	0.24016
184	0x3dfab9b8	0.12242454
185	0xbec911cc	-0.3927139
186	0x3e99539d	0.29946604
187	0x3e90044c	0.28128278
188	0x3e3f9a21	0.1871114
189	0x3e10c188	0.14136326
190	0x3dce5ed5	0.100766815
191	0xbeddffd4	-0.43359244
192	0x3dc67f9e	0.0969231
193	0x3d3cf214	0.0461293
194	0x3e0c4c2e	0.13700935
195	0x3edc96f4	0.43083918
196	0x3d1aee5a	0.037824966
197	0x3c7c44ef	0.015397294
198	0xbe954ab9	-0.2915857
199	0xbebacd52	-0.36484772
200	0xbe800bff	-0.25009152
201	0xbed4c553	-0.41556796
202	0xbe6a2261	-0.22864677
203	0x3dd50781	0.10401822
204	0x3e337195	0.17523797
205	0x3d3e1d8f	0.046414908
206	0xbe9efc49	-0.31051853
207	0x3d0f348d	0.034962226
208	0xbdcb6894	-0.09932056
209	0xbe84d57c	-0.25944126
210	0x3dfd2f76	0.12362568
211	0x3e8a7bfe	0.27047724
212	0xbe0e07dc	-0.13870186
213	0x3f1c52c4	0.6106379
214	0x3f1079de	0.56435955
215	0x3e9443f9	0.2895811
216	0x3ec3a735	0.38213506
217	0xbef0d0b4	-0.47034228
218	0xbe5ab3f5	-0.2135771
219	0xbaee3e3b	-0.0018176505
220	0x3e86daeb	0.26338896
221	0xbdff1f67	-0.124571614
222	0x3dae7e93	0.08520236
223	0x3dcb8497	0.09937399
224	0xbd8719a2	-0.06596686
225	0xbf5f604a	-0.872563
226	0xbdee3b34	-0.11632386
227	0xbeef7e32	-0.46775967
228	0xbe4fc10d	-0.20288487
229	0xbedd84e9	-0.43265465
230	0xbc447c8b	-0.011992584
231	0xbe923334	-0.2855469
232	0x3e5aec3e	0.21379182
233	0xbe0e532d	-0.13898917
234	0x3e4417c0	0.19149685
235	0xbe0340b8	-0.12817657
236	0xbdbddbfe	-0.09270476
237	0xbc99c328	-0.018769816
238	0x3eabea2b	0.33577093
239	0x3ecdac73	0.4017063
240	0xbe52fc14	-0.20603973
241	0xbf2b880c	-0.67004466
242	0x3e66756d	0.22505732
243	0x3e861187	0.26185247
244	0x3d56d763	0.052451503
245	0xbdebcf03	-0.11514094
246	0x3df07f02	0.11742975
247	0x3ec60d16	0.3868186
248	0xc00304d6	-2.0471702
249	0xbe1351cd	-0.14386673
250	0xbf61e675	-0.88242275
251	0x3eda44cc	0.42630613
252	0xbe093489	-0.13398947
253	0xbead5733	-0.3385559
254	0x3edc90d4	0.43079245
255	0x3e940796	0.28912038
