checkpoints/checkpoint_96.57.pth (torch, 63568 bytes, 3 tensors)

weight f4 [4, 1, 3, 3]
0	0xbf0c89f5	-0.54898006
1	0x3e34c7bc	0.17654318
2	0x3f6c80b2	0.92383873
3	0xbf1c073e	-0.6094855
4	0x3ea61bcd	0.32443085
5	0x3f24a864	0.64319444
6	0xbf1eede1	-0.62081724
7	0xbf08bd9c	-0.5341432
8	0x3eb214ae	0.34781402
9	0xbddf6531	-0.109079726
10	0xbe47366a	-0.19454351
11	0x3da4eeb0	0.080533385
12	0xbea74d6e	-0.32676262
13	0xbdf05d5b	-0.11736556
14	0xbe9bff04	-0.30468
15	0x3d871c67	0.06597214
16	0x3d6aaa16	0.057291113
17	0xbe114b71	-0.14188935
18	0x3fb2950a	1.3951733
19	0x3f088e93	0.5334255
20	0x3e0f02b2	0.13965872
21	0x406d0131	3.7031977
22	0x404be12d	3.1856186
23	0x4041f670	3.0306664
24	0x40142f05	2.3153698
25	0x401a3cc3	2.4099586
26	0x40590c50	3.3913765
27	0xbec9f9b8	-0.39448333
28	0xbf8735b3	-1.0563263
29	0xbf49d9de	-0.78848064
30	0xbf0f0b90	-0.5587702
31	0xbdcd179b	-0.10014268
32	0x3f2b3949	0.66884285
33	0x3ee01244	0.43763936
34	0x3f82eb6f	1.0228099
35	0x3f5f175e	0.8714503

weight f4 [8, 4, 3, 3]
0	0x40124c46	2.2859054
1	0x4063b925	3.5581753
2	0x3f77d8d6	0.9681524
3	0xbef26742	-0.47344404
4	0x40369522	2.8528523
5	0x40226501	2.5374148
6	0xbf06c895	-0.52649814
7	0x3f04834f	0.5176286
8	0x40520979	3.2818282
9	0x3db7ea12	0.08980192
10	0x3d9f6b79	0.07784171
11	0x3d814ea0	0.06313825
12	0xbd1b09c0	-0.037851095
13	0xbd06ec86	-0.03294041
14	0xbcf1572b	-0.02946051
15	0x3d20624b	0.03915624
16	0x3ccb9d84	0.024855383
17	0x3de33eec	0.11095986
18	0x3e2af531	0.16695096
19	0x3e6d033b	0.23145764
20	0x3dd4b45e	0.10385965
21	0xbe0af95a	-0.13571683
22	0xbee0fb86	-0.43941897
23	0x3be05011	0.006845482
24	0x3ecfff0c	0.40624273
25	0xbd7457d6	-0.05965408
26	0xbe6409bb	-0.22269337
27	0x3f8d22ca	1.1026242
28	0x3fad39c0	1.3533249
29	0x3ed0da39	0.4079149
30	0xbfa76735	-1.3078371
31	0xc05c35bc	-3.4407797
32	0xc0623538	-3.5344982
33	0xbee681fe	-0.4502105
34	0xbfaa4286	-1.3301551
35	0xc08f30f1	-4.4747243
36	0x3f03c46d	0.51471597
37	0x3fb7a141	1.4346086
38	0x3eb5dbcb	0.3551925
39	0xbebe3017	-0.37146065
40	0x3fb1b8d3	1.3884529
41	0x3f8a15ac	1.0787864
42	0x3fc74529	1.5567981
43	0x3f5adb9a	0.85491335
44	0xbec6ac85	-0.38803497
45	0xbd61c611	-0.05512053
46	0xbd913160	-0.07089496
47	0x3ca48700	0.020083904
48	0x3d4db993	0.050225805
49	0xbbae7502	-0.005324007
50	0x3dd11e1c	0.10210821
51	0xbe158c38	-0.1460427
52	0xbe36c5ee	-0.17848942
53	0x3d9e3c97	0.077264
54	0x3e872615	0.26396242
55	0xbea23b32	-0.31685787
56	0xbe71eb9c	-0.23625034
57	0x3e6582aa	0.22413126
58	0xbed788d5	-0.42096582
59	0xbf24591e	-0.6419848
60	0x3f15f691	0.58579355
61	0x3edf8cd4	0.4366213
62	0xbc994e88	-0.018714204
63	0x3f73c656	0.9522451
64	0x3cae6c41	0.021291854
65	0x3cd3e7f8	0.025867447
66	0x3f3f7d14	0.7480023
67	0xbf77d852	-0.96814454
68	0xc045fa4a	-3.0934014
69	0x3f25764f	0.6463365
70	0x3fb38035	1.4023501
71	0x3d8b0356	0.06787746
72	0x3ed7a33b	0.42116722
73	0xbf821725	-1.0163313
74	0x3f604a3b	0.87613267
75	0x3fb528ef	1.4153117
76	0xbe05ea1b	-0.13077585
77	0xbe09d68e	-0.13460752
78	0x40205b12	2.5055585
79	0x3f109e72	0.5649177
80	0x3c3b90a4	0.011448059
81	0x3e090cbc	0.13383764
82	0x3cb88756	0.02252547
83	0xbca24503	-0.019808298
84	0xbe182b45	-0.14860256
85	0x3ca166eb	0.019702395
86	0xbe212669	-0.15737309
87	0x3dcd8b8f	0.10036384
88	0x3e2757de	0.16342112
89	0x3deb981d	0.11503623
90	0xbeb62503	-0.35575113
91	0xbe9e2d8a	-0.3089412
92	0x3e856037	0.2604997
93	0xbf152489	-0.58258873
94	0xbe0e8eb2	-0.13921621
95	0x3e7ed54f	0.24886058
96	0xbe33c345	-0.17554958
97	0x3ed74226	0.42042655
98	0x3ef7e98a	0.48420364
99	0x3f46654c	0.77498317
100	0x3fc5e94d	1.5461823
101	0x400248ba	2.0356889
102	0xbee53b24	-0.44771683
103	0x3e860129	0.2617276
104	0xbf4a34ea	-0.7898699
105	0x3f893bdf	1.0721396
106	0x3ec89b65	0.39181057
107	0xbf88e1fa	-1.0693963
108	0x3f6349d4	0.8878453
109	0xbf092123	-0.5356619
110	0x3f00f5e7	0.5037522
111	0xbf3bae98	-0.73313284
112	0xbff9b171	-1.9507276
113	0xc0092139	-2.1426528
114	0x3f688014	0.9082043
115	0x3ea4f68d	0.32219353
116	0xbf2903dd	-0.6602152
117	0x3dacd70b	0.08439454
118	0xbe03a175	-0.1285456
119	0xbddb32a3	-0.107030176
120	0x3cc7568e	0.024333265
121	0xbe0dcce7	-0.13847695
122	0xbde6b795	-0.11265484
123	0x3dc648d9	0.09681863
124	0xbe0beeeb	-0.13665359
125	0xbaa51d5b	-0.001259725
126	0xbde3462d	-0.11097369
127	0xbdacfaa4	-0.084462434
128	0xbe3e9ce3	-0.18614535
129	0xbe7c159c	-0.24617618
130	0xbea7eae9	-0.3279641
131	0xbe4bf04b	-0.19915883
132	0x3ecc3de8	0.3989098
133	0x3e87022a	0.2636884
134	0x3e80c531	0.25150445
135	0xbcee8e32	-0.029120538
136	0x3f4d4042	0.80176175
137	0x3fd57c50	1.6678562
138	0x3fdc00c4	1.7187734
139	0x401c2a5e	2.440086
140	0x400e3b7d	2.2223809
141	0x40776022	3.8652425
142	0x40477159	3.1162932
143	0x3f1218ff	0.5706939
144	0x3fc64f0c	1.5492873
145	0x3d7c650e	0.06161981
146	0xbebd2bde	-0.3694753
147	0x4007ff3b	2.124953
148	0x3f69b843	0.91296786
149	0x3f484c33	0.7824127
150	0xbf857e66	-1.0429199
151	0xbf4b13a0	-0.7932682
152	0x3f91a78a	1.1379254
153	0xbd3b8f20	-0.04579079
154	0x3d8db871	0.06919945
155	0xbd902757	-0.070387535
156	0x3dbed854	0.09318605
157	0xbd86d78e	-0.065840825
158	0xbe1024cb	-0.14076535
159	0xbe23e5c0	-0.16005611
160	0x3cc1181e	0.02357107
161	0x3d971beb	0.07378372
162	0x3e9f65a2	0.31132227
163	0x3ec9e69f	0.39433762
164	0x3e296d92	0.16545704
165	0xbedd0da4	-0.4317447
166	0xbe238569	-0.1596886
167	0xbe67bb44	-0.2263003
168	0x3d69c6ec	0.057074472
169	0xbe85a2b7	-0.26100704
170	0xbe5a94a4	-0.21345764
171	0x4022e63e	2.5453029
172	0x402e8eac	2.727458
173	0x40163e5e	2.3475566
174	0x3f561290	0.83622074
175	0x3f0aab1d	0.5416735
176	0x4014cc31	2.3249629
177	0x3ffff514	1.9996667
178	0x4057db6b	3.3727672
179	0x402d6a89	2.7096274
180	0xbe8343f0	-0.2563777
181	0xc02ae05f	-2.6699445
182	0xc06eadb4	-3.729352
183	0xbf8fed54	-1.1244302
184	0xbfe5ad0f	-1.7943438
185	0xbfa20b7f	-1.2659758
186	0xbfe87c2b	-1.8162893
187	0xc036b96d	-2.8550675
188	0xc0017ae0	-2.0231247
189	0xbdaded21	-0.084924944
190	0xbbfe2c97	-0.0077567804
191	0xbdf298e0	-0.11845565
192	0xbdcbc828	-0.09950286
193	0x3dbbf82e	0.09178196
194	0x3e29a024	0.16564995
195	0xbcadd5ac	-0.02122005
196	0x3c013dbb	0.007888253
197	0xbd467321	-0.04844964
198	0x3e4da8b7	0.20083891
199	0x3f3b6eaf	0.73215765
200	0x3efa4cae	0.48886627
201	0xbf037e35	-0.5136445
202	0xbd5c901a	-0.053848363
203	0x3e8d21ac	0.27564752
204	0xbed8eaed	-0.42366734
205	0xbe6814a8	-0.2266413
206	0xbea4b8e9	-0.32172325
207	0x40065e3a	2.0995011
208	0x4061d55d	3.5286477
209	0x407fce1e	3.9969554
210	0xc01d6dfc	-2.459838
211	0xc005534b	-2.0832088
212	0xbefb6a0e	-0.4910435
213	0xbf2f5da5	-0.68502265
214	0xbea4f90f	-0.32221267
215	0xbc857394	-0.016290464
216	0x3dee35a9	0.116313286
217	0xbd107251	-0.03526527
218	0xbd55f800	-0.052238464
219	0xbe0cb0c7	-0.1373931
220	0xbe0d857a	-0.13820449
221	0x3d73c04b	0.059509557
222	0x3d6e1305	0.058123607
223	0x3daff033	0.08590736
224	0xbd875bc8	-0.06609303
225	0xbd9677fe	-0.073471054
226	0xbc3d3000	-0.011547089
227	0xbd8fcad3	-0.070211075
228	0xbd5cdb8b	-0.05392031
229	0xbe0af6da	-0.13570729
230	0xbdf72153	-0.12066903
231	0x3d38d0bb	0.045120936
232	0xbdb5218d	-0.0884429
233	0x3da8c0d6	0.082399055
234	0xbdfaa496	-0.122384235
235	0xbe265183	-0.16242032
236	0xbdfa3cc0	-0.122186184
237	0xbcd1f8b8	-0.025631294
238	0xbde5b051	-0.1121527
239	0xbe29f587	-0.16597567
240	0x3cd5fb10	0.026120692
241	0xbdcb9336	-0.09940188
242	0xbe1ce060	-0.15319967
243	0x3c91ced6	0.017798822
244	0x3cbfe30b	0.023423692
245	0xbcfe548b	-0.031046173
246	0xbcd44fe0	-0.025916994
247	0x3af4b588	0.0018669823
248	0xbd6a01a0	-0.057130456
249	0x3e13c7a1	0.14431621
250	0x3dbbfa7a	0.09178634
251	0x3da8b670	0.08237922
252	0xbfa8c6af	-1.3185633
253	0xc084300c	-4.130865
254	0xc00596e2	-2.0873342
255	0xbf38f635	-0.7225068

weight f4 [29, 512]
0	0xc0945441	-4.635285
1	0x4028f5b3	2.6399963
2	0xbdee890a	-0.11647232
3	0x3eacbe94	0.3373915
4	0x3eca1229	0.3946698
5	0x3e95daac	0.29268396
6	0x3f2f6d5c	0.68526244
7	0xbf0fdbd2	-0.56194794
8	0x3e3c9d14	0.18419296
9	0xbfbf3c38	-1.4940252
10	0xbf27bacb	-0.655194
11	0xbedf2dbb	-0.43589577
12	0x3d163751	0.036673848
13	0xbedef21d	-0.43544093
14	0xbf091656	-0.53549707
15	0xbf7940e4	-0.9736464
16	0x3eef6513	0.467568
17	0xbf0178c6	-0.5057491
18	0xbec0313b	-0.3753756
19	0x3c43fe89	0.011962541
20	0xbec81d8e	-0.39085048
21	0x3e9ba7d9	0.30401495
22	0xbe42c7c1	-0.19021513
23	0xbee56eee	-0.44811195
24	0x3ea2f863	0.3183013
25	0x3db08679	0.086193986
26	0xbd70318f	-0.058641013
27	0xbdecb903	-0.11558726
28	0xbebe3693	-0.37151012
29	0xbf48f5eb	-0.7850024
30	0xbf735036	-0.9504427
31	0xbddfd4c6	-0.10929255
32	0xbd9435d3	-0.07236829
33	0xbf827eae	-1.019491
34	0xbf284928	-0.6573663
35	0xbf040a23	-0.5157797
36	0xbeb7c117	-0.35889503
37	0xbf28978b	-0.65856236
38	0xbeda6a3c	-0.42659175
39	0x3e5c9c4f	0.21544002
40	0xbd21f891	-0.039543692
41	0xbca682bd	-0.020326013
42	0xbda90732	-0.082533255
43	0x3e22d576	0.15901741
44	0x3e1dc8c8	0.15408623
45	0x3dc1aa00	0.09456253
46	0xbd610507	-0.054936435
47	0x3ea0ad03	0.31381997
48	0x3f5c5192	0.86061966
49	0x3df86ecf	0.1213051
50	0x3eb6cea1	0.3570452
51	0x3e3073df	0.17231701
52	0x3e7b9e1c	0.24572033
53	0xbdcf3219	-0.10116977
54	0x3e2bf704	0.16793448
55	0xbdbf3296	-0.093358204
56	0x3dc06639	0.093944974
57	0x3dc1ff5e	0.094725356
58	0x3d9bb0a7	0.07602053
59	0xbe82393c	-0.2543429
60	0xbda5b287	-0.08090692
61	0xbcbd8994	-0.023136891
62	0xbd8aebc2	-0.067832485
63	0xbe877b66	-0.26461333
64	0xbeb53a99	-0.3539627
65	0x3eb92e3c	0.36168087
66	0x3f00b637	0.5027804
67	0x3e6411b2	0.22272375
68	0x3f45779c	0.77135634
69	0x3ed35172	0.41273075
70	0x3f2c9f9d	0.6743105
71	0xbe1b550f	-0.15169166
72	0xbeb43c4c	-0.35202253
73	0x3c98e3f3	0.018663382
74	0xbce3e3b6	-0.027818542
75	0xbeb958a9	-0.36200455
76	0xbd5cfc0b	-0.053951304
77	0xbe71c2c9	-0.23609461
78	0xbf8fc6b6	-1.1232517
79	0xbe7cac2a	-0.2467505
80	0x3dfe9c9d	0.12432215
81	0x3ee475c8	0.4462111
82	0xbed77c96	-0.4208724
83	0xbf3c6e17	-0.73605484
84	0xbf6e47ca	-0.9307829
85	0xbe82ec56	-0.25570935
86	0xc01a395a	-2.4097505
87	0xbe4b6774	-0.19863683
88	0x3f10306f	0.56323904
89	0xbe8e6c1d	-0.2781686
90	0xbe9e42bb	-0.30910286
91	0xbd448189	-0.047975097
92	0xbeeec68e	-0.4663586
93	0x3cbb86ab	0.022891363
94	0xbf60114e	-0.87526405
95	0xbe899501	-0.26871493
96	0x3d2047eb	0.039131086
97	0x3dc0b560	0.094095945
98	0x3befe5bc	0.0073210876
99	0xbde33d82	-0.11095716
100	0xbdf531e5	-0.11972407
101	0xbee2a41a	-0.44265825
102	0x3d9ff310	0.07810032
103	0xbdec293f	-0.115313046
104	0x3f016655	0.5054677
105	0x3e5836a5	0.21114595
106	0xbda8f27f	-0.082493775
107	0xbce88022	-0.028381411
108	0xbe1b6aab	-0.1517741
109	0xbcc2ebd1	-0.023794087
110	0x3e857960	0.26069164
111	0xbd38b879	-0.0450978
112	0x3f08a29c	0.5337312
113	0xbde41302	-0.11136438
114	0xbe211233	-0.15729599
115	0xbde85634	-0.11344567
116	0x3d90c577	0.070689134
117	0x3ec64540	0.3872471
118	0xbecb7721	-0.39739326
119	0xbe1462c3	-0.144908
120	0xbeda298a	-0.42609817
121	0xbe55be21	-0.2087331
122	0x3ed1bc29	0.40963867
123	0x3e2f0a8d	0.17093869
124	0x3e30394a	0.17209354
125	0x3dca5a64	0.09880522
126	0xbf20db1a	-0.6283432
127	0x3c9b587d	0.018963093
128	0x3ea8e41b	0.3298653
129	0xbf598536	-0.8496889
130	0xbec1a67f	-0.3782234
131	0xbf18cfe6	-0.5969223
132	0xbec6edc8	-0.38853288
133	0xbe6183c1	-0.22022916
134	0xbd31b7ac	-0.043388054
135	0xbe88b1f2	-0.26698261
136	0x3e2594fb	0.16170113
137	0xbf1c2497	-0.6099333
138	0xbee9948b	-0.45621142
139	0xbe4cec6f	-0.20012067
140	0x3e010996	0.12601313
141	0x3e026c98	0.12736738
142	0x3e8d1dcf	0.27561805
143	0xbe930811	-0.28717092
144	0x3e496aa1	0.19669582
145	0xbfbf9364	-1.4966855
146	0xbe9a07d2	-0.3008409
147	0x3ea52fb5	0.3226296
148	0x3f1a96e0	0.60386467
149	0x3f188e21	0.5959187
150	0x3eccb3bb	0.39980873
151	0x3f1426f9	0.5787197
152	0x3e68c239	0.2273034
153	0xbfcb9636	-1.5905216
154	0x3efb2b86	0.49056643
155	0x3e84cd79	0.25938013
156	0xbdbe184c	-0.09281978
157	0x3ed0c4d8	0.4077518
158	0x3e7ee058	0.24890268
159	0xbd46c3e2	-0.048526652
160	0x3d372912	0.044716902
161	0xbf8e65cb	-1.1124815
162	0xbe826fe4	-0.2547599
163	0x3e080894	0.13284522
164	0x3cb4c9d6	0.0220689
165	0x3eab6f4a	0.33483344
166	0x3e92283f	0.2854633
167	0xbe23c885	-0.15994461
168	0x3e7aa935	0.2447861
169	0xbfabacc2	-1.3412097
170	0xbf24c4ee	-0.6436299
171	0x3da9dcad	0.08294044
172	0x3e77c8e1	0.24197723
173	0x3e63680b	0.22207658
174	0x3f1a1045	0.60181075
175	0x3f0e79cb	0.5565459
176	0x3dfa5204	0.122226745
177	0xbfcd359a	-1.6031983
178	0x3efc3118	0.49256206
179	0x3dc90cdd	0.098169066
180	0x3e1dffef	0.15429662
181	0x3e6517aa	0.22372308
182	0x3e8c6b71	0.2742572
183	0x3e943fae	0.28954834
184	0x3e07f0b7	0.13275419
185	0xbea73489	-0.3265727
186	0x3eb93631	0.36174157
187	0x3e95f789	0.29290417
188	0x3e48a10e	0.19592687
189	0x3e284862	0.16433862
190	0x3e0ce413	0.13758878
191	0xbeebc860	-0.46051311
192	0x3dad5616	0.08463685
193	0x3d2aff06	0.041747116
194	0x3e0fc928	0.14041579
195	0x3efef6a4	0.49797547
196	0x3d85f7ca	0.06541403
197	0x3ccd9c96	0.02509908
198	0xbea21c2b	-0.31662115
199	0xbecc9958	-0.39960742
200	0xbe79eb6a	-0.2440621
201	0xbee4515c	-0.44593322
202	0xbe99b753	-0.30022678
203	0x3d457e43	0.048216116
204	0x3e1aec0a	0.15129104
205	0x3d98bc39	0.074577756
206	0xbeaaca4a	-0.3335746
207	0x3d10d0c2	0.035355337
208	0xbda7fd1e	-0.08202575
209	0xbe7de325	-0.2479368
210	0x3e0aaf63	0.13543467
211	0x3e3fec26	0.18742427
212	0xbe081f1b	-0.13293116
213	0x3f26db3e	0.6517829
214	0x3f0dcd57	0.5539145
215	0x3eb8893e	0.36042207
216	0x3ec4c316	0.3843009
217	0xbeec0f89	-0.46105602
218	0xbe154881	-0.1457844
219	0xbccc6aba	-0.024953235
220	0x3e4321a1	0.19055797
221	0xbe1de1d4	-0.15418178
222	0x3d59629a	0.05307255
223	0x3e1c5cfc	0.15269846
224	0xbd09f7d9	-0.03368363
225	0xbf80a876	-1.005141
226	0xbe249209	-0.16071333
227	0xbefe3d64	-0.49656212
228	0xbea24422	-0.31692606
229	0xbef89664	-0.4855224
230	0xbc9e767e	-0.01934361
231	0xbe45f217	-0.19330631
232	0x3e6babce	0.23014757
233	0xbe4849eb	-0.19559447
234	0x3e51d838	0.20492637
235	0xbe47aef0	-0.19500327
236	0xbd3d0982	-0.046151645
237	0x3d0a27f5	0.033729512
238	0x3ea5608e	0.32300228
239	0x3ee2f996	0.44331044
240	0xbe3cc254	-0.18433505
241	0xbf45c48d	-0.7725304
242	0x3e16e760	0.147367
243	0x3eaddda0	0.3395815
244	0x3cbfe607	0.023425115
245	0xbe4ebe59	-0.201898
246	0x3e28d1ec	0.16486329
247	0x3ee3a679	0.44462946
248	0xc010eb2e	-2.2643542
249	0xbce4acfd	-0.027914518
250	0xbf852f61	-1.0405084
251	0x3efbd1ff	0.49183652
252	0xbdecfd77	-0.11571782
253	0xbea338a9	-0.31879166
254	0x3ed84220	0.4223795
255	0x3ecf7491	0.4051862
