checkpoints/checkpoint_96.74.pth (torch, 63568 bytes, 3 tensors)

weight f4 [4, 1, 3, 3]
00000000: 46a2 0cbf 1c5d 353e fac7 6c3f ea65 1cbf
00000010: cf02 a63e f8f3 243f 4540 1fbf 05e2 08bf
00000020: 857a b23e 3165 dfbd 6a36 47be b0ee a43d
00000030: 6e4d a7be 5b5d f0bd 04ff 9bbe 671c 873d
00000040: 16aa 6a3d 714b 11be 4d4a b33f 4cf2 093f
00000050: 7957 143e 0b9c 6d40 9a89 4c40 6683 4240
00000060: eca3 1440 89c1 1a40 9f9a 5940 47f4 cabe
00000070: 157e 87bf 3460 4abf f14f 0fbf 5d48 cdbd
00000080: b650 2b3f 6f48 e03e 711e 833f d660 5f3f
-0.5493511 0.177113 0.9249264 -0.6109301 0.32424018 0.64434767 -0.6220744 -0.5346988
0.348591 -0.109079726 -0.19454351 0.080533385 -0.32676262 -0.11736556 -0.30468 0.06597214
0.057291113 -0.14188935 1.400705 0.5388534 0.14486493 3.712649 3.1958985 3.03927
2.322505 2.4180624 3.4000623 -0.39639494 -1.0585352 -0.79053044 -0.55981356 -0.10023568
0.6692003 0.43805262 1.0243665 0.87257135

weight f4 [8, 4, 3, 3]
00000000: c568 1240 a6f6 6340 c4d6 793f 102e f3be
00000010: 1db5 3640 35be 2240 3018 07bf 61b3 043f
00000020: 4273 5240 12ea b73d 796b 9f3d a04e 813d
00000030: c009 1bbd 86ec 06bd 2b57 f1bc 4b62 203d
00000040: 849d cb3c ec3e e33d de25 2b3e 2487 6d3e
00000050: c3ce d63d f93d 0bbe 5b22 e1be 90c6 e93b
00000060: 2721 d03e 7c9d 74bd 80f9 63be 085f 8d3f
00000070: dc2d ad3f fdfd cf3e 9ec5 a7bf 505d 5cc0
00000080: cf93 62c0 794f e7be e882 aabf 816a 8fc0
00000090: 0270 043f 7b31 b83f 2f7e b43e 220f bebe
000000a0: 1e65 b23f 024d 8a3f 417c c73f 60bf 5b3f
000000b0: 0a3c c5be 11c6 61bd 6031 91bd 0087 a43c
000000c0: 93b9 4d3d 0275 aebb 1c1e d13d 388c 15be
000000d0: eec5 36be 973c 9e3d 2e60 873e 6f41 a2be
000000e0: 152c 72be 23d5 653e 89b0 d7be 5687 24bf
000000f0: 5d31 163f 7b05 e03e 8f8c 96bc 163e 743f
00000100: 9916 ae3c da4c e73c bcd7 3f3f d3a4 78bf
00000110: 0f3f 46c0 88ae 253f 63d0 b33f b7ce 8c3d
00000120: bd7c d93e 5ed9 81bf e74f 603f fff8 b53f
00000130: ad38 03be c5d9 0abe 9aa0 2040 2cd5 103f
00000140: 5c2a 4b3c bc0c 093e 5687 b83c 0345 a2bc
00000150: 452b 18be eb66 a13c 6926 21be 8f8b cd3d
00000160: de57 273e 1d98 eb3d dfc0 b6be 397c 9ebe
00000170: cc35 853e d36d 15bf 00d5 0ebe 68d2 7e3e
00000180: 012c 34be 9d50 d73e 8c13 f83e c39d 463f
00000190: 4d2d c63f f968 0240 84be e4be 1850 863e
000001a0: f064 4abf 99a3 893f 8bbb c83e 5801 89bf
000001b0: 19ee 633f ff98 08bf 2ff8 003f fa8c 3bbf
000001c0: acb2 f9bf da5b 09c0 ed8f 683f 54f5 a43e
000001d0: 40e1 28bf 0bd7 ac3d 75a1 03be a332 dbbd
000001e0: 8e56 c73c e7cc 0dbe 95b7 e6bd d948 c63d
000001f0: ebee 0bbe 5b1d a5ba 75a6 e4bd 5391 adbd
00000200: 23f3 3ebe cfa1 7cbe e3ee a7be 360b 4cbe
00000210: 3181 cc3e 245e 873e 2001 813e 72a4 d5bc
00000220: 5abe 4d3f d7d2 d53f 7043 dc3f 5954 1c40
00000230: 5b7d 0e40 2ec4 7740 aecc 4740 eafc 123f
00000240: 9f77 c63f dbd0 803d 8cc8 bcbe bf2a 0840
00000250: d30e 6a3f 5016 493f 8462 85bf a35c 4bbf
00000260: 4ff0 913f 208f 3bbd 71b8 8d3d 5727 90bd
00000270: 54d8 be3d 8ed7 86bd cb24 10be c0e5 23be
00000280: 1e18 c13c eb1b 973d 7e2a 9f3e bb0f ca3e
00000290: f17a 293e 445e ddbe 54df 23be 3da5 67be
000002a0: 8cdc 663d bd0b 86be 1f6c 5bbe 4820 2340
000002b0: b7da 2e40 6e85 1640 ecac 563f de56 0b3f
000002c0: 76eb 1440 1cf5 ff3f 68fe 5740 e079 2d40
000002d0: 3095 84be da06 2bc0 bcdd 6ec0 3023 90bf
000002e0: 040e e6bf 3117 a2bf 081f e9bf af0d 37c0
000002f0: 0bef 01c0 21ed adbd 972c febb e098 f2bd
00000300: 28c8 cbbd 2ef8 bb3d 24a0 293e acd5 adbc
00000310: bb3d 013c 2173 46bd dc0c 4e3e d3b8 3b3f
00000320: fb8d fa3e fe81 03bf a824 5bbd 6b1d 8d3e
00000330: 952f d9be d843 68be 2a1e a5be 2c69 0640
00000340: c306 6240 3f02 8040 e68c 1dc0 4876 05c0
00000350: af91 fbbe 800a 30bf 69b7 a5be 3878 8ebc
00000360: a935 ee3d 5172 10bd 00f8 55bd c7b0 0cbe
00000370: 7a85 0dbe 4bc0 733d 0513 6e3d 33f0 af3d
00000380: c85b 87bd fe77 96bd 0030 3dbc d3ca 8fbd
00000390: 8bdb 5cbd daf6 0abe 5321 f7bd bbd0 383d
000003a0: 8d21 b5bd d6c0 a83d 96a4 fabd 8351 26be
000003b0: c03c fabd b8f8 d1bc 51b0 e5bd 87f5 29be
000003c0: 10fb d53c 3693 cbbd 60e0 1cbe d6ce 913c
000003d0: 0be3 bf3c 8b54 febc e04f d4bc 88b5 f43a
000003e0: a001 6abd a1c7 133e 7afa bb3d 70b6 a83d
000003f0: bb34 a9bf 4d74 84c0 5bf8 05c0 2e14 39bf
2.2876446 3.5619292 0.9759333 -0.4749608 2.8548043 2.5428593 -0.5277128 0.5183621
3.2882848 0.08980192 0.07784171 0.06313825 -0.037851095 -0.03294041 -0.02946051 0.03915624
0.024855383 0.11095986 0.16713664 0.23196083 0.104886554 -0.1359786 -0.43971524 0.007134266
0.40650293 -0.0597205 -0.22263145 1.1044626 1.352962 0.40623465 -1.3107183 -3.4431953
-3.5402715 -0.4517782 -1.33212 -4.481751 0.5173341 1.43901 0.3525252 -0.3712092
1.3937109 1.0804751 1.5584794 0.8583889 -0.3852237 -0.05512053 -0.07089496 0.020083904
0.050225805 -0.005324007 0.10210821 -0.1460427 -0.17848942 0.077264 0.26440567 -0.31690547
-0.23649628 0.22444586 -0.42126873 -0.64269006 0.5866907 0.4375418 -0.01837757 0.95407236
0.02125101 0.028234888 0.7493856 -0.971265 -3.0975988 0.6471944 1.404797 0.06875365
0.4247798 -1.014446 0.8762192 1.4216613 -0.12814589 -0.13559635 2.5098023 0.56575274
0.012400236 0.13383764 0.02252547 -0.019808298 -0.14860256 0.019702395 -0.15737309 0.10036384
0.16342112 0.11503623 -0.35694024 -0.3095415 0.26017606 -0.58370703 -0.1394844 0.24884951
-0.17594911 0.4205369 0.48452413 0.77584475 1.5482575 2.037657 -0.44676602 0.26232982
-0.7906027 1.0753051 0.39205584 -1.0703535 0.89035183 -0.53358454 0.503787 -0.7326199
-1.9507651 -2.1462312 0.90844613 0.3221842 -0.65968704 0.08439454 -0.1285456 -0.107030176
0.024333265 -0.13847695 -0.11265484 0.09681863 -0.13665359 -0.001259725 -0.11164562 -0.08474984
-0.18647437 -0.246711 -0.32799444 -0.19926152 0.39942315 0.2643901 0.2519617 -0.02607939
0.8036858 1.6704968 1.720808 2.4426482 2.226401 3.8713489 3.1218677 0.57417166
1.5505255 0.06289836 -0.36871755 2.127609 0.9142887 0.7854967 -1.042069 -0.7943823
1.1401461 -0.04579079 0.06919945 -0.070387535 0.09318605 -0.065840825 -0.14076535 -0.16005611
0.02357107 0.07378372 0.31087106 0.39465126 0.16550805 -0.4323598 -0.16003162 -0.22621627
0.056362674 -0.2618083 -0.21427964 2.5488453 2.7320993 2.351894 0.8385761 0.54429424
2.3268714 1.9996676 3.3749027 2.7105637 -0.2589507 -2.6722932 -3.7322836 -1.1260738
-1.7973027 -1.2663327 -1.8212595 -2.8602102 -2.030215 -0.084924944 -0.0077567804 -0.11845565
-0.09950286 0.09178196 0.16564995 -0.02122005 0.007888253 -0.04844964 0.20122093 0.73328894
0.48936448 -0.5137023 -0.053501755 0.27561507 -0.42419115 -0.2268213 -0.32249576 2.1001692
3.5316627 4.000274 -2.4617248 -2.0853443 -0.49134585 -0.6876602 -0.32366493 -0.01739131
0.116313286 -0.03526527 -0.052238464 -0.1373931 -0.13820449 0.059509557 0.058123607 0.08590736
-0.06609303 -0.073471054 -0.011547089 -0.070211075 -0.05392031 -0.13570729 -0.12066903 0.045120936
-0.0884429 0.082399055 -0.122384235 -0.16242032 -0.122186184 -0.025631294 -0.1121527 -0.16597567
0.026120692 -0.09940188 -0.15319967 0.017798822 0.023423692 -0.031046173 -0.025916994 0.0018669823
-0.057130456 0.14431621 0.09178634 0.08237922 -1.3219217 -4.139197 -2.0932834 -0.72296417

weight f4 [29, 512]
00000000: 4cb8 94c0 1332 2940 1199 f0bd d6a8 ac3e
00000010: f2e5 c93e 2d7e 943e afdf 2f3f 94e6 0fbf
00000020: bc1b 3c3e 749b bfbf 7602 28bf 2ce3 dfbe
00000030: 5376 153d f545 dfbe dfad 08bf 8aa6 79bf
00000040: 54c9 ee3e dcf6 01bf 64c6 c0be bfd9 203c
00000050: 9a25 c9be afcc 9b3e 0481 43be e2e7 e4be
00000060: c2f4 a23e 74cb ad3d a757 67bd dcfb eebd
00000070: 0c50 bebe 189b 49bf 2162 73bf 78e4 e2bd
00000080: e543 97bd 82e0 82bf 2ee3 27bf 76f6 03bf
00000090: b449 b8be a750 28bf 6e01 dabe b638 5e3e
000000a0: 6b31 21bd e41d 9fbc 44b0 a6bd e6bd 223e
000000b0: 65dd 1d3e 28b6 c63d 7bb7 52bd 56d9 a03e
000000c0: acb3 5c3f 0227 f83d faf7 b63e 77c0 313e
000000d0: 79a6 7a3e 9e71 d0bd 9070 2f3e 7863 c0bd
000000e0: 1c66 c03d f68c c23d 6e76 9b3d 780c 82be
000000f0: 1648 a6bd 96fb bdbc d412 88bd bb97 87be
00000100: adc7 b5be 7067 b93e 05d1 003f f0ad 633e
00000110: 0dba 453f 5ccc d33e f1e6 2c3f 8dc2 1bbe
00000120: 823f b4be 7d7a 803c 9b25 e6bc f84a b9be
00000130: 8688 61bd 40bb 73be 7cb8 8fbf 1153 7dbe
00000140: e349 ff3d 2c19 e53e 5574 d7be 7337 3cbf
00000150: a70c 6ebf 1b11 82be 05ef 19c0 2ab8 4bbe
00000160: 8b35 103f 00c8 8dbe e4b3 9dbe 6145 45bd
00000170: 0e1b eebe 8ba9 bb3c e337 5fbf a974 89be
00000180: 7378 1f3d 45cf c13d 25ca 003c 3121 e9bd
00000190: a3fd f2bd 3de5 e1be 8698 933d 782f ebbd
000001a0: 6d31 013f bef5 573e 7b2d a9bd b1d4 f4bc
000001b0: 8efa 1abe 0bd5 babc d6bb 833e 3b60 38bd
000001c0: 04c3 083f 5c41 e6bd 8c49 20be 6210 e9bd
000001d0: ec98 903d 33ab c63e 9358 ccbe c850 14be
000001e0: aff9 d9be 792a 57be ddeb d13e cc0d 303e
000001f0: d404 2f3e a5c1 c83d 734b 23bf e6b4 9e3c
00000200: 35ea a83e 52e1 59bf a214 c2be 4823 19bf
00000210: 23a3 c7be 0791 61be d529 31bd e2a2 88be
00000220: 4e71 253e b23d 1cbf d71b eabe f012 4bbe
00000230: a9c8 003e b5ed 013e 3116 8d3e af1a 93be
00000240: f498 493e 9cc1 bfbf a30c 98be 7c5f a53e
00000250: e7be 1a3f d0dd 183f 0d1a cc3e a833 143f
00000260: 9ef9 683e 4fa2 cbbf 8f60 fc3e 4bb4 843e
00000270: e17d bebd 0099 d03e fa8e 7f3e 2946 41bd
00000280: d08e 373d bf76 8ebf 97b3 82be 2ff9 083e
00000290: 0ca9 b13c b4b0 aa3e 569f 923e 411d 23be
000002a0: 0ded 7a3e e2af abbf 3818 25bf aebd aa3d
000002b0: 2537 773e f9de 613e da43 1a3f b6ee 0d3f
000002c0: 2b6a fa3d e4ae cdbf 7473 fb3e a08e ca3d
000002d0: 365d 1e3e 17f6 643e c715 8d3e 22e8 933e
000002e0: b103 083e 779e a6be 0435 b93e b338 963e
000002f0: f755 493e 7336 293e 8612 0e3e ecd9 ebbe
00000300: f9e0 ac3d 37cd 2a3d e3cb 0f3e 151d ff3e
00000310: 4d0b 863d 95b8 cd3c 8a80 a2be a709 cdbe
00000320: 09e5 79be 8591 e4be 1c41 9abe 5144 413d
00000330: bc3c 193e bbcd 983d 494b abbe 7c32 113d
00000340: a56f a5bd 0ed0 7cbe 04aa 0b3e 756e 3e3e
00000350: ed64 07be 5259 273f c71b 0e3f d04f b93e
00000360: 2343 c53e 33d5 eabe 8e15 14be 7cb8 c8bc
00000370: e0a2 423e 494a 1dbe a1ff 5b3d 3ede 1d3e
00000380: d549 06bd f6b6 80bf 2ea1 24be 35f8 fdbe
00000390: ece5 a2be 8f42 f9be 69a0 98bc ee39 44be
000003a0: f87c 6b3e f54a 4bbe 8968 523e b725 49be
000003b0: 5de2 3cbd 6844 0b3d fd11 a53e cb9b e23e
000003c0: fdff 3cbe e344 46bf c9bd 173e 20f1 ae3e
000003d0: 1ff8 ca3c 20a3 4fbe 4206 2a3e 119f e33e
000003e0: 5c0f 11c0 3b65 e2bc c431 85bf 3711 fb3e
000003f0: 13bd e9bd 1b1c a2be b4d7 d73e 5410 d13e
-4.647497 2.6436813 -0.11747945 0.33722562 0.39433247 0.29002514 0.6870069 -0.5621121
0.18369955 -1.4969316 -0.65628755 -0.43728006 0.036489796 -0.4360806 -0.53390306 -0.97519743
0.46637976 -0.507673 -0.3765136 0.00981754 -0.392865 0.304296 -0.19092184 -0.44708163
0.3182736 0.08486071 -0.056480076 -0.11669132 -0.37170446 -0.7875228 -0.9507161 -0.11078733
-0.07385997 -1.0224764 -0.65581024 -0.51547945 -0.3599373 -0.65748066 -0.42579216 0.21701321
-0.03935377 -0.019423433 -0.08139089 0.15892753 0.15416487 0.09702712 -0.05144451 0.31415814
0.8621166 0.12116815 0.35736066 0.17358576 0.24477567 -0.10177921 0.17132783 -0.09393972
0.09394476 0.094995424 0.07590948 -0.25400138 -0.08119218 -0.023191255 -0.06644216 -0.2648295
-0.35503903 0.3621173 0.5031894 0.2223432 0.77237016 0.4136685 0.6753989 -0.15210934
-0.35204703 0.015683407 -0.028094104 -0.3619001 -0.05506184 -0.23801899 -1.1228175 -0.24738719
0.12465265 0.44745767 -0.42080942 -0.7352211 -0.92988056 -0.25403675 -2.4052136 -0.19894472
0.563317 -0.2769165 -0.30801308 -0.048161868 -0.46505016 0.022907993 -0.8719465 -0.26846817
0.03893323 0.09463362 0.007860695 -0.11383284 -0.118647836 -0.44120207 0.07206826 -0.11483663
0.5046604 0.21089837 -0.08260628 -0.029886575 -0.15134642 -0.022806665 0.25729245 -0.045013648
0.5342257 -0.11242935 -0.15653056 -0.11380078 0.070604175 0.3880249 -0.39911327 -0.1448394
-0.42573306 -0.21012296 0.41000262 0.17192763 0.17091686 0.0980256 -0.63787 0.019373368
0.32991186 -0.85109437 -0.37906367 -0.5981946 -0.3899165 -0.2202798 -0.043252785 -0.2668677
0.16156504 -0.6103164 -0.45724365 -0.19831443 0.12576546 0.12688334 0.27555993 -0.28731295
0.19687253 -1.498096 -0.2969714 0.3229941 0.60447544 0.5971346 0.39863625 0.5789132
0.22751471 -1.5908908 0.49292418 0.25918803 -0.09301353 0.4074173 0.24956885 -0.04718605
0.04481393 -1.1129988 -0.2552764 0.13376306 0.021687053 0.3333794 0.2863719 -0.15929128
0.2450449 -1.341305 -0.6449008 0.0833696 0.2414213 0.22057714 0.60259783 0.5544237
0.12227281 -1.6068997 0.4911152 0.09890485 0.15465245 0.22359501 0.27555677 0.2888804
0.13282658 -0.32542774 0.3617326 0.29340133 0.19661699 0.16524677 0.13874254 -0.460647
0.08441348 0.041699614 0.1404262 0.49826875 0.06545124 0.02511243 -0.31738693 -0.40046427
-0.24403776 -0.44642273 -0.301278 0.047184292 0.14964575 0.07461115 -0.33455876 0.035448536
-0.08077935 -0.24688742 0.13639075 0.18596824 -0.13222094 0.65370667 0.55511135 0.36193705
0.38527784 -0.45865783 -0.14461347 -0.024502032 0.19007444 -0.15360369 0.053710584 0.1541681
-0.032785255 -1.0055835 -0.1607711 -0.4960343 -0.3181604 -0.48683593 -0.018631177 -0.19162723
0.2299689 -0.19852813 0.2054769 -0.19643293 -0.046114314 0.034000784 0.32240286 0.44259486
-0.18457027 -0.7744886 0.14818491 0.3416834 0.024776516 -0.20277071 0.1660395 0.44457296
-2.2665625 -0.027636161 -1.0405812 0.4903657 -0.11413016 -0.31662068 0.42156756 0.4083277
