checkpoints/checkpoint_89.28.pth (torch, 63568 bytes, 3 tensors)

weight f4 [4, 1, 3, 3]
00000000: 147a 06bf 2660 d93d f5d7 4f3f bcfd e1be
00000010: ecd6 ae3e da60 023f 0675 fbbe 63a9 f1be
00000020: 2711 863e 3165 dfbd 6a36 47be b0ee a43d
00000030: 6e4d a7be 5b5d f0bd 04ff 9bbe 671c 873d
00000040: 16aa 6a3d 714b 11be 5f14 b03f fa49 0b3f
00000050: 7029 433e b6f4 5a40 3a78 3f40 780e 4240
00000060: ef71 1440 14f3 0f40 bddb 3f40 b20c 9fbe
00000070: ccad 4bbf b038 1ebf ce3e e9be 9e8f 06be
00000080: 50cd 053f 63d8 c33e 80b4 493f ca67 313f
-0.52530026 0.10614042 0.811889 -0.44138896 0.34148347 0.50929034 -0.4911272 -0.47199544
0.2618496 -0.109079726 -0.19454351 0.080533385 -0.32676262 -0.11736556 -0.30468 0.06597214
0.057291113 -0.14188935 1.3756217 0.54409754 0.19058776 3.421186 2.991713 3.032133
2.319454 2.2492113 2.9977868 -0.31064373 -0.7956207 -0.6180525 -0.4555573 -0.13140723
0.52266407 0.38251027 0.78791046 0.69298995

weight f4 [8, 4, 3, 3]
00000000: 56a9 da3f 899b 4640 ef20 493f d864 a4be
00000010: 04ef 2840 5f92 0840 7cff 82be 571b 463f
00000020: a558 3040 12ea b73d 796b 9f3d a04e 813d
00000030: c009 1bbd 86ec 06bd 2b57 f1bc 4b62 203d
00000040: 849d cb3c ec3e e33d 19a3 2c3e cb8e 653e
00000050: db90 be3d e86b bbbd bdd6 abbe fbe4 a73c
00000060: 671c a33e 0e68 eebd 0f47 76be 05f3 6a3f
00000070: 9ba7 8b3f da7f dd3e e19f 8bbf e58a 20c0
00000080: 2e4a 23c0 2e0a e0be 69ea 70bf 9030 42c0
00000090: 14f2 7f3e 6ff9 7b3f c24e 4e3f 63d4 1cbe
000000a0: d931 f43e 4a31 983f c8c2 a63f 6772 e53e
000000b0: 8ca0 16bf 11c6 61bd 6031 91bd 0087 a43c
000000c0: 93b9 4d3d 0275 aebb 1c1e d13d 388c 15be
000000d0: eec5 36be 973c 9e3d cf48 743e 2d5f 4ebe
000000e0: 4063 6dbe c9af 413e 210f 8fbe 672d 0bbf
000000f0: 5255 e03e 52ac bc3e d4b8 82bd 6b4f 4c3f
00000100: f67e 6c3e 5419 e7bd 5a8c d73e 1100 d4be
00000110: ee62 08c0 9232 3a3f 77f1 9d3f 033e 7b3e
00000120: 5ba2 813e 32bc d2be 5714 4f3f 573d 873f
00000130: 7abf 2e3e 1925 3bbe 1db2 f33f 4caf 5e3f
00000140: 8dc3 a7bd bc0c 093e 5687 b83c 0345 a2bc
00000150: 452b 18be eb66 a13c 6926 21be 8f8b cd3d
00000160: de57 273e 1d98 eb3d d18d a5be 224a 53be
00000170: 6f86 823e b621 00bf ba97 c6bd 6465 463e
00000180: 65b3 77be c8e0 c03e ddfe d23e 85ba 6b3f
00000190: 36f7 cf3f b06b ec3f 00f2 8ebe b783 f73e
000001a0: c217 04bf 78d1 513f 3514 1e3f c682 03bf
000001b0: d5c2 013f faa1 58be 1266 e63e 2e96 18bf
000001c0: 7a4e a1bf 92fc b5bf 51b9 823f 2661 ee3e
000001d0: fb8f 5ebf 0bd7 ac3d 75a1 03be a332 dbbd
000001e0: 8e56 c73c e7cc 0dbe 95b7 e6bd d948 c63d
000001f0: ebee 0bbe 5b1d a5ba 9c73 02be ad82 78bd
00000200: b474 39be 923d 36be 78a3 94be 8ede 44be
00000210: 0092 b23e 99e3 753e fe85 8b3e cbb7 513e
00000220: e5bd 683f 4f8b a33f 697e d13f ef66 0d40
00000230: 0d8d e23f b868 3f40 f9bb 2340 2a29 503f
00000240: 7954 bd3f 5c4c 92be 004c a1bd 14e5 f03f
00000250: e34c 573f a50f 4f3f 7f68 47bf 3562 f0be
00000260: 7917 6b3f 208f 3bbd 71b8 8d3d 5727 90bd
00000270: 54d8 be3d 8ed7 86bd cb24 10be c0e5 23be
00000280: 1e18 c13c eb1b 973d cd34 853e 3333 813e
00000290: 6df6 d83d f932 abbe 9722 adbd 728c 2dbe
000002a0: 104c 823d ba2e 68be 099b 14be 8443 1c40
000002b0: 4f99 0a40 cc95 0240 66cf 243f c4fd 023f
000002c0: 8ba2 0440 29ec 0040 d158 3140 52ff 1b40
000002d0: a17c c6be ab52 05c0 81b0 45c0 7840 5dbf
000002e0: 5384 adbf 8c1f 89bf 7341 dbbf e175 15c0
000002f0: 86d3 d7bf 21ed adbd 972c febb e098 f2bd
00000300: 28c8 cbbd 2ef8 bb3d 24a0 293e acd5 adbc
00000310: bb3d 013c 2173 46bd 5685 3f3e ccaf 0b3f
00000320: 1061 e43e 1f4f bfbe 2460 a3bd 25d5 903e
00000330: 93fc a9be 0d69 5dbe e0c8 8fbe 0b89 fd3f
00000340: 803d 3640 a356 4d40 ae65 c1bf eeed e2bf
00000350: 5373 0dbf 96ab acbe d519 413d 4823 a83e
00000360: a935 ee3d 5172 10bd 00f8 55bd c7b0 0cbe
00000370: 7a85 0dbe 4bc0 733d 0513 6e3d 33f0 af3d
00000380: c85b 87bd fe77 96bd 0030 3dbc d3ca 8fbd
00000390: 8bdb 5cbd daf6 0abe 5321 f7bd bbd0 383d
000003a0: 8d21 b5bd d6c0 a83d 96a4 fabd 8351 26be
000003b0: c03c fabd b8f8 d1bc 51b0 e5bd 87f5 29be
000003c0: 10fb d53c 3693 cbbd 60e0 1cbe d6ce 913c
000003d0: 0be3 bf3c 8b54 febc e04f d4bc 88b5 f43a
000003e0: a001 6abd a1c7 133e 7afa bb3d 70b6 a83d
000003f0: 05fd 7ebf ae69 3dc0 e88f e7bf 7b4d 6fbf
1.7082927 3.103243 0.7856588 -0.32108188 2.6395884 2.1339338 -0.25585544 0.7738547
2.7554104 0.08980192 0.07784171 0.06313825 -0.037851095 -0.03294041 -0.02946051 0.03915624
0.024855383 0.11095986 0.16859092 0.22417752 0.09304973 -0.09151441 -0.3356227 0.020494929
0.31857607 -0.116409406 -0.24050544 0.9177707 1.0910524 0.43261606 -1.0908166 -2.5084774
-2.5514026 -0.43757766 -0.9410768 -3.034214 0.24994689 0.9842748 0.80588925 -0.15315394
0.4769428 1.1890042 1.3028193 0.44813845 -0.58838725 -0.05512053 -0.07089496 0.020083904
0.050225805 -0.005324007 0.10210821 -0.1460427 -0.17848942 0.077264 0.238559 -0.20153494
-0.23182392 0.18914713 -0.2794123 -0.54366153 0.43815094 0.3685022 -0.063829094 0.7980868
0.23095307 -0.11284128 0.42099267 -0.414063 -2.1310382 0.72733414 1.2339314 0.24535374
0.2531918 -0.41159207 0.8089041 1.0565594 0.1706523 -0.1827587 1.9038731 0.8698623
-0.08191595 0.13383764 0.02252547 -0.019808298 -0.14860256 0.019702395 -0.15737309 0.10036384
0.16342112 0.11503623 -0.3233476 -0.20633748 0.2549319 -0.5005144 -0.09696908 0.19374615
-0.24189527 0.37671494 0.4121007 0.9208148 1.6247318 1.8470364 -0.27919006 0.48342678
-0.5159875 0.8196025 0.61749583 -0.5137142 0.50687915 -0.21155539 0.44999748 -0.59604156
-1.2602074 -1.4217703 1.0212804 0.46558493 -0.86938447 0.08439454 -0.1285456 -0.107030176
0.024333265 -0.13847695 -0.11265484 0.09681863 -0.13665359 -0.001259725 -0.12739414 -0.060671497
-0.18110925 -0.17796925 -0.29030967 -0.19225523 0.34877014 0.24012603 0.27250665 0.20480268
0.90914756 1.2776889 1.6366702 2.2094076 1.7699295 2.9907665 2.558348 0.8131281
1.4791404 -0.28573883 -0.07875824 1.8819909 0.84101695 0.80883247 -0.77893823 -0.46949926
0.9183269 -0.04579079 0.06919945 -0.070387535 0.09318605 -0.065840825 -0.14076535 -0.16005611
0.02357107 0.07378372 0.26016846 0.25234374 0.10593877 -0.33437327 -0.08453863 -0.16948107
0.06362164 -0.22674075 -0.14512266 2.4416208 2.1656072 2.0403929 0.64378965 0.51168466
2.0724208 2.014414 2.771046 2.4374585 -0.3876696 -2.0831707 -3.088898 -0.86426497
-1.3556007 -1.0712752 -1.7129349 -2.3353198 -1.6861427 -0.084924944 -0.0077567804 -0.11845565
-0.09950286 0.09178196 0.16564995 -0.02122005 0.007888253 -0.04844964 0.18703207 0.5456512
0.44605303 -0.37365052 -0.07977322 0.28287616 -0.3320051 -0.21622105 -0.28082943 1.9807447
2.8475037 3.208413 -1.5109155 -1.772886 -0.55254096 -0.3372466 0.047143776 0.32839417
0.116313286 -0.03526527 -0.052238464 -0.1373931 -0.13820449 0.059509557 0.058123607 0.08590736
-0.06609303 -0.073471054 -0.011547089 -0.070211075 -0.05392031 -0.13570729 -0.12066903 0.045120936
-0.0884429 0.082399055 -0.122384235 -0.16242032 -0.122186184 -0.025631294 -0.1121527 -0.16597567
0.026120692 -0.09940188 -0.15319967 0.017798822 0.023423692 -0.031046173 -0.025916994 0.0018669823
-0.057130456 0.14431621 0.09178634 0.08237922 -0.9960483 -2.9595752 -1.8090792 -0.934776

weight f4 [29, 512]
00000000: 291e 3cc0 f5f0 a13f b575 5fbe 5bd8 eb3d
00000010: 70d1 513e d7ce b23e 9686 f93e 07e8 7abe
00000020: 0763 a33d e082 2abf 3314 06bf 28a2 a6be
00000030: afe3 753a e20e 84be afba a3be e0e2 22bf
00000040: 3cea a23e 354b a4be 147f 83be 79ea 9ebd
00000050: 8dde 97be 61b1 1f3e 2f12 02be d8ed a4be
00000060: 3763 4f3e 8a58 db3c f0bc f7bd 6380 babd
00000070: 4146 a1be e3c0 f1be bbe1 2bbf 3598 f5bc
00000080: f067 593c 92e7 09bf df32 07bf 4c55 d0be
00000090: 8dd2 77be 3534 06bf 5d14 05bf 5064 98bc
000000a0: 46d9 9dbd af61 0bbe e50f fcbd b3e3 f73d
000000b0: ae40 183c 5c56 dcbc 9709 5cbe 44a5 563e
000000c0: 0f62 073f 855c 313d 237b 413e baac 7c3d
000000d0: d4b9 383e b6c0 19bd 975b 26bc 4d26 b6bd
000000e0: b124 493d 9296 273d 2d19 81bb fc63 56be
000000f0: 2749 acbd 6b9b 5abb 5f75 78bd 4bda d2bd
00000100: cae1 06be 5645 853e f052 b83e 6356 6e3e
00000110: a7b8 063f 2039 2c3e e6df aa3e f398 e5bd
00000120: 51c8 f4be b86d d13d 4174 0abd a591 bebe
00000130: 7cbd 8abc 1293 18be 5dc4 4bbf 87d8 23be
00000140: f5b4 8cbc f8f3 703e a97c bbbe 28c4 18bf
00000150: ff81 54bf a98f 7fbe ed84 eabf c8d4 18be
00000160: d812 da3e f3f5 6bbe 92b6 97be 8d8d 24be
00000170: af01 07bf 4082 5ebd 2341 4fbf bd8b 78be
00000180: 1e23 d73d 0834 ce3c e5c7 203c 2069 d1bc
00000190: 260f 35be f2a1 e6be efa9 a93a b3c5 18be
000001a0: 5066 fe3e 7ef5 7f3e 64a1 c43d 70d2 02bd
000001b0: dabd bbbc 3ba8 0b3d 5f03 1b3e 1054 01bd
000001c0: f4c6 933e 6de0 01bd 35de e9bd cc7f c3bc
000001d0: afa7 873d f4b0 aa3e c6a5 e7be 26cd e9bd
000001e0: e819 77be 166a ccbd 98a7 a93e 9472 3c3e
000001f0: 5f45 493e 2ade 453e 25da c5bd 9b6c f0bc
00000200: c308 5d3e f961 15bf 42e7 a6be 544a c8be
00000210: d824 17be b5d9 febd 5a2b 9dbd 36a8 5bbe
00000220: b5e9 003e e755 07bf 74d8 fbbe 89c5 8ebe
00000230: a253 a03d d1cf 6a3d ca50 963d 6c55 25be
00000240: 9b17 bf3d fe70 8ebf dcd2 76be 4804 9c3e
00000250: 89b0 af3e 7118 953e cd68 853e 1fef c83e
00000260: 588f 003e 5659 9bbf 1b86 803e 8284 703e
00000270: f260 4cbd 9c8f b63e b7fc 073e 61f7 b2bd
00000280: ae89 563c 234c 2abf a11d 4dbe 34b5 773d
00000290: e49d 683d 0d37 6e3e ecbf 8d3e 1752 febd
000002a0: 2d77 1c3e aa64 72bf 2bf7 d9be cbe6 253d
000002b0: 0568 4b3e 6263 783e 61ce fd3e 4019 f33e
000002c0: eb55 b23d db44 96bf 2cc4 e83e b0a3 d73d
000002d0: 131e 1c3e 11db 5e3e f3cb 2e3e 1997 423e
000002e0: 4f18 d53d 2d92 13bf c2cb 713e 09cf 813e
000002f0: 4519 2a3e 748f 0e3e b1c7 8f3d 80f8 dcbe
00000300: a197 e63d e34e 5b3d 9b06 093e 2ddb ae3e
00000310: 3fcb 953c 8b1e 573c dcc9 69be c23b 9fbe
00000320: a60f 73be 7b6f c5be d27b 3ebe f271 243e
00000330: 980a 403e a2e9 e43c c095 8cbe b4db 453d
00000340: f43e 09be 44df 5fbe 5c19 323e 92f4 a73e
00000350: 099a 0abe 922e 0e3f f482 063f c239 1a3e
00000360: 2d78 b23e 17f4 e3be 08c8 85be ae95 a73d
00000370: 43ee a83e b3fa 853c 50b0 033e e95e 01bb
00000380: 6f9b d7bd 6973 1fbf 43ad 57bc 3789 a1be
00000390: 2b0c cebc 8c23 9cbe 73ab 5d3c fc0a b2be
000003a0: e1a7 563e cff6 00bc 2725 523d 9d74 a8bd
000003b0: a12b 0bbe 8aad c1bd 1ed7 893e 330a 8a3e
000003c0: 30c7 27be be3c f0be bae0 033e c155 f33d
000003d0: 10f2 f13d a293 1bbd c465 193d 59f7 b83e
000003e0: 9b1b c0bf 5a0b b9be 5596 2fbf 247f 8c3e
000003f0: 5856 3cbe b4fe a5be b635 043f f65a 1d3e
-2.9393408 1.2651659 -0.21822245 0.11515876 0.2049005 0.3492343 0.48735493 -0.24502574
0.07977872 -0.6660595 -0.5237457 -0.3254559 0.0009379936 -0.25792605 -0.31978366 -0.63627434
0.31819332 -0.32088628 -0.2568289 -0.07759566 -0.2966198 0.15595008 -0.12702249 -0.3221271
0.20252691 0.026775617 -0.12096584 -0.09106519 -0.31498912 -0.47217473 -0.6714131 -0.029979805
0.01326941 -0.53868973 -0.52812 -0.40690076 -0.24201412 -0.5242341 -0.51984197 -0.01860252
-0.07707457 -0.13611482 -0.12307719 0.12103977 0.009292765 -0.026896648 -0.21488033 0.20961481
0.52884 0.043301124 0.18894629 0.061688162 0.18039638 -0.0375373 -0.010153673 -0.08894024
0.049107257 0.04091508 -0.0039397688 -0.20936579 -0.0841239 -0.0033356796 -0.06065881 -0.10295542
-0.13172069 0.26029462 0.36000776 0.23275141 0.5262551 0.16818666 0.33373946 -0.112108134
-0.4780908 0.10226005 -0.033802275 -0.37220493 -0.016936056 -0.14899853 -0.795965 -0.16000567
-0.01717613 0.23530567 -0.36618546 -0.5967431 -0.8301086 -0.24957146 -1.8321816 -0.1492492
0.42592502 -0.23043041 -0.29631478 -0.16069622 -0.52736944 -0.054323435 -0.80958766 -0.24272056
0.10504745 0.025171295 0.009813284 -0.025562823 -0.1768156 -0.4504543 0.0012944321 -0.14919166
0.49687433 0.24995992 0.09601095 -0.03193897 -0.022917677 0.034095984 0.15138005 -0.03157431
0.28862727 -0.03170817 -0.11419336 -0.02386465 0.0662378 0.3333813 -0.45243663 -0.11416082
-0.24130976 -0.09981172 0.33135676 0.18403083 0.19655369 0.1932303 -0.096607484 -0.029348662
0.21585374 -0.5835262 -0.3259831 -0.39119208 -0.14760149 -0.12443868 -0.07674284 -0.21450886
0.12589152 -0.5286545 -0.49188578 -0.27885082 0.07828452 0.057327095 0.07339628 -0.16145867
0.09330674 -1.1128232 -0.24103874 0.30472016 0.34314373 0.2912021 0.2605652 0.39244935
0.12554681 -1.2136638 0.25102314 0.23488048 -0.04989714 0.3565644 0.13279997 -0.0873859
0.013094349 -0.66522425 -0.20030834 0.060475543 0.0567912 0.23263188 0.27685487 -0.12418001
0.15279837 -0.9468485 -0.42571387 0.040503304 0.19863899 0.24256662 0.49571517 0.47480202
0.08707794 -1.1739763 0.45462167 0.10529268 0.15245847 0.21763255 0.17069988 0.19002952
0.10405027 -0.5764492 0.23612884 0.25353268 0.16611202 0.1392191 0.0702051 -0.4315834
0.1125939 0.05354203 0.13381426 0.34151593 0.018285392 0.013129841 -0.2283091 -0.3110028
-0.23736438 -0.38561615 -0.18601921 0.16059092 0.18754041 0.027943436 -0.27458 0.04830523
-0.13402921 -0.21862513 0.17392486 0.3280378 -0.13535322 0.5553981 0.5254357 0.15061095
0.34857312 -0.44522163 -0.26129174 0.08182846 0.3299428 0.016354894 0.12860227 -0.0019740409
-0.105276935 -0.62285477 -0.013163867 -0.3155 -0.025152287 -0.3049587 0.013529646 -0.34774005
0.20962478 -0.007871344 0.051304962 -0.08225367 -0.13590862 -0.09456928 0.26921934 0.26960906
-0.16384578 -0.46921343 0.12878695 0.11881591 0.11813748 -0.03798259 0.037450567 0.3612621
-1.5008425 -0.36141473 -0.68588763 0.2744075 -0.18392313 -0.32420886 0.51644456 0.1536673
