checkpoints/checkpoint_93.11.pth (torch, 63568 bytes, 3 tensors)

weight f4 [4, 1, 3, 3]
000000 b6 06 0c bf 6d a2 22 3e ef ac 66 3f e3 83 12 bf
       -0.5469774 0.15882273 0.90107626 -0.57232493
000010 37 99 a7 3e 7d bd 1c 3f 69 77 17 bf 62 ad 05 bf
       0.3273408 0.61226636 -0.5916658 -0.52217686
000020 76 36 a7 3e 31 65 df bd 6a 36 47 be b0 ee a4 3d
       0.32658738 -0.109079726 -0.19454351 0.080533385
000030 6e 4d a7 be 5b 5d f0 bd 04 ff 9b be 67 1c 87 3d
       -0.32676262 -0.11736556 -0.30468 0.06597214
000040 16 aa 6a 3d 71 4b 11 be 9e 02 af 3f 34 da f5 3e
       0.057291113 -0.14188935 1.3672674 0.48018038
000050 74 58 a0 3d f2 b7 68 40 bd 12 46 40 dc 50 3e 40
       0.07829371 3.6362271 3.0948937 2.9736853
000060 37 ac 12 40 53 64 15 40 f9 e8 50 40 11 d7 c1 be
       2.2917612 2.3342483 3.2642195 -0.37859395
000070 01 6f 80 bf d3 c6 3f bf 8f 01 0a bf fb 87 dd bd
       -1.0033876 -0.74912757 -0.5390863 -0.10816952
000080 1f 04 23 3f a7 16 d8 3e 34 40 79 3f bc 0c 56 3f
       0.63678163 0.42204782 0.9736359 0.8361318

weight f4 [8, 4, 3, 3]
000000 46 15 0d 40 ee d1 5e 40 f6 2e 64 3f 85 3b e5 be
       2.2044234 3.481563 0.89134157 -0.44771972
000010 c6 7a 34 40 b2 30 1c 40 81 6b df be 2c a0 0f 3f
       2.8199935 2.4404721 -0.43636706 0.5610378
000020 aa f8 4d 40 12 ea b7 3d 79 6b 9f 3d a0 4e 81 3d
       3.2183022 0.08980192 0.07784171 0.06313825
000030 c0 09 1b bd 86 ec 06 bd 2b 57 f1 bc 4b 62 20 3d
       -0.037851095 -0.03294041 -0.02946051 0.03915624
000040 84 9d cb 3c ec 3e e3 3d d2 13 2a 3e 97 83 68 3e
       0.024855383 0.11095986 0.16609123 0.22706448
000050 8e 67 c0 3d db 3d 04 be 4b 2a d9 be ca 91 fc 3b
       0.093947515 -0.12914221 -0.4241508 0.007707809
000060 3b 97 cb 3e fe 5b 86 bd 71 40 62 be 19 64 86 3f
       0.39763817 -0.06560515 -0.22094895 1.0499297
000070 04 33 a7 3f 39 53 d4 3e 85 f2 9e bf cf f0 52 c0
       1.3062444 0.41469744 -1.2417761 -3.2959478
000080 3f 7f 56 c0 f4 4d e8 be d2 13 a4 bf ab b8 86 c0
       -3.3515165 -0.45371974 -1.2818549 -4.2100425
000090 f6 f8 e6 3e af f1 aa 3f 66 cc e7 3e d1 1a a3 be
       0.45111817 1.3355006 0.4527313 -0.31856397
0000a0 15 c1 9d 3f 6e 0c 8d 3f 12 30 c2 3f e9 2b 46 3f
       1.2324549 1.1019418 1.517092 0.7741075
0000b0 67 e8 dc be 11 c6 61 bd 60 31 91 bd 00 87 a4 3c
       -0.4314606 -0.05512053 -0.07089496 0.020083904
0000c0 93 b9 4d 3d 02 75 ae bb 1c 1e d1 3d 38 8c 15 be
       0.050225805 -0.005324007 0.10210821 -0.1460427
0000d0 ee c5 36 be 97 3c 9e 3d e6 5a 84 3e 35 6a 95 be
       -0.17848942 0.077264 0.258506 -0.29182592
0000e0 69 12 68 be a2 74 5c 3e b7 9c cb be 7c d3 1e bf
       -0.22663273 0.21528867 -0.39768 -0.6204145
0000f0 96 26 0d 3f 70 d9 d3 3e d0 5a e5 bc 8d 6b 6c 3f
       0.55137 0.4137683 -0.027997404 0.9235161
000100 b1 5f 6d 3d cc fc 11 bb 08 53 27 3f 2f 1e 5f bf
       0.057952587 -0.0022275923 0.6536107 -0.8715543
000110 72 0e 3c c0 09 7c 2c 3f e4 47 ad 3f 9f 4e bc 3d
       -2.9383817 0.6737676 1.3537564 0.09194683
000120 d8 b9 c1 3e c6 18 77 bf ec 4f 65 3f 59 b0 aa 3f
       0.378371 -0.96522176 0.89575076 1.3335067
000130 ba ba ee bd 82 f4 07 be 22 b6 19 40 a3 80 1e 3f
       -0.11656709 -0.13276866 2.4017415 0.61915034
000140 7c 87 82 bc bc 0c 09 3e 56 87 b8 3c 03 45 a2 bc
       -0.015933745 0.13383764 0.02252547 -0.019808298
000150 45 2b 18 be eb 66 a1 3c 69 26 21 be 8f 8b cd 3d
       -0.14860256 0.019702395 -0.15737309 0.10036384
000160 de 57 27 3e 1d 98 eb 3d 20 29 b0 be 85 94 95 be
       0.16342112 0.11503623 -0.34406376 -0.29214874
000170 ad 9b 84 3e 0b 64 10 bf 71 70 08 be 91 3e 71 3e
       0.2590002 -0.56402653 -0.13324143 0.23559023
000180 d5 f7 3d be 1e 55 d3 3e c8 e7 ef 3e 37 44 4e 3f
       -0.18551572 0.41275877 0.46856523 0.8057284
000190 68 2a c7 3f 7b 8d 00 40 4c ac e7 be 72 15 8f 3e
       1.5559816 2.0086353 -0.4524864 0.2794605
0001a0 07 66 3d bf 3b bb 82 3f 13 bf e2 3e 99 46 78 bf
       -0.73983806 1.0213388 0.44286403 -0.96982723
0001b0 7e ea 51 3f 7b d0 06 bf 1a a6 f3 3e 79 8a 33 bf
       0.8199843 -0.52661866 0.47587663 -0.7013317
0001c0 0e 5d ea bf eb ef ff bf 96 b0 71 3f 64 c4 bb 3e
       -1.8309648 -1.9995092 0.94410074 0.36673272
0001d0 72 63 35 bf 0b d7 ac 3d 75 a1 03 be a3 32 db bd
       -0.70854867 0.08439454 -0.1285456 -0.107030176
0001e0 8e 56 c7 3c e7 cc 0d be 95 b7 e6 bd d9 48 c6 3d
       0.024333265 -0.13847695 -0.11265484 0.09681863
0001f0 eb ee 0b be 5b 1d a5 ba c5 0e da bd ed a0 9c bd
       -0.13665359 -0.001259725 -0.10647348 -0.07647882
000200 3d ec 39 be ec 5c 73 be f5 75 a7 be e2 ec 4b be
       -0.18156524 -0.23765916 -0.32707182 -0.19914582
000210 be f5 c3 3e c9 75 81 3e 95 7a 7c 3e 4a a1 e0 bc
       0.38273424 0.25285175 0.24656136 -0.027420659
000220 2e a6 4d 3f d1 09 cd 3f d8 1a d8 3f 28 7d 18 40
       0.80331695 1.6018621 1.6883192 2.382639
000230 d0 ee 07 40 d9 c6 6d 40 cf ab 40 40 1b 0d 12 3f
       2.123951 3.7152617 3.0104864 0.5705125
000240 1e d5 c3 3f 6f c8 81 bb 95 3c b4 be 94 a6 03 40
       1.5299413 -0.003960661 -0.3520247 2.0570421
000250 f1 a3 68 3f ee 45 41 3f f9 f2 81 bf d4 94 42 bf
       0.90875155 0.7549733 -1.0152274 -0.76008344
000260 73 15 8b 3f 20 8f 3b bd 71 b8 8d 3d 57 27 90 bd
       1.0865921 -0.04579079 0.06919945 -0.070387535
000270 54 d8 be 3d 8e d7 86 bd cb 24 10 be c0 e5 23 be
       0.09318605 -0.065840825 -0.14076535 -0.16005611
000280 1e 18 c1 3c eb 1b 97 3d ca 10 9b 3e 7d 93 bc 3e
       0.02357107 0.07378372 0.30286247 0.36831275
000290 43 56 1b 3e 7c 6a d3 be 64 74 14 be ab 94 60 be
       0.15169625 -0.4129218 -0.14497524 -0.21931712
0002a0 a5 fa 78 3d a9 a9 80 be f3 53 49 be 17 b8 21 40
       0.06078591 -0.2512944 -0.1966093 2.526861
0002b0 80 f3 27 40 9a 61 12 40 db 2d 4a 3f 78 34 01 3f
       2.624237 2.2872071 0.7897622 0.50470686
0002c0 7f 16 12 40 80 76 01 40 8b 54 51 40 73 fb 2a 40
       2.282623 2.0228577 3.270785 2.6715972
0002d0 f2 49 94 be 72 41 25 c0 d1 3a 6a c0 d4 40 8c bf
       -0.28962666 -2.5821195 -3.6598399 -1.0957284
0002e0 0e b8 dc bf df d1 a0 bf 88 b9 e1 bf bc 1e 31 c0
       -1.7243669 -1.2564048 -1.7634745 -2.7675009
0002f0 73 6c f5 bf 21 ed ad bd 97 2c fe bb e0 98 f2 bd
       -1.9173721 -0.084924944 -0.0077567804 -0.11845565
000300 28 c8 cb bd 2e f8 bb 3d 24 a0 29 3e ac d5 ad bc
       -0.09950286 0.09178196 0.16564995 -0.02122005
000310 bb 3d 01 3c 21 73 46 bd 32 62 49 3e 5a 18 31 3f
       0.007888253 -0.04844964 0.19666365 0.6917778
000320 43 2e f3 3e 14 7f fc be 9d 48 87 bd bf a2 8c 3e
       0.47496232 -0.49315703 -0.06605647 0.27467915
000330 a7 2c ce be ed 4c 66 be d9 3f 9c be f6 2a 07 40
       -0.40268442 -0.22490282 -0.30517462 2.1119971
000340 b6 66 5a 40 a4 ee 77 40 12 1f 14 c0 be 0e 02 c0
       3.412519 3.8739405 -2.3143964 -2.0321498
000350 98 3e f4 be 81 f4 19 bf a4 e8 5f be 29 17 c6 3d
       -0.47704005 -0.6013871 -0.21866089 0.09672386
000360 a9 35 ee 3d 51 72 10 bd 00 f8 55 bd c7 b0 0c be
       0.116313286 -0.03526527 -0.052238464 -0.1373931
000370 7a 85 0d be 4b c0 73 3d 05 13 6e 3d 33 f0 af 3d
       -0.13820449 0.059509557 0.058123607 0.08590736
000380 c8 5b 87 bd fe 77 96 bd 00 30 3d bc d3 ca 8f bd
       -0.06609303 -0.073471054 -0.011547089 -0.070211075
000390 8b db 5c bd da f6 0a be 53 21 f7 bd bb d0 38 3d
       -0.05392031 -0.13570729 -0.12066903 0.045120936
0003a0 8d 21 b5 bd d6 c0 a8 3d 96 a4 fa bd 83 51 26 be
       -0.0884429 0.082399055 -0.122384235 -0.16242032
0003b0 c0 3c fa bd b8 f8 d1 bc 51 b0 e5 bd 87 f5 29 be
       -0.122186184 -0.025631294 -0.1121527 -0.16597567
0003c0 10 fb d5 3c 36 93 cb bd 60 e0 1c be d6 ce 91 3c
       0.026120692 -0.09940188 -0.15319967 0.017798822
0003d0 0b e3 bf 3c 8b 54 fe bc e0 4f d4 bc 88 b5 f4 3a
       0.023423692 -0.031046173 -0.025916994 0.0018669823
0003e0 a0 01 6a bd a1 c7 13 3e 7a fa bb 3d 70 b6 a8 3d
       -0.057130456 0.14431621 0.09178634 0.08237922
0003f0 93 a6 9e bf fc 43 79 c0 81 28 03 c0 17 8f 42 bf
       -1.2394584 -3.8947744 -2.0493472 -0.7599959

weight f4 [29, 512]
000000 f2 30 87 c0 99 9c 1f 40 fb b0 11 be 2e 60 96 3e
       -4.224725 2.493933 -0.14227669 0.29370254
000010 db e2 b4 3e 84 37 a4 3e d7 96 23 3f f4 ac 03 bf
       0.35329327 0.32073605 0.6390204 -0.5143578
000020 4d 27 31 3e 49 e8 b0 bf ce 34 21 bf 0c 24 cb be
       0.17300148 -1.3820888 -0.629712 -0.3967594
000030 75 d3 ce 3c 4d 48 d3 be 7d 96 0b bf 06 a6 66 bf
       0.025247315 -0.412661 -0.545265 -0.9009708
000040 a5 69 e1 3e 47 4f f0 be ff dc bd be fa 18 26 bc
       0.44025913 -0.46935484 -0.3708267 -0.010137791
000050 36 f1 c2 be 8a 74 94 3e 73 b7 20 be 6e 53 e5 be
       -0.38074654 0.28995162 -0.1569498 -0.44790214
000060 4c d1 99 3e bb 4e 9e 3d bf d4 d2 bd c7 d2 e6 bd
       0.30042493 0.077298604 -0.10294484 -0.11270671
000070 3e 66 c2 be fb 2b 33 bf 46 f4 69 bf 1a c0 c4 bd
       -0.3796863 -0.69988984 -0.91388357 -0.09606953
000080 ce 45 57 bd a3 e8 6d bf da 9c 23 bf fd 95 07 bf
       -0.052556805 -0.929331 -0.6391121 -0.5296324
000090 d4 96 b7 be ff bd 26 bf 7b ef e4 be 4c 80 37 3e
       -0.3585726 -0.6513366 -0.4471396 0.17920035
0000a0 71 31 3f bd 17 14 2f bc fb 87 a9 bd 44 e4 22 3e
       -0.04667801 -0.010685942 -0.08277889 0.15907389
0000b0 22 13 05 3e 2f 5f 6c 3d 97 55 cb bd 25 43 a8 3e
       0.1299558 0.05770796 -0.09928434 0.32863727
0000c0 e6 ee 4f 3f 21 2f df 3d ec 5d ac 3e 48 9c 12 3e
       0.81223905 0.10897661 0.33665407 0.14317429
0000d0 4f bb 77 3e 41 5e a3 bd 97 2d d7 3d a8 cd aa bd
       0.24192546 -0.07976962 0.105067424 -0.08340007
0000e0 5f 68 b3 3d f1 16 a8 3d 9b 00 81 3d 2f be 81 be
       0.087601416 0.08207501 0.062989436 -0.2534041
0000f0 0b b4 aa bd 1f e3 eb bc ac 0d a7 bd 41 a1 5c be
       -0.08335122 -0.028794823 -0.081569046 -0.21545888
000100 50 98 9a be f2 33 b1 3e d0 dd f3 3e a3 94 6e 3e
       -0.3019433 0.34609944 0.47630167 0.23298888
000110 52 5b 3c 3f fb f4 b8 3e 23 70 1b 3f f4 3b 16 be
       0.73576844 0.36124405 0.6071798 -0.14671308
000120 a7 f5 bc be bc cd d5 3d 67 47 9a bc 8a ad b7 be
       -0.36906168 0.10439631 -0.018832875 -0.35874587
000130 67 33 4f bd 2a de 57 be 2b 0d 8a bf 2e 5e 6b be
       -0.05058613 -0.21080843 -1.0785269 -0.22985145
000140 ad b4 8d 3d fe d5 e0 3e b8 05 db be 88 93 30 bf
       0.06919227 0.43913263 -0.427778 -0.68975115
000150 33 c6 6d bf 76 c1 7a be bd 37 14 c0 ae 52 40 be
       -0.92880553 -0.24487862 -2.315902 -0.1878154
000160 d2 4b 03 3f 76 21 85 be b0 a0 a7 be a0 eb 72 bd
       0.5128757 -0.2600209 -0.32739782 -0.05930674
000170 97 2a f0 be 63 1c a5 3c ba f0 54 bf af cf 89 be
       -0.46907493 0.020155137 -0.8317982 -0.26916263
000180 d0 a4 1a 3d df 8d 90 3d 9c d4 b5 3c 32 20 95 bd
       0.037754834 0.0705831 0.022196107 -0.072815314
000190 dd 68 05 be 48 fe dd be 57 81 fe 3d 77 83 02 be
       -0.13028283 -0.43358064 0.12427013 -0.12745462
0001a0 c5 21 fb 3e c8 ab 69 3e 73 99 19 bd 3d 1d f5 bc
       0.49049202 0.22819436 -0.037499856 -0.029921168
0001b0 01 db 0c be 13 f9 04 3c ad 2c 89 3e 2d 3c 2a bd
       -0.13755418 0.008116025 0.26791897 -0.041561294
0001c0 42 68 e3 3e ef 93 a7 bd 54 fe 06 be d9 02 e1 bd
       0.4441548 -0.08182513 -0.13182956 -0.10986871
0001d0 e4 de 8b 3d 47 57 c9 3e 09 83 d4 be 9e 44 0a be
       0.068296224 0.393244 -0.41506222 -0.13502738
0001e0 64 db d1 be 75 d9 4c be 27 67 d2 3e 4d 9c 1c 3e
       -0.40987694 -0.20004828 0.41094324 0.15293999
0001f0 01 f2 3e 3e f1 b3 ee 3d be 50 f6 be 9c f2 5f 3c
       0.18647005 0.11655415 -0.48108476 0.013668682
000200 ba 93 9d 3e 47 33 4b bf b8 1f b9 be ac 48 0e bf
       0.3077677 -0.7937512 -0.36157012 -0.5557964
000210 16 cd ad be 2c 3c 3d be 6b 8c 5c bd b7 f7 87 be
       -0.3394553 -0.18479985 -0.05384485 -0.2655618
000220 f2 16 21 3e 42 14 15 bf c9 d1 e8 be 56 8c 70 be
       0.15731409 -0.58234036 -0.45472553 -0.23491034
000230 a4 52 ef 3d 94 b7 f2 3d 9c fa 78 3e 93 e0 8b be
       0.11685684 0.11851421 0.2431435 -0.27319774
000240 e1 73 35 3e 1c e7 b6 bf 3c 58 98 be b4 19 a7 3e
       0.17719986 -1.4289279 -0.29754817 0.32636797
000250 57 63 09 3f 2f f4 09 3f 20 35 c8 3e bc d2 0c 3f
       0.53667206 0.5388822 0.3910303 0.55009055
000260 c4 fc 57 3e 48 b1 c7 bf cb 44 eb 3e 40 08 86 3e
       0.21092516 -1.5600977 0.45950922 0.2617817
000270 b5 36 aa bd e6 38 cc 3e 52 4a 63 3e f2 5b 85 bd
       -0.08311216 0.3988716 0.2219632 -0.06511678
000280 45 22 32 3d 4a 17 83 bf 3a 6b 74 be 06 6e fa 3d
       0.043489713 -1.0241482 -0.23869029 0.122280166
000290 8f 1a 2e 3d f0 47 ab 3e 73 62 92 3e e7 dd 16 be
       0.042505797 0.3345332 0.28590736 -0.14733087
0002a0 68 56 6c 3e f1 00 a4 bf 39 20 15 bf 45 c8 9d 3d
       0.23079836 -1.2812787 -0.5825229 0.07704214
0002b0 db 35 77 3e 4a 3e 77 3e 28 9f 19 3f a4 a5 0f 3f
       0.24141638 0.24144855 0.6000848 0.5611212
0002c0 bb 14 ef 3d 29 06 be bf 4e 58 fd 3e 2e ea e6 3d
       0.11673876 -1.484563 0.49481434 0.11275135
0002d0 8f 75 1a 3e 43 a7 66 3e 63 e5 84 3e 0b 27 94 3e
       0.15083908 0.22524743 0.25956258 0.28936037
0002e0 bd 07 02 3e 23 ad b2 be e9 32 a5 3e 5d 45 91 3e
       0.12698264 -0.34897718 0.32265404 0.28373232
0002f0 bb de 39 3e b0 52 15 3e d0 39 06 3e 07 ed d8 be
       0.18151371 0.14582324 0.13107991 -0.42368338
000300 73 43 bc 3d e5 97 34 3d b2 6a 0e 3e f2 62 ef 3e
       0.091925524 0.04409017 0.13907889 0.46755177
000310 56 27 5d 3d c3 d3 ab 3c ec e7 9b be 84 01 c3 be
       0.05399259 0.020975 -0.3045038 -0.38087094
000320 38 d9 7c be 41 21 db be 87 a5 85 be 8f 7f 9e 3d
       -0.24692237 -0.42798808 -0.2610285 0.077391736
000330 03 34 28 3e 97 b7 88 3d 8e f9 a2 be 59 0f fe 3c
       0.16426091 0.06675642 -0.3183102 0.031013178
000340 c8 ed c8 bd 5e d9 7b be 1f 5f 07 3e e2 c3 63 3e
       -0.09810978 -0.24594638 0.1321988 0.22242692
000350 4b 88 0e be 57 67 1c 3f 06 76 06 3f 90 7f a1 3e
       -0.13919179 0.61095184 0.5252384 0.31542635
000360 ab 68 bf 3e 9a ef f2 be 6b 93 4e be 1d f3 66 bc
       0.37384543 -0.47448426 -0.20173423 -0.014096049
000370 e9 c4 68 3e 4b 65 19 be 8d 42 84 3d 38 01 02 3e
       0.22731365 -0.14980046 0.06458006 0.12695777
000380 4e 20 40 bd e9 5a 70 bf e5 42 18 be 37 64 f7 be
       -0.04690581 -0.9388872 -0.14869268 -0.48318645
000390 ab c9 81 be 47 8a e9 be 9e 74 12 bc 36 2d 6a be
       -0.25349173 -0.4561331 -0.0089389365 -0.22868809
0003a0 a0 30 59 3e fc 39 4b be 2f ac 33 3e 96 09 1d be
       0.21209955 -0.19846338 0.17546152 -0.15335688
0003b0 5e 26 95 bd b8 8a 52 3c 63 e0 b9 3e 3c ad e2 3e
       -0.072827086 0.012850456 0.36304006 0.44272792
0003c0 96 af 57 be 00 be 3a bf bf da 2b 3e 47 4c 8c 3e
       -0.21063074 -0.72946167 0.16782664 0.27401945
0003d0 02 7d 36 3d 62 4c 16 be c4 a1 15 3e 1d fb dd 3e
       0.04455281 -0.14677575 0.1461249 0.43355647
0003e0 7b 98 0e c0 2a b2 c2 bd 84 f7 7d bf 27 01 d8 3e
       -2.2280567 -0.09506638 -0.99205804 0.4218838
0003f0 8f 47 d1 bd 9e 0c a4 be 5e 0e de 3e 87 b1 b8 3e
       -0.10218727 -0.32040876 0.43370336 0.36072943
